checkpoints/best_0.3417.pt (torch, 328019 bytes, 22 tensors)

layer1.0.weight f4 [32, 1, 3, 3]
000000 d2 ab 4c 3e da bd 4c 3e 92 19 a3 bd 51 41 a0 3e
       0.19987419 0.19994298 -0.079638615 0.31299832
000010 9d 0c 00 be 3a aa e1 3d 21 2d b6 bd 39 93 6f 3e
       -0.12504812 0.11018796 -0.088953264 0.23396005
000020 1e 94 b8 3e 49 2c 8f be ac 27 8c 3e 6f 2b 42 3c
       0.36050504 -0.27963474 0.27374017 0.011851176
000030 43 a0 3e 3e f0 58 3f 3d e2 87 be 3d 9d f2 87 bd
       0.18615822 0.046715677 0.09303261 -0.06638072
000040 fa 6c a3 3e f1 14 2a 3d 68 97 ea bd 8c 6c c9 3d
       0.3191908 0.041523878 -0.1145466 0.09835157
000050 f8 a8 f4 bd a7 40 7c bb 5c f2 09 be 02 dc 7b 3e
       -0.11946291 -0.0038490684 -0.13471359 0.24595645
000060 c1 c1 8d be 80 b2 41 be 2b d3 a5 bd 93 98 4b be
       -0.27686885 -0.18915749 -0.08096918 -0.19882421
000070 91 d5 1e 3d 9c 80 a6 be 76 2b 9e 3e ac f8 86 be
       0.03877789 -0.32519996 0.30892533 -0.26361597
000080 55 f9 88 3e e3 cc 85 3d cd f3 b2 bd c3 83 5f 3e
       0.26752725 0.0653322 -0.087379076 0.21827607
000090 e7 52 af bb 79 75 95 3e e2 1f 31 3c ef d9 21 be
       -0.005350459 0.29191187 0.010810824 -0.15805791
0000a0 26 36 03 3e ad c4 ec bd b1 f7 97 3d 90 8e 9e 3e
       0.12813625 -0.115609504 0.0742029 0.30968142
0000b0 e3 a1 0f 3e 8a 87 f0 bd 6d 1f 69 3e 19 05 ab 3d
       0.14026599 -0.11744602 0.22765894 0.08350582
0000c0 c0 42 3c 3e 10 67 2d be c7 d4 a2 be 27 48 06 be
       0.18384838 -0.16933846 -0.3180296 -0.13113461
0000d0 3d 4e 6e be eb d4 8d 3e 67 2d ec 3d cc af 17 3e
       -0.23272033 0.27701506 0.11532097 0.14813155
0000e0 6b a0 06 3e 41 f8 31 bc 3f 9f 7c 3e 79 a9 6a be
       0.13147132 -0.010862411 0.24670123 -0.22916211
0000f0 ae f5 7a 3c f2 80 6b be 85 24 cf 3d 3d 18 de bd
       0.015317364 -0.22998407 0.101143874 -0.10844467
000100 c1 48 ca 3d 2c 2d 85 bd 86 d4 8f 3e 64 c3 50 be
       0.09877158 -0.065027565 0.2809183 -0.20387036
000110 e2 7e 4b be f4 18 4e be a2 09 96 3e 3e 87 e8 3d
       -0.1987262 -0.20126706 0.29304224 0.113539204
000120 e8 9c b6 3e 3a e4 6b be a3 18 a0 be 34 9e 5f be
       0.35666585 -0.2303628 -0.31268796 -0.21837693
000130 80 ea 38 be 6f f2 1d 3e 36 bb 1d 3e a8 d2 9d 3e
       -0.18058205 0.15424512 0.15403447 0.3082478
000140 56 0c 1a be 7b 2a 3e be 33 0e 50 3e 0a 5a d2 bd
       -0.15043768 -0.18570893 0.20317917 -0.1027108
000150 65 2e 64 3e f0 e0 5e bd d3 7c 57 3e 8b 3c 83 be
       0.22283323 -0.054413736 0.2104371 -0.25632128
000160 af a5 26 be 88 76 df 3d 7c ec 78 3d 64 b5 ce bd
       -0.16274141 0.1091128 0.060772404 -0.10093191
000170 99 01 45 3e 3b 2c 69 3e 02 f9 7b be b6 ea 2f be
       0.1923889 0.22770779 -0.24606708 -0.17179379
000180 22 7c 98 3e 34 44 01 be 3f 07 f8 bd 7d dd b8 be
       0.29782206 -0.12623674 -0.12110757 -0.36106482
000190 9c 16 7a be 77 98 a0 3d 9b 0d 6a bd d5 79 88 be
       -0.24422687 0.0784158 -0.05714188 -0.2665545
0001a0 36 a0 b8 3c b3 f1 3a be 05 d0 70 be 80 e4 08 be
       0.022537332 -0.18256263 -0.23516853 -0.13368416
0001b0 f7 14 a2 be 9e f4 69 be 1e 38 b2 3e ce 2c ea 3c
       -0.3165662 -0.2284722 0.3480844 0.028585818
0001c0 45 fa a9 3d 56 57 8e be 49 7f 33 be d2 d7 d0 bd
       0.08299688 -0.27801007 -0.17529024 -0.101974145
0001d0 47 7f ba 3d 06 cc a4 be 2c 70 50 be 7b f9 4d be
       0.091063075 -0.32186908 -0.2035529 -0.201147
0001e0 0d 9d d2 bb e2 67 2c be 6e 08 b6 bb 81 d7 34 be
       -0.0064274133 -0.16836503 -0.005555204 -0.17660333
0001f0 9e a6 54 be 31 6a 12 be 70 0a 04 be 2e 95 88 be
       -0.20766684 -0.14298321 -0.12894607 -0.26676315
000200 a4 01 8f 3e 6c 41 b5 bd 68 28 89 3e 27 fa c4 3d
       0.2793094 -0.08850369 0.2678864 0.09618025
000210 70 38 95 be 58 9c 65 3e 26 1d ac bd 36 73 ad bd
       -0.2914462 0.22422922 -0.08403997 -0.0846924
000220 1e 59 a7 be ee 68 af be 2d 6f f9 3d 96 21 e5 bd
       -0.3268518 -0.34259742 0.12179408 -0.11188047
000230 4b 4f 07 3e 20 7c 7f be 2a 6c 6b 3e d6 9a 75 be
       0.13213842 -0.24949694 0.2299048 -0.23984846
000240 f5 56 a6 bc 3e 1f c9 3d 20 a1 52 3e 71 cd 95 3e
       -0.020305136 0.09820412 0.20569277 0.29258302
000250 b2 ff a8 3e 83 f3 68 be d8 51 e7 3d 91 4e e8 bd
       0.3300758 -0.22749142 0.11294907 -0.1134311
000260 a4 80 fd ba c9 88 8a be d0 ad 96 3e f3 1b 89 be
       -0.0019340706 -0.27057484 0.29429483 -0.26779136
000270 ee f5 13 3e 9c bf be 3d 7c f0 86 3d ae fc 45 be
       0.14449283 0.0931389 0.065888375 -0.19334671
000280 a5 21 99 3e a8 a3 10 3d cd 65 39 3d 93 0f 9c be
       0.2990848 0.035312325 0.0452631 -0.30480632
000290 74 7f 12 3e 62 ae 1e bd 1f 9f 1c be f0 85 96 3e
       0.14306432 -0.038740523 -0.15295075 0.2939906
0002a0 c5 9e c1 3d 17 24 28 be 4d ac 10 be 3a 33 99 bc
       0.09454111 -0.16420017 -0.14128228 -0.018701185
0002b0 c7 8d 38 3e eb e6 dd bd 47 ba 39 be 7b fc e2 bd
       0.18022834 -0.1083506 -0.18137465 -0.11083313
0002c0 58 27 81 be cc 46 01 3e 86 7a 85 3e 4c cb 9d be
       -0.2522533 0.12624663 0.2607004 -0.30819166
0002d0 1a b8 af 3d 0f 99 1d 3e 3c e8 9c 3d 7a 35 c4 bd
       0.085800365 0.15390418 0.07661483 -0.09580512
0002e0 3a 3c 33 3e bf 2c 47 3e 0e 0f 1d 3e fa ab d2 bc
       0.17503443 0.19450663 0.15337774 -0.02571677
0002f0 2f c1 4f bd a1 aa a0 3c 2f 79 a1 bd 11 74 e5 bd
       -0.050721344 0.019612612 -0.07884442 -0.112037785
000300 3e 2d 61 3e 79 37 89 3e 26 48 03 bd 8b 42 67 bd
       0.21989915 0.26800135 -0.032051228 -0.056459945
000310 dd 32 f9 3b ac a3 a5 bc 8a 90 ac 3d 1b 7b 99 3d
       0.0076049403 -0.020219646 0.08426006 0.07494184
000320 46 3f a1 be f5 2f f4 bd 2e 4e 85 3e b8 30 e8 3d
       -0.31493586 -0.119232096 0.2603621 0.11337417
000330 ab a6 e4 bb 99 00 67 be 22 71 68 be 70 73 8e be
       -0.006977876 -0.22558822 -0.22699407 -0.27822447
000340 e6 a4 bc bd 5d b0 11 3e f6 c4 64 3e 44 81 27 3e
       -0.092111394 0.14227434 0.2234076 0.16357905
000350 04 de 89 be b2 39 45 be cb f8 2e bd 6d 80 af 3e
       -0.26927197 -0.1926029 -0.042717736 0.3427767
000360 18 49 ce 3d 9c 36 da b9 c9 0c 44 3e 07 6e b8 bd
       0.10072535 -0.00041620887 0.19145502 -0.09005361
000370 1f c5 04 be 3a c6 92 3e 95 ce 07 be c0 52 cb bb
       -0.1296582 0.2866686 -0.13262399 -0.006204933
000380 e9 7f 98 be 4c b5 59 3e de f5 69 3e 97 be dd 3d
       -0.29785088 0.21260566 0.22847697 0.10827368
000390 f3 df 74 be b6 a7 ad be f1 e0 8f be 8c 8e 7d 3e
       -0.23913555 -0.33917016 -0.28101304 0.24761409
0003a0 48 17 20 3e 37 1b 8b 3e b6 b2 68 3e c9 c6 15 3e
       0.15633881 0.271692 0.22724423 0.14626612
0003b0 b1 1f 60 3d 31 e9 57 be 83 eb 5c be 7d 1c 83 be
       0.054717723 -0.21085049 -0.21574216 -0.25607672
0003c0 c6 78 28 3e 78 81 ef bd 8e 87 27 bd 0d 1e 0e be
       0.16452321 -0.11694616 -0.04090076 -0.13878651
0003d0 53 de cd bd ef 92 83 be 3e 2a 29 be f0 bb 96 3d
       -0.100521706 -0.2569804 -0.1652002 0.07360065
0003e0 2d d6 02 be 1a e9 77 3e cb d0 00 be 52 19 72 be
       -0.12777014 0.24210015 -0.12579648 -0.23642471
0003f0 34 c2 1f bd 53 e7 29 be 43 63 b5 bd 35 7b 94 be
       -0.039003566 -0.1659215 -0.08856823 -0.2900025

layer1.0.bias f4 [32]
000000 26 13 8f 3e 6b 5a 55 bd 0b 25 1b bd d9 b3 0b be
       0.27944297 -0.052088182 -0.037877124 -0.13642825
000010 98 ef 99 be d1 f0 a5 be ae 73 fd 3d 2f 69 3c be
       -0.30065608 -0.3241029 0.1237558 -0.183995
000020 43 67 5b be 27 27 d3 bc 60 43 e3 bd cd b8 dc bd
       -0.2142611 -0.025775505 -0.11096835 -0.107774355
000030 bb ee 2e 3c b2 88 90 bd 73 47 e9 bd ea 3e 23 be
       0.010677035 -0.070573226 -0.11390581 -0.15941969
000040 b5 d7 8a be 9e 11 8f 3e a7 9a 08 be 13 82 b4 3d
       -0.27117696 0.27943128 -0.13340245 0.08813872
000050 4b da ec bd cc 35 dd 3c a9 fc 9e 3e 94 a2 1c 3e
       -0.115650736 0.027003191 0.3105214 0.15296394
000060 8b b4 93 be 90 8d 07 3e 91 e1 a1 3e 0b 84 b3 3d
       -0.2884868 0.13237596 0.31617406 0.087654196
000070 68 a6 64 3e a1 03 a8 3e cd 39 50 bd 51 9e 8d 3d
       0.22329104 0.3281527 -0.050836373 0.06914962

layer1.1.weight f4 [32]
000000 60 e5 7c 3f 1b ea 7f 3f 93 2b 79 3f 24 4f 82 3f
       0.987875 0.9996659 0.97332114 1.0180402
000010 c6 78 80 3f 60 87 79 3f d9 26 80 3f d3 6d 87 3f
       1.0036857 0.9747219 1.0011855 1.0580391
000020 ab 53 78 3f b6 d8 7b 3f 8a e7 89 3f 0e 35 77 3f
       0.9700267 0.9837755 1.0773785 0.9656533
000030 6a b6 7a 3f e6 28 7a 3f 24 26 87 3f 58 f5 7b 3f
       0.9793459 0.97718656 1.0558515 0.9842124
000040 6b c3 7c 3f cd f6 81 3f d2 18 79 3f 35 d8 79 3f
       0.98735684 1.0153443 0.973035 0.9759553
000050 fe 47 7c 3f ca 7c 80 3f fe 9e 78 3f d8 df 81 3f
       0.9854735 1.0038083 0.971176 1.0146437
000060 a4 2d 7c 3f 66 4d 7f 3f 5e 37 7d 3f 89 d8 76 3f
       0.9850714 0.99727476 0.9891261 0.96424156
000070 dc 1a 87 3f 53 e4 81 3f 72 5f 7d 3f 37 36 7c 3f
       1.0555072 1.0147804 0.98973763 0.98520225

layer1.1.bias f4 [32]
000000 30 09 0b 3d ac a1 23 3d 89 21 c6 3c 1f d1 4b bd
       0.03394431 0.039949104 0.024185913 -0.04975998
000010 04 d5 40 3d 44 60 7a bb b4 fd 9d 3c 3c 94 ec bc
       0.047078148 -0.0038204351 0.019286014 -0.028879277
000020 32 19 e8 bc ed f9 c7 bc ec 63 0a bc 5a 12 9f bc
       -0.028332327 -0.024411166 -0.008446675 -0.01941793
000030 2d d7 39 bc e6 89 30 3d 4a ac a9 bc ac 97 b0 3c
       -0.011342806 0.04310026 -0.020712037 0.021556698
000040 a3 59 28 3d 74 76 57 3d f7 c4 b6 bc b3 09 0e bd
       0.04110111 0.0526032 -0.022310717 -0.03467722
000050 3f 24 6c 3d 15 a2 44 3d c3 bc 42 3c eb fd 00 bd
       0.057651754 0.048006136 0.011885825 -0.031492155
000060 63 5d 08 3d 90 d6 3a 3d 3c ca 1b 3d 9d 93 57 3c
       0.033292186 0.04561478 0.038034663 0.013157752
000070 df 13 e5 bc 82 54 ee 3c 3d 7c 16 3d 61 63 cd 3b
       -0.027963577 0.02909303 0.036739577 0.0062679504

layer1.1.running_mean f4 [32]
000000 9f ca 8c bf d4 49 54 bf 3a b6 2b 3f 64 1f 33 be
       -1.0999335 -0.8292515 0.6707493 -0.17492443
000010 04 21 91 bf 11 41 9b bd ae 1f 66 be 52 9e 4d be
       -1.13382 -0.0758077 -0.22473022 -0.20079926
000020 c8 cc 90 bd de 92 e5 bb 31 2d f8 bd 5c 3d cb 3f
       -0.07070309 -0.0070060333 -0.121179946 1.58781
000030 1c 3f 30 3f 51 9d d7 3f 2a 8f 01 be 3b b6 65 3f
       0.688463 1.6844884 -0.12652269 0.89731187
000040 54 eb 8c bf 3d c6 ae 3c c5 57 1a 3e 68 16 18 3f
       -1.1009316 0.021334762 0.15072544 0.5940919
000050 ce 8b 6e bf af 67 7c be dd ab 3f 3f ae 9e 1a 3e
       -0.93182075 -0.24648927 0.7487162 0.15099594
000060 b9 a0 3c be 8d 34 9d be 8e bd 21 3f 5d 73 8d 3f
       -0.18420686 -0.30704156 0.6317986 1.1050831
000070 42 00 4b 3e 2b 48 af 3e e3 88 60 bf ea 44 ab 3f
       0.19824317 0.34234747 -0.8770887 1.3380406

layer1.1.running_var f4 [32]
000000 8e f0 25 41 19 4a 62 40 83 43 38 40 57 a5 e7 3e
       10.371229 3.5357726 2.8791206 0.45243332
000010 cb 56 7f 40 24 52 02 3f db 46 5e 3f 40 0a 11 3e
       3.9896724 0.50906587 0.86826867 0.14164066
000020 46 50 07 3f 5f c2 68 3e 54 4a db 3e 02 b8 7b 41
       0.5285686 0.22730397 0.42830145 15.732424
000030 8e 35 2b 40 31 a1 85 41 bf f6 ce 3e bf fa c9 40
       2.6751437 16.703707 0.40422627 6.3118587
000040 6f af 7f 40 8f 0e 49 3f ec 08 38 3f ca 2c eb 3f
       3.9950826 0.7853784 0.71888614 1.8373044
000050 83 ef 6d 40 cc d5 14 3f bb 76 9f 3f 03 9f 49 3e
       3.7177436 0.5813873 1.2458109 0.19689564
000060 67 ba e0 3e 6d d4 bb 3f e6 bf 6f 3f 05 82 bc 40
       0.43892214 1.4674202 0.9365219 5.8908715
000070 6d 8a 1a 3f 74 3f d2 3e ed 35 7e 40 e4 bf 11 41
       0.6036747 0.41064036 3.9720414 9.109348

layer1.3.fc1.weight f4 [4, 32, 1, 1]
000000 c7 b4 02 be 82 29 29 bd a3 88 04 3e e5 41 b4 3d
       -0.12764274 -0.04129935 0.12942748 0.08801631
000010 65 fd ee bd 01 9f 12 be 84 a2 00 be 40 94 35 be
       -0.11669425 -0.14318468 -0.12561995 -0.17732334
000020 81 59 0d be 80 5b 3a bd 0a 0c f0 3d cf 89 e7 3c
       -0.13803674 -0.045497417 0.11721046 0.028263954
000030 e0 f2 0a be f1 76 12 be bd e6 ab 3d f7 f6 07 be
       -0.13569212 -0.14303185 0.08393619 -0.13277803
000040 a4 c4 da bc 68 75 a3 3d f9 92 aa bd 9b f4 ab bc
       -0.026705094 0.07981378 -0.08328814 -0.02099066
000050 a4 a4 a6 bc e0 a9 3f bd 4a f1 ba bd bb 81 23 be
       -0.020342179 -0.046792865 -0.091280535 -0.15967457
000060 e7 bf 13 be 53 df cb bd c4 1e 2d 3e e2 9e b1 bd
       -0.14428674 -0.09954705 0.16906267 -0.086728826
000070 02 87 f9 bd 18 7b 23 3d c9 42 33 3d 13 6d c3 3d
       -0.12183954 0.039912313 0.043764863 0.09542289
000080 c0 fe 06 3e c6 86 c4 3d 3a ed 31 be 77 ee 4c 3c
       0.13183117 0.095960185 -0.17375651 0.012508026
000090 b8 2d d6 3d 84 d0 77 bc 88 39 da bd 0a 5b 29 3e
       0.10457939 -0.015125398 -0.106555045 0.16538635
0000a0 14 29 85 bd 7f 9b d3 bd 2f 6a 27 be 54 68 1a 3c
       -0.06501976 -0.10332393 -0.163491 0.009424288
0000b0 18 59 a3 3d 5a 42 27 3d bc 8b 04 3d fc a2 06 be
       0.07975978 0.040834762 0.032359824 -0.13148111
0000c0 68 63 2b be a4 f9 48 3a 01 88 23 3e f6 b3 d1 3d
       -0.16737139 0.0007666594 0.1596985 0.10239403
0000d0 4f 98 d7 bd 5f 58 cf bc c6 03 06 be 34 93 b6 bd
       -0.105270974 -0.025310693 -0.13087377 -0.089147955
0000e0 9b ee 04 3d d6 f1 bf 3d 32 49 17 3e a6 ba 23 be
       0.032454114 0.093722984 0.14774016 -0.1598917
0000f0 01 1b ed 3d 8f a6 05 be 76 86 82 3d ed 1a 1b 3e
       0.11577416 -0.13051818 0.06373303 0.1514699
000100 0c a0 fc 3b 0f 0b 2a 3e d4 46 40 be b1 fc 99 bd
       0.0077095088 0.16605781 -0.18777019 -0.075189
000110 16 e5 dd 3d 00 2f a4 bd 0c b3 05 bd 2c ec ac bd
       0.1083471 -0.08016777 -0.032641456 -0.08443484
000120 43 3f a3 3d f3 62 2c 3d 96 21 6b 3d cf 8d 09 be
       0.079710506 0.042086553 0.057405077 -0.13433002
000130 24 c6 36 be 88 2f 93 bc 04 39 56 3d ab f6 ef bd
       -0.17849022 -0.017967 0.052300468 -0.1171697
000140 2e 26 38 bd f2 9a 01 3e 26 9a aa 3a a7 87 7b bc
       -0.044958286 0.12656763 0.001301591 -0.015352166
000150 6c 38 1e bd 11 79 1f be 9d a0 49 be 41 78 f6 bd
       -0.038628027 -0.15573527 -0.19690175 -0.12034655
000160 93 62 0f be 56 57 6c 3d 0e 37 c4 bd 85 c4 d5 bd
       -0.14002447 0.057700478 -0.09580813 -0.10437874
000170 d6 09 0d 3e 30 bc 7b 3d 63 55 06 3e fe ed f7 bd
       0.13773283 0.061458766 0.1311851 -0.1210594
000180 28 be 93 bd 6b f0 84 3d 29 fe f0 bd aa 72 ec bd
       -0.07214004 0.064911686 -0.11767227 -0.11545308
000190 c9 c2 0b bc a4 4b 84 bd 87 93 07 be c3 8b d6 3d
       -0.008530327 -0.0645974 -0.13239871 0.10475876
0001a0 c5 6e 11 3e 10 b5 ea 3c b8 e7 fb bc 26 84 27 be
       0.14202411 0.02865079 -0.03075014 -0.16359004
0001b0 be be 83 bd 0b 2b 38 3d 93 8d aa 3d da e6 b6 bc
       -0.064328656 0.044962924 0.083277844 -0.022326875
0001c0 ef ff 8e bd 8a 8c c9 3d 52 07 10 be 2d 9a e4 3d
       -0.06982409 0.09841259 -0.14065292 0.11162219
0001d0 f5 52 8c bd a4 26 31 3b d4 f4 0e bd b4 68 af 3c
       -0.0685176 0.0027031088 -0.034901455 0.021412231
0001e0 54 9c 5a bd 29 80 03 3e ad 73 96 bb 00 2c 0d 3e
       -0.053371742 0.12841858 -0.0045914263 0.13786316
0001f0 68 e2 2d 3e 73 37 b0 bd 8d ee 03 be a2 18 11 3e
       0.16980898 -0.08604326 -0.12883969 0.14169553

layer1.3.fc1.bias f4 [4]
000000 44 a3 08 3e 4e 8e 0b be 1e 1f 4e bc 51 57 32 be
       0.13343531 -0.13628504 -0.012580661 -0.17416121

layer1.3.fc2.weight f4 [32, 4, 1, 1]
000000 fd d5 cf be 9c 13 c1 3d 4f 40 0f 3e d6 dd d8 3d
       -0.40592948 0.09427568 0.13989376 0.10589187
000010 87 e9 0a be 43 9b ec 3e 11 a8 c5 3d ed eb 96 be
       -0.13565646 0.46212205 0.09651197 -0.29476872
000020 c3 84 ef bc 02 60 eb 3d 2a 93 1f 3e 25 d8 b4 be
       -0.02923811 0.114929214 0.15583482 -0.35321155
000030 ee 2c 3f 3e 9d 32 8a be ca 15 c5 be fe b2 8b be
       0.18669483 -0.2699174 -0.38493186 -0.27284998
000040 1c 70 f7 3e f6 8d dd 3e b0 f8 f4 3e ae 22 96 3e
       0.4832772 0.4327237 0.47845984 0.29323334
000050 5b 07 c1 3e 44 9f 9e bd f3 28 9b be f7 95 7f 3e
       0.37700924 -0.07745221 -0.3030468 0.24959551
000060 c3 5d 83 be 2f 23 ad be 85 ac 19 be 02 b2 d6 3d
       -0.25657472 -0.33815905 -0.15007217 0.10483171
000070 c9 22 82 3e db 6e 4c be a5 7e 86 be 7f 00 8a 3d
       0.25417164 -0.19964163 -0.26268497 0.06738376
000080 8a be 97 be 2c e3 a7 be b0 d0 6b 3e 5a db ab bd
       -0.29637557 -0.32790506 0.23028827 -0.08391447
000090 1d e1 e9 3e 75 43 fa 3e 8e 50 b9 3d 1a 0b 30 3e
       0.4567956 0.4887959 0.09048568 0.17191735
0000a0 53 59 e8 3d be 4d f5 3b fd 03 24 3d 73 f9 e0 3b
       0.11345162 0.007486074 0.040042866 0.006865674
0000b0 b6 87 40 3e 4b c6 ee 3e 1c a6 fb bd 8f 3a 58 be
       0.1880177 0.4663566 -0.12287542 -0.21116088
0000c0 8d ea fb bd 13 a5 76 be 6a 6a bf 3d f5 e9 be 3e
       -0.123005964 -0.24086408 0.09346469 0.3728787
0000d0 ed 51 c7 3e 69 74 6a 3e 5a e1 c2 be a9 44 89 be
       0.38929692 0.2289597 -0.38062555 -0.26810196
0000e0 6c 39 e2 bd 09 e8 bd bd ea 04 73 3d 93 c8 ea be
       -0.110461086 -0.09272773 0.05933086 -0.4585615
0000f0 60 ec 1f 3e fa c5 c4 be be d9 a9 be c6 a2 d4 be
       0.15617514 -0.38432294 -0.33173937 -0.41530436
000100 f2 db de 3e 4d e1 ef be a8 d6 ce 3e f7 90 89 bc
       0.4352718 -0.46851578 0.40398145 -0.016792757
000110 50 d9 62 bd 26 35 9d 3e 0f c3 00 bd 0a 67 a0 3e
       -0.055383027 0.30704612 -0.031436022 0.31328613
000120 70 81 b8 3e 44 e8 db be d3 5f 3a 3e 46 21 c1 3d
       0.36036253 -0.42950642 0.18200617 0.094301745
000130 e3 7c da 3d 70 7a a0 3d 7e 59 ef 3d 53 13 76 be
       0.106683515 0.07835853 0.11686991 -0.24030809
000140 11 66 7c bd 70 e3 ee 3e 07 67 ae 3e df bc 99 bc
       -0.061620776 0.46657896 0.3406298 -0.018766819
000150 f0 72 ef be 00 f3 4e 3c 97 22 bd be 60 fb cf 3e
       -0.46767378 0.012631178 -0.36940452 0.4062147
000160 62 fa 9a be d3 a1 14 bd 47 e1 1d be 14 0e b6 3d
       -0.30269152 -0.03628714 -0.15417968 0.08889404
000170 6b b2 f0 3e f7 16 26 3d ab 9f 72 3e 5b 87 c6 3e
       0.47011122 0.040549245 0.23693721 0.38775143
000180 ad 77 ce 3e 31 9a 2c be cd 1a 0f be 7b 85 76 3e
       0.4032568 -0.16855694 -0.13975067 0.24074356
000190 e9 24 08 be 83 2e 6f 3e 6f b5 e7 bd 92 78 ad be
       -0.1329533 0.23357587 -0.113139026 -0.3388105
0001a0 0e da 4d 3e 94 ba a7 3d dd 3f 54 3e 15 18 fe 3e
       0.20102713 0.08189884 0.20727487 0.49627748
0001b0 eb 42 ae 3e 46 e5 f2 3e 29 92 ca 3c 6b 02 dc be
       0.3403543 0.47440547 0.024727898 -0.42970595
0001c0 2b ab b4 be cf ef a7 be 54 a7 e9 be 2a 32 80 be
       -0.3528684 -0.32800147 -0.45635474 -0.25038272
0001d0 85 f1 eb be c9 d5 f2 be 75 19 63 be 97 22 fc be
       -0.46082702 -0.4742873 -0.2217768 -0.4924514
0001e0 d1 09 9b be c9 32 49 3e fb bd e7 3e cf 28 18 be
       -0.30280927 0.19648279 0.4526213 -0.14859317
0001f0 1e 69 14 be 56 70 87 3e 4a 8c 84 be 34 dd 71 be
       -0.14493224 0.26452893 -0.25888282 -0.23619539

layer1.3.fc2.bias f4 [32]
000000 ac 06 98 3e 89 60 de be 4a b5 0d 3d 2e 85 ed 3e
       0.2969259 -0.43433025 0.03459672 0.4639067
000010 37 0e b4 3d 8b 27 e3 3d d2 c5 93 be d4 a5 5b 3d
       0.08791774 0.110915266 -0.28861862 0.053624943
000020 bc 1e 8e b8 66 06 df 3d 05 68 8b 3e cd e0 cc 3e
       -6.7768124e-05 0.10889892 0.27227798 0.4001526
000030 b0 fd cd be f5 ce cb bb ed a5 45 be 9d 37 d2 be
       -0.4023261 -0.0062197396 -0.19301577 -0.41058055
000040 7b 30 5f bd 87 4f d7 be 71 55 a5 3e cb 0e 10 3d
       -0.054489594 -0.42052862 0.3229175 0.035170358
000050 60 f0 8f be 00 22 87 3e 5b b1 00 bf b1 b5 35 be
       -0.2811308 0.26393127 -0.5027062 -0.17745091
000060 ae 0a e6 bd 92 3b d9 be 91 b9 a7 be ff 38 ef bd
       -0.11232506 -0.4242826 -0.32758763 -0.11680793
000070 34 da de 3e 9d 88 00 3f 2b cd 99 3e fd 2d a0 be
       0.4352585 0.50208455 0.30039343 -0.31285086

branch3.weight f4 [64, 32, 3, 3]
000000 ac b8 af bc 3c 82 87 3d d7 49 14 3d ea 8c 93 3c
       -0.021450363 0.06616637 0.03620323 0.018011529
000010 a8 9b bd 3c f6 b7 00 bd a9 78 9f bb da 32 8e 3d
       0.023145512 -0.03142544 -0.0048666787 0.06943293
000020 b8 ae 85 ba 11 16 45 3c 90 bb 0d bd 49 ff 8f bc
       -0.0010199165 0.012029187 -0.0346027 -0.017577784
000030 15 11 5b 3c eb f0 b9 bc ec 51 f8 3b 21 15 13 3d
       0.013370772 -0.022697886 0.007578125 0.035908822
000040 03 14 3c bd 11 56 f5 3c 15 8c 3a bd af 7c 00 bd
       -0.045917522 0.029948266 -0.04554375 -0.031368908
000050 e7 8b b6 3c 0f cd 1f 3d 01 f9 9b bc fe 3f c2 bc
       0.022283508 0.03901392 -0.019039633 -0.023712154
000060 8b b5 70 bd 20 f7 04 bd ae 14 4c bd 68 33 6c bc
       -0.058766883 -0.03246224 -0.04982441 -0.014416553
000070 84 16 50 3c a2 4b 46 bd 88 99 56 3d fd cd 22 3d
       0.012700681 -0.048411973 0.052392513 0.039747227
000080 a5 1b 4a bd 98 99 ef bc f2 24 9f 3c be 2b dd bb
       -0.04934277 -0.029248044 0.019426797 -0.0067495992
000090 49 a7 1b 3c 49 6f 40 bc 4e 21 7e 3d ed 8f 8a bc
       0.009500333 -0.011745282 0.06204348 -0.016914332
0000a0 24 a1 80 3d 5f d0 9a 3c 97 07 d3 3c 82 81 6f 3d
       0.06280735 0.018898187 0.025760455 0.058473118
0000b0 b4 46 80 3b f3 0d 21 bd 92 7c 3f bc e4 f9 40 3d
       0.0039146785 -0.039319944 -0.011687415 0.047113314
0000c0 1a e8 44 bd 12 ac 32 3c cd f2 64 bd 09 1c c8 3c
       -0.04807291 0.010905283 -0.055895615 0.02442743
0000d0 45 20 9e 3c c6 7c 48 3b 22 9a 32 3d d1 de 8a 3c
       0.019302497 0.003059195 0.043604024 0.01695195
0000e0 5d d8 46 3d b8 34 e2 bc aa 7a 01 3c c4 1f 2b 3d
       0.048546184 -0.027613029 0.007902781 0.04177834
0000f0 3e 7d 9a 3d 9b c3 38 3d 0f 34 df bc 4c 6f 3a 3d
       0.07543419 0.04510842 -0.027246503 0.045516297
000100 c8 1d 78 bc bd 44 4a bc d8 c4 33 bd 5d 02 ce bb
       -0.015143819 -0.01234549 -0.043888897 -0.006286903
000110 7a b1 2b 3d 27 83 4d 3c e0 6d 0b bd a5 4b 93 3c
       0.0419173 0.012543476 -0.03404033 0.017980406
000120 44 4d c3 bc fe 27 48 3d 31 2e 60 bd 51 16 b1 bc
       -0.023840554 0.048866265 -0.05473155 -0.021617087
000130 d8 70 68 bd 25 6b d1 bc e3 43 86 3c c7 13 5f 3d
       -0.05674824 -0.025563786 0.016389793 0.05446222
000140 84 00 d5 3b ed d2 21 3d 18 82 82 b8 7e f9 ec 3c
       0.0065003056 0.039507795 -6.223115e-05 0.02892756
000150 4e 07 f6 3c ac 50 16 3d 8a 8c 14 bd c4 a5 16 3d
       0.03003278 0.03669803 -0.03626684 0.03677918
000160 f6 d3 bf 3c 66 d5 f4 bc 71 39 b4 bc 48 96 3b bd
       0.0234165 -0.029886913 -0.022000046 -0.045797616
000170 8e 95 ce 3b 7b f3 22 bd 22 7f db 3c d0 f6 35 3c
       0.0063044494 -0.039782982 0.02679402 0.011106208
000180 5b 15 33 bd 02 95 93 3c 52 b5 3d bc 1a c2 a6 3c
       -0.043721538 0.018015388 -0.011578875 0.020356227
000190 ca 62 fb 3c 33 42 6a bd 36 3d 42 3d f6 b6 3e 3d
       0.030686755 -0.05719204 0.047421657 0.046561204
0001a0 cf 69 c1 3c 70 b7 6d bd 6b 3f b5 bc fd 42 80 bc
       0.023610024 -0.058036268 -0.022124967 -0.015656943
0001b0 c8 8e c1 bc c1 a2 e6 3c 6a 53 a1 3c 7a e1 1a 3d
       -0.023627654 0.028153779 0.019693095 0.037812687
0001c0 00 43 d4 bc 2a 05 9a 3c fb 09 4b 3c ea ad 54 bd
       -0.025910854 0.01880129 0.012392516 -0.05192367
0001d0 14 ce 66 bd 36 8c 0f bd 0d 3f 1b 3d 03 b1 5d bd
       -0.056348875 -0.035045825 0.037901927 -0.05412389
0001e0 50 32 60 bd d9 35 00 3d 78 5e 03 3d 9c 43 33 3d
       -0.05473548 0.031301353 0.032072514 0.04376565
0001f0 5d 1b 35 bd 9e 0c 28 bd 04 33 5f 3b 5a 34 ee 3c
       -0.04421555 -0.041027658 0.0034057507 0.029077698
000200 1f 37 e6 3c 3a af 91 bc 25 f2 8a ba 13 7d 47 3d
       0.028102456 -0.01778375 -0.0010600729 0.048703264
000210 f3 c2 87 bd 9c 92 40 bd 6a 58 0c 3d 36 9e 35 bd
       -0.066289805 -0.047014818 0.034264006 -0.044340335
000220 7b ae 0a bd 42 5e 2c 3d 78 ca 71 3c 29 4a 93 3c
       -0.033857804 0.04208208 0.014757745 0.017979698
000230 9a 35 c7 bc c3 27 58 bb e0 0e 5b 3d 03 8d 09 bd
       -0.024317551 -0.0032982684 0.053480983 -0.033581745
000240 56 97 a0 3c be 07 38 3d 0b 94 c5 bc 72 18 9a 3d
       0.019603413 0.04492926 -0.024118444 0.07524194
000250 cf a8 49 bc 80 b0 e7 3a 7c d7 85 3a fd dc bc bc
       -0.0123083135 0.0017676502 0.0010211314 -0.023054594
000260 99 c7 2f bd 79 07 36 3d a7 cf cf 3c a0 ec 2c bd
       -0.04291496 0.04444072 0.025367571 -0.04221785
000270 bf c5 d6 bc fd ac 8a 3d 39 19 0c 3d 97 b6 02 3d
       -0.02621734 0.06771276 0.03420374 0.031912412
000280 0a 20 e9 bc 5d 5d 8a bc 16 e5 8d bc 86 ae 6a bc
       -0.02845766 -0.016890222 -0.01732115 -0.014323836
000290 93 20 25 bd 1e c2 82 bb be ef 18 3b a8 16 f0 bb
       -0.04031427 -0.0039904257 0.0023336257 -0.0073269196
0002a0 15 8e 80 39 f3 aa d0 bc 8c 28 84 3c b6 65 ab 3c
       0.00024519922 -0.02547214 0.016132616 0.020922523
0002b0 32 7b f9 bc a7 3e 6e bd 1e ee f9 3c a5 92 7c 3c
       -0.030454252 -0.05816522 0.030509051 0.015415822
0002c0 34 c8 f0 bc f2 49 65 3d 1e 84 ce bc ca 64 1d 3d
       -0.02939234 0.055978723 -0.025209483 0.038426198
0002d0 16 22 42 3d fb 9c 03 bd 74 5f 5f 3d c5 89 13 bd
       0.047395788 -0.03213213 0.05453439 -0.03602006
0002e0 b2 42 81 bc 56 e8 ec 3b fa 27 c0 bc 29 65 93 3d
       -0.015778873 0.007229845 -0.023456562 0.07197029
0002f0 f0 29 73 3b e6 5d 22 3d 90 41 1b bd e4 6d 3c 3d
       0.0037103854 0.03964033 -0.037904322 0.046003237
000300 f2 a9 d8 ba d1 6c fe bc 0e c6 a6 3c 29 88 27 3d
       -0.001653014 -0.031057747 0.020358112 0.040901337
000310 c5 5e 77 3d 8f 2c df bc 9c a6 ed bc d6 65 49 3c
       0.060393114 -0.027242927 -0.02901011 0.012292346
000320 0f 5f 88 3c d4 58 b0 3c fa 47 05 3d 89 85 57 bc
       0.01664689 0.021526732 0.032539345 -0.013154396
000330 40 77 06 3d 55 4a 35 3d 3b 16 76 bc 33 c0 a6 3c
       0.03282857 0.04426034 -0.015019949 0.02035532
000340 6a 8f 46 3c b7 9b 2c 3d 69 57 55 bd 2b 04 34 bd
       0.0121191535 0.04214069 -0.052085314 -0.043949287
000350 e6 e5 c4 bc ee 4e 94 bc 60 f8 9c 3c 1e c7 23 bd
       -0.024035405 -0.018104043 0.019161403 -0.039984815
000360 2a 6e b2 3c 9c a1 bd bc ed 28 11 3d c0 6b 2a bc
       0.021781046 -0.02314835 0.03543942 -0.010401666
000370 62 c9 59 bd 76 b9 00 bd f6 ab 49 bd 5f 23 d4 3c
       -0.05317057 -0.03142687 -0.04923626 0.025895773
000380 61 bc 1b bd 44 e7 1e 3c e4 af d4 3c 66 ba 9b bc
       -0.03802145 0.009698693 0.025962777 -0.01900978
000390 31 dd 02 3d 3d b2 30 bd f7 cb e8 bc e7 58 1b bd
       0.031949226 -0.04313873 -0.02841757 -0.03792658
0003a0 f6 16 88 bb a2 0a 06 bc 13 75 c1 3b bf 8d 2d bc
       -0.004153128 -0.008181246 0.005903849 -0.010592877
0003b0 2a 98 e2 3c 50 15 54 3d a7 08 b4 3c df 48 b2 bc
       0.027660448 0.051778138 0.021976782 -0.021763263
0003c0 51 4d 65 bd be 3f b1 3c e5 5b e9 bc 05 82 d9 3c
       -0.055981938 0.02163684 -0.028486202 0.026551256
0003d0 92 2d 1b 3d 92 7f b4 3c f0 a7 55 3d 26 66 62 3d
       0.037885256 0.022033487 0.05216211 0.055273198
0003e0 37 95 52 3c 19 73 33 bd cd c0 57 3d 9f 88 da bc
       0.012852958 -0.043810938 0.052674104 -0.026676474
0003f0 c6 59 19 bd f4 a9 1c 3d 70 7a 19 3d d6 c1 24 3c
       -0.03743913 0.038248017 0.03747028 0.01005598

branch3.bias f4 [64]
000000 53 f3 29 bc d3 96 56 bd ab 74 61 3d d9 e8 2b 3d
       -0.010372954 -0.05238993 0.055042904 0.041970108
000010 52 a4 32 bd e7 65 65 bd 7d c6 52 3d 5a 5f 48 3d
       -0.04361374 -0.056005385 0.051458824 0.04891906
000020 b1 dc 57 bd 5c 54 41 3c 8f f8 18 bd 58 6d 32 bd
       -0.052700702 0.011799898 -0.03734642 -0.04356131
000030 68 e8 25 bd b1 66 11 3b 4e 66 5d 3d 18 f1 de 3c
       -0.040504843 0.0022186453 0.054052643 0.027214572
000040 08 79 5c bd 8a b3 03 3d 90 5b 5c 3d 9e e6 29 3d
       -0.053826362 0.032153644 0.05379826 0.0414797
000050 69 64 5f 3d f9 ca 0b bd af b3 ee bc f5 27 01 3d
       0.054539118 -0.034129117 -0.029138414 0.031532247
000060 c9 19 3c bd 1f b4 83 bc 9d 4a 2e 3d f6 d8 a1 3c
       -0.04592303 -0.0160771 0.042551626 0.019756775
000070 e7 51 74 bc 87 cf c2 3c 4a 92 de bc 7e 43 f1 bc
       -0.014912105 0.023780597 -0.027169365 -0.029451128
000080 84 8e 91 3c 26 9c dc bc 1e a9 2a 3d f9 08 d9 3c
       0.017768152 -0.026929926 0.04166519 0.026493536
000090 1a dd 15 3d 31 72 33 3d 58 31 f0 3b e2 4f b1 bc
       0.036587812 0.043810073 0.007330101 -0.021644536
0000a0 c7 84 49 bd 5f 6f 8a bc d1 99 47 bd f8 0b 16 3d
       -0.049198892 -0.016898809 -0.048730675 0.036632508
0000b0 b4 6e 95 3b 9a d9 ca bc 9c b5 1a bb c0 dc 2d 3d
       0.004560316 -0.024761964 -0.0023606783 0.04244685
0000c0 71 fb c9 bc d3 e4 3c 3c 8c 49 08 3c 9b ec 01 bc
       -0.02465603 0.011529165 0.008318316 -0.007929946
0000d0 91 e2 53 bc b4 77 b5 3c 84 c6 9a bc c3 32 47 bd
       -0.012932436 0.022151805 -0.018893488 -0.048632395
0000e0 26 b6 5e 3c e1 b4 0c bd d7 81 f7 bc b3 d8 f9 3a
       0.013593232 -0.034352187 -0.03021328 0.0019061774
0000f0 79 54 ed 3c 67 39 8c bc 32 ee 0c bd 89 0c dd 3c
       0.028970944 -0.017117215 -0.03440685 0.026983516

branch5.weight f4 [64, 32, 5, 5]
000000 e4 f7 a2 bc b2 4f dc 3b 71 c5 11 3c 20 72 ab b9
       -0.019893594 0.0067233676 0.008897171 -0.0003270069
000010 74 41 e8 bb 80 7c d8 ba 13 f2 90 bc 05 14 b9 3c
       -0.0070878807 -0.0016516596 -0.017693555 0.022592554
000020 86 33 a9 ba 7e 8a 35 bc df 97 61 bc a2 ed 92 3c
       -0.0012909032 -0.011080382 -0.013769119 0.017935578
000030 b5 5c 9a bc d6 8e 7f 3c 73 70 70 3b 9e 16 c5 bc
       -0.018843034 0.01559802 0.0036688119 -0.024058636
000040 09 5b e0 3c 16 24 8b 3c 91 b4 96 3c 62 5a 24 bc
       0.027387159 0.01698498 0.018396648 -0.010031315
000050 33 75 99 bc da 9a cf 3c 4d bc 92 bc 00 d2 c4 3c
       -0.018732643 0.025342394 -0.017912054 0.024025917
000060 54 29 13 3d 64 92 47 bb 66 97 dd bc 92 92 d3 3c
       0.035928085 -0.0030452246 -0.027049731 0.025826726
000070 21 f7 fa bc 80 f7 07 bc e3 d9 b0 bc 99 b3 7e 3c
       -0.030635418 -0.008298755 -0.021588271 0.015545749
000080 6b da 08 3d ba 4a 91 bc 79 6e 80 bc 81 0d 05 3d
       0.033411425 -0.017735828 -0.015677677 0.03248358
000090 26 0d a2 3c 47 9b e3 3c 8f de a3 bc f2 d1 15 3d
       0.01978166 0.027784003 -0.020003585 0.036577173
0000a0 11 41 98 bb 2b ac 48 bc 63 33 88 bb 09 89 0c 3c
       -0.0046464284 -0.012248079 -0.0041565164 0.008577594
0000b0 c5 d8 d2 3c b8 49 2b 3b b3 81 4c bc c4 46 86 3c
       0.02573813 0.002613647 -0.012482095 0.016391166
0000c0 58 2d be bc 07 91 95 bc d7 ab 99 3b 87 99 fe 3c
       -0.023214981 -0.018257631 0.0046896744 0.031079067
0000d0 42 b7 1f bc ec c1 b7 3c 29 3e 73 bc ab 1a 5e bc
       -0.009748282 0.022431336 -0.014846363 -0.013556163
0000e0 c1 ff f5 3c 81 a4 51 3c 3d 34 29 bc 36 12 43 bc
       0.03002918 0.012795568 -0.010327396 -0.011906197
0000f0 8d 10 5a 3b 1c 19 9a 3c f9 f5 dc 3c 28 7d 74 3b
       0.0033274025 0.018810801 0.026972758 0.0037306044
000100 70 fe 3a bc 17 b3 3a 3c 4a 19 d3 bc fd fb bb 3a
       -0.011413202 0.011395237 -0.025768895 0.0014342066
000110 d9 4b d5 bc 80 90 5a bb 9b 6b 11 bc 68 36 94 3c
       -0.026037144 -0.003335029 -0.008875753 0.01809235
000120 fa fc da 3a 64 c0 d8 bc b0 e4 15 3c 8d d4 e6 bc
       0.0016707473 -0.026458926 0.009148762 -0.028177524
000130 43 bd eb bc 95 50 32 bd 2a 82 b4 bc d4 0f 3c bd
       -0.02877677 -0.04353388 -0.022034723 -0.045913532
000140 23 0d b9 bc 6b 8b 8b bc ef 7c f0 bc e6 81 16 bd
       -0.022589272 -0.017034253 -0.029356448 -0.036744975
000150 fa 20 d0 bc c9 f0 ca bc e0 4f 3c 3c e7 46 30 bd
       -0.02540635 -0.024773018 0.011493653 -0.043036368
000160 07 75 e8 ba 5f 44 50 ba c4 c0 35 bd 9a 9e 8a 3c
       -0.0017735072 -0.00079447584 -0.04437329 0.01692133
000170 73 50 49 3b 27 3d 12 bd 26 fd 24 bc 37 4a 9f bb
       0.0030718117 -0.03570285 -0.010070121 -0.004861142
000180 e7 ff ec 3b 7f 86 f3 bc d8 37 cd bc 78 8c c7 bc
       0.0072326544 -0.029727219 -0.025051042 -0.024358973
000190 a6 cd 0c bc 15 5c 71 3c 7f 05 cc bc ad 10 f3 3c
       -0.008593952 0.014731427 -0.024904964 0.029671038
0001a0 1c 1b 0b bc 52 ea ba 3c 7a c4 1b bc 2a b8 5f bb
       -0.00849035 0.02281681 -0.009507293 -0.003413687
0001b0 1a 22 07 3c 7c b9 d3 bc b9 5a a9 3c e7 36 09 3d
       0.008247877 -0.025845282 0.020673143 0.033499625
0001c0 47 82 b4 bc f9 bd 85 3c b9 89 db bc c3 a3 c5 3b
       -0.022034777 0.016325938 -0.02679907 0.006031485
0001d0 55 36 1e bc b9 0a bd bc 79 3a a4 3c 1c 59 d6 3c
       -0.009656508 -0.023076402 0.020047413 0.026165538
0001e0 5a 6c 73 3c 28 f3 a7 3c 5e ec 0d bc b5 ca f8 3c
       0.014857376 0.020501688 -0.008662311 0.030370096
0001f0 9c a3 98 bc d6 31 30 bc 54 72 41 bb 17 08 2d bc
       -0.018632703 -0.010754069 -0.0029517608 -0.010561011
000200 9f 0a c0 3c d8 04 ca 3c 4a 2d 51 3c b2 5b 0f bc
       0.023442565 0.024660513 0.012767145 -0.008749889
000210 a2 a6 81 bc 63 9b 40 bc 53 36 34 bc 83 17 47 bb
       -0.015826527 -0.011755797 -0.01099928 -0.0030379004
000220 73 1f 79 3c 9d 5a c0 3c 12 c5 9e 3c 13 2a b5 bc
       0.015205252 0.023480708 0.01938108 -0.02211479
000230 4d bd 94 3c 38 97 f1 bc 76 51 12 bb 2d 37 b4 3b
       0.018156672 -0.029491052 -0.0022326387 0.0054997415
000240 44 f8 9b bb 6a e1 8d bc 0a c0 9c bc f9 3b 44 3c
       -0.00475982 -0.0173194 -0.01913454 0.011977189
000250 0b a6 c8 bc 2d 21 21 bb 90 47 27 3c c0 5a b1 3c
       -0.024493238 -0.0024586425 0.010209933 0.021649718
000260 bc c0 89 bb 56 cc d7 3c a7 bb 0c bd d4 36 96 bc
       -0.004203884 0.026342552 -0.034358647 -0.018336691
000270 43 13 fb bc 89 de 8b bb d2 2f b3 bc 80 35 bc 3c
       -0.030648833 -0.0042684716 -0.021873388 0.02297473
000280 9e 42 6a bc 4d 19 fc 3a 36 38 c8 3c ba 3c 04 bd
       -0.014298109 0.0019233614 0.024440866 -0.032284476
000290 49 12 70 3c cb 9a d7 bc 9d 00 7b 3c 81 89 2b bc
       0.014652797 -0.026318928 0.01531997 -0.010469795
0002a0 1a 7f e1 bc 37 78 c3 3b 11 b7 dc 3b a2 a8 55 3c
       -0.027526427 0.0059652585 0.0067356904 0.0130406935
0002b0 01 8c b8 3c ea 62 30 bb 62 9c 75 bc c4 00 d0 bb
       0.022527697 -0.0026914426 -0.014990898 -0.0063477475
0002c0 29 c3 20 bd a2 17 3e bc 88 96 82 bc e8 b3 86 bd
       -0.03924862 -0.011602314 -0.01594092 -0.06577283
0002d0 56 05 0b bd 2a b7 f0 bc 0e 69 55 bd f7 f5 ce bc
       -0.033940636 -0.029384214 -0.05210214 -0.02526377
0002e0 f4 f8 59 bd a7 0e 46 bd 73 2a 57 bc 16 61 bd bc
       -0.053215936 -0.048353817 -0.013132679 -0.023117583
0002f0 4e a4 09 bc b2 80 46 bd 12 0b 42 bd 35 c8 65 bd
       -0.00840099 -0.048462577 -0.04737384 -0.056099135
000300 8b dc fd bc 9c 92 4d bc 40 d2 36 bd 02 75 2c bd
       -0.030988952 -0.012547161 -0.044634104 -0.042103775
000310 4b d8 9b bc de 3a e6 bc 1b 4a d3 bc ef 7d 79 bc
       -0.019024035 -0.028104242 -0.025792172 -0.015227779
000320 e2 d7 12 3d bc e3 1e 3d 10 b9 6e bc 22 92 5e 3c
       0.035850413 0.038791403 -0.0145704895 0.013584645
000330 ee b6 e2 3c c3 e9 0e 3d 37 8b 42 bc 8d 36 ec 3c
       0.027675118 0.0348909 -0.011874012 0.028834606
000340 a0 a4 01 bc 8f 20 49 bc ee 80 58 bc 73 3b 18 bc
       -0.007912785 -0.012275829 -0.013214333 -0.009291518
000350 f5 63 c4 ba 63 ef ff ba 88 72 7b bc 53 8f aa 3c
       -0.0014983403 -0.0019526299 -0.015347131 0.020820295
000360 1b 4c 47 bc 95 05 e0 3c a1 40 d6 bc 4c d2 5c 3c
       -0.012164141 0.027346412 -0.026153864 0.013477873
000370 f9 d3 93 bc f6 c0 2d bc 72 51 0c 3c 44 89 83 3b
       -0.018045412 -0.0106050875 0.00856434 0.004014166
000380 31 87 35 bc a6 8e a1 bc 59 04 b1 bc 9a 83 69 bc
       -0.011079595 -0.01972134 -0.021608518 -0.014252568
000390 06 23 44 3c 4a af aa bb 15 73 ac bc 5e 0d 6a 3c
       0.011971241 -0.0052088844 -0.02105097 0.014285414
0003a0 03 c4 9e 3b 91 09 64 3c 60 e6 29 3b 43 9e 5c bc
       0.0048451438 0.013918296 0.0025924668 -0.013465467
0003b0 5d e1 91 bc 1e b5 83 bc 4f 69 6f 3c 34 f0 8b b9
       -0.017807657 -0.016077574 0.01461251 -0.0002669111
0003c0 d1 19 02 3c b6 6f 1b 3c 68 3d 4c bc 72 c3 0f bd
       0.007940725 0.009487083 -0.012465812 -0.0350985
0003d0 56 00 c3 ba d7 8f df bc 2a 0e 42 bc bc 68 01 bd
       -0.001487742 -0.027290268 -0.011844197 -0.031594023
0003e0 4b 65 02 3b 9a 39 66 3b cc 8a 48 bd 28 3d b9 bc
       0.00198968 0.0035129548 -0.048960492 -0.02261217
0003f0 a8 4e 64 bd 49 81 d7 bc 29 a0 77 bd d8 e7 50 bd
       -0.055739075 -0.026306765 -0.060455475 -0.051002353

branch5.bias f4 [64]
000000 14 e4 17 bc ab 98 f3 bc a9 7f 44 bc a1 52 8d 3b
       -0.009270687 -0.029735884 -0.011993327 0.0043128286
000010 ab 9f f4 3c 1a d5 ef bc d1 8b c1 bb bf f7 d5 3c
       0.029861292 -0.02927642 -0.00590656 0.026119111
000020 14 76 07 3d 97 2c 94 3c 48 19 68 3c 74 a8 a3 3b
       0.033071592 0.018087668 0.014166184 0.0049944464
000030 a8 67 03 bd d3 c4 0f bc c7 37 06 bd a6 3c a7 bc
       -0.032081276 -0.008774954 -0.032768037 -0.020414662
000040 39 86 b1 bc f1 b7 de 3c 5f 7d d3 3c cc 5d a7 3c
       -0.021670448 0.02718732 0.025816618 0.020430468
000050 1d aa f6 3c 3c f1 5e 3c 4f 0a a6 3c 0e 4c 0d 3c
       0.030110413 0.013607319 0.020268587 0.00862409
000060 ae 0b 71 ba 36 d7 5a bc 88 82 4b 3c 64 ba c2 3b
       -0.0009195161 -0.013356974 0.012421258 0.0059426297
000070 18 e7 db 3c 38 04 d8 bc 88 7a 80 bc 7f 1c 78 bc
       0.026843593 -0.0263692 -0.015683427 -0.015143513
000080 ef 1c 03 bd 22 fb 3c bc d4 62 ae bb 1d 21 e7 3c
       -0.032010015 -0.011534484 -0.00532184 0.028214032
000090 cd e1 0a bd a8 1a fb 3c 7c 39 16 3c 1b 14 34 bb
       -0.033906747 0.03065236 0.009168979 -0.0027477804
0000a0 11 02 ce bc 0f ea 8b bc 25 33 f0 bc 06 dd 85 3c
       -0.02514747 -0.017079381 -0.029321263 0.016340744
0000b0 97 c9 7c 3c 3e a9 b5 bc 3e fb ee bc f7 f7 17 bb
       0.015428922 -0.022175428 -0.029172536 -0.002318857
0000c0 88 f7 c2 3c 2b 44 06 3c 91 06 da bc 09 10 0c bd
       0.023799673 0.008194963 -0.02661446 -0.03419498
0000d0 46 63 ac 3c 25 31 82 3c c0 de f9 bc 6a 68 ee bc
       0.021043431 0.015892575 -0.030501723 -0.029102523
0000e0 6e d8 ec 3b da b4 98 b9 bf af 9b bc 10 67 3d 3a
       0.007227949 -0.00029126444 -0.0190047 0.00072251353
0000f0 8a 66 c3 bc 16 e4 c7 3c 4c 51 eb 3b e8 8a bb 3c
       -0.023852605 0.024400752 0.007181322 0.022893384

bn_ms.weight f4 [128]
000000 7f 04 81 3f 70 b7 80 3f f6 7b 82 3f 1e 1b 83 3f
       1.0079497 1.0055981 1.019408 1.024265
000010 a8 b8 81 3f b9 14 83 3f d3 d7 85 3f 90 e0 80 3f
       1.0134478 1.0240699 1.0456489 1.0068531
000020 5f 38 82 3f f7 c7 81 3f 6d 85 82 3f 89 05 83 3f
       1.0173453 1.013915 1.0196968 1.0236064
000030 53 8a 82 3f 5c d0 83 3f 61 e1 82 3f 15 f0 83 3f
       1.0198463 1.0297961 1.022503 1.0307642
000040 8c 07 85 3f f8 ce 82 3f df 68 83 3f 1c dd 84 3f
       1.0392928 1.0219412 1.0266379 1.0379977
000050 52 2c 83 3f 6f fc 83 3f 0c 7c 85 3f db 80 80 3f
       1.02479 1.0311412 1.0428481 1.0039324
000060 3d 9d 80 3f 3d 4b 84 3f 58 4a 82 3f 0a c0 86 3f
       1.0047985 1.0335461 1.0178938 1.0527356
000070 4c a6 84 3f fc 8a 82 3f d1 40 85 3f 92 39 83 3f
       1.036325 1.0198665 1.0410405 1.0251944
000080 e5 a4 80 3f b2 0a 85 3f 6f b4 83 3f d9 35 83 3f
       1.0050322 1.0393889 1.0289439 1.0250808
000090 65 d3 83 3f 01 13 85 3f d0 07 83 3f ac 63 81 3f
       1.0298887 1.0396425 1.0236759 1.0108542
0000a0 25 60 83 3f d7 bf 82 3f 9b c0 84 3f 5c 4d 82 3f
       1.0263716 1.0214795 1.0371279 1.0179858
0000b0 5f 42 81 3f 6d b1 83 3f 93 93 83 3f 1e fb 83 3f
       1.009838 1.0288521 1.0279411 1.031101
0000c0 31 19 84 3f 29 2c 84 3f cb 64 85 3f 04 10 81 3f
       1.0320188 1.0325977 1.0421385 1.0083013
0000d0 e4 7a 84 3f f4 f3 82 3f 3d 61 81 3f 1b f3 80 3f
       1.0350003 1.0230699 1.01078 1.007419
0000e0 b8 8f 81 3f db e7 81 3f 59 16 82 3f e6 6c 83 3f
       1.0121984 1.0148882 1.016307 1.0267608
0000f0 a3 5f 82 3f 28 6b 81 3f 19 01 84 3f d5 cd 81 3f
       1.0185436 1.0110826 1.0312835 1.014094
000100 40 0e 88 3f 26 f1 84 3f 44 f0 84 3f b7 5c 84 3f
       1.0629349 1.0386093 1.0385823 1.0340794
000110 1a 04 87 3f 82 dd 84 3f 85 fd 83 3f 89 ea 84 3f
       1.0548127 1.0380099 1.0311743 1.0384074
000120 d7 f6 82 3f 15 e5 80 3f 88 2c 82 3f f5 c1 81 3f
       1.023158 1.006991 1.016984 1.0137316
000130 b8 1c 85 3f 15 0a 84 3f 1a a2 84 3f 7a 6b 84 3f
       1.0399389 1.0315577 1.036197 1.0345299
000140 bb fa 83 3f af b6 83 3f 02 1a 81 3f 8c 2b 84 3f
       1.0310892 1.0290126 1.0086062 1.032579
000150 0d da 86 3f b7 9e 83 3f f8 16 86 3f a1 b1 82 3f
       1.0535294 1.0282811 1.047576 1.0210458
000160 27 68 87 3f 37 66 85 3f b7 93 83 3f f7 5b 82 3f
       1.057866 1.0421818 1.0279454 1.0184315
000170 fd 75 84 3f 80 1c 83 3f 1e 76 86 3f 67 b4 83 3f
       1.0348507 1.0243073 1.0504797 1.028943
000180 9e fc 84 3f da e6 85 3f 4d e1 83 3f 55 38 86 3f
       1.0389593 1.0461075 1.0303131 1.0485941
000190 3a a8 83 3f 31 a2 85 3f 78 7c 87 3f 43 bb 81 3f
       1.0285714 1.0440122 1.058486 1.0135273
0001a0 da 63 84 3f 5d 01 83 3f 9c 24 84 3f a1 f8 81 3f
       1.0342972 1.0234791 1.0323672 1.0154
0001b0 e1 83 81 3f a5 42 83 3f c5 8c 85 3f 1a b6 85 3f
       1.0118371 1.0254713 1.0433584 1.0446198
0001c0 8d 01 83 3f 0b d6 88 3f c5 75 82 3f 8b bb 86 3f
       1.0234848 1.0690321 1.019219 1.0525984
0001d0 2b 7e 82 3f 77 32 86 3f 10 76 85 3f 43 b7 82 3f
       1.0194753 1.0484151 1.0426655 1.0212177
0001e0 72 33 88 3f 26 9f 81 3f f9 49 82 3f ce 71 82 3f
       1.06407 1.0126693 1.0178825 1.019098
0001f0 87 3b 83 3f b1 0b 82 3f 7c bf 84 3f 20 1a 84 3f
       1.0252541 1.0159818 1.0370936 1.0320473

bn_ms.bias f4 [128]
000000 b5 ea 37 3b ca fc 88 3b 2c 94 a1 3c ee ec 84 3c
       0.002806348 0.0041805254 0.019723974 0.016226258
000010 3a 6d af bb 29 f0 69 3c e9 02 00 3d ab d7 86 3b
       -0.005353597 0.01427845 0.031252775 0.004115065
000020 f6 63 5d 3c 47 3b 44 bb c1 d8 61 3c f4 9c 52 3c
       0.013512602 -0.0029942559 0.013784588 0.012854803
000030 ac 55 79 3c e3 d7 f0 3c 5e 18 60 3c 53 04 10 3c
       0.01521818 0.029399818 0.013677685 0.0087900935
000040 78 8d cc 3c 66 f7 e7 3c 85 db b7 3c 0f e8 1c 3c
       0.024969801 0.028316211 0.022443542 0.009576811
000050 10 7c 75 3c ed 66 e3 3c a9 ec 01 3d b0 81 35 bc
       0.014983192 0.02775904 0.031719837 -0.011078283
000060 90 a3 11 b8 6c 3f c3 3c 6a c5 26 3c 57 13 27 3d
       -3.4723023e-05 0.023833953 0.010178903 0.04078993
000070 8d 1d ff 3c 87 21 89 3c 32 c1 23 3d 22 25 6e 3c
       0.03114202 0.01673962 0.039979167 0.01453522
000080 ec f9 4d 3a 2f bf 00 3d 72 47 bf 3c 1b 1f 84 3c
       0.00078573707 0.031432327 0.023349497 0.016128113
000090 da bd ee 3c 24 be f0 3c 3e df 91 3c 70 13 5b 3c
       0.029143263 0.029387541 0.017806645 0.0133713335
0000a0 75 96 b1 3c 59 b8 a1 3c 8c d0 17 3d 86 8f 4d 3c
       0.021678189 0.019741224 0.03706412 0.012546426
0000b0 74 42 ff 3b b6 b0 67 3c 68 4a 07 3c 4c a0 95 3c
       0.0077899043 0.014141252 0.008257486 0.018264912
0000c0 c8 9c d4 3c 0c a5 dc 3c 0c 32 0f 3d 73 03 88 bb
       0.025953665 0.02693417 0.034959838 -0.004150802
0000d0 72 8a e9 3c 4e 09 f4 3c 10 e2 6f 3b a2 cd a8 bb
       0.028508399 0.029789593 0.003660325 -0.0051514665
0000e0 00 1c 73 3c 9a 22 05 3c 5c 3b 14 3c 72 2d d4 3c
       0.014838219 0.008125925 0.0090473555 0.025900576
0000f0 5e 5a cf 3c 66 15 ba 3b 1f 50 05 3d d9 80 c0 3a
       0.025311645 0.0056788204 0.032547113 0.0014686837
000100 0f 4c 05 3d 7d d6 cc 3c ad 45 f2 3c 5e 53 82 3c
       0.03254324 0.02500462 0.02957424 0.015908893
000110 bc 36 08 3d a5 46 05 3d f7 3d ca 3c f4 ae 2f 3d
       0.033255324 0.032538075 0.02468775 0.042891458
000120 08 db 91 3c 20 7e 69 3b 76 f7 ce bb 28 41 52 ba
       0.017804638 0.0035628155 -0.0063161207 -0.00080205733
000130 cb b8 0f 3d c6 5e 04 3d 9e e8 fb 3c ac 11 09 3d
       0.03508834 0.032316945 0.030750569 0.03346412
000140 02 20 e1 3b 8a 79 df 3c bf 1d c6 3b fa 98 0f 3c
       0.0068702707 0.027279634 0.0060460265 0.0087645
000150 a8 f9 f7 3c c3 ec 5a 3c 0e 0c 14 3d af c3 72 3c
       0.030270413 0.013362112 0.03614431 0.014817162
000160 67 52 5c 3d 14 34 1a 3d 18 03 ef 3c df 63 1c 3c
       0.053789522 0.03764732 0.02917628 0.0095452955
000170 66 82 fc b9 0a 61 9c 3c 04 3f ef 3c 40 6c 03 3d
       -0.0004816234 0.01908924 0.029204853 0.032085657
000180 00 d8 f4 3b 74 d2 ea 3c 1a 9d c9 3c bc 6f a9 3c
       0.0074720383 0.028664805 0.024611045 0.020683162
000190 c4 8f b1 3c 37 4b f2 3c 4c 69 0e 3d 58 5c e7 ba
       0.021674998 0.02957688 0.034768388 -0.0017651422
0001a0 9d b3 b3 3c cd 11 5c 3c 61 6a f5 3c 6f b1 4e 3c
       0.021936232 0.013431978 0.029957952 0.012615546
0001b0 21 c1 c3 3a 69 94 33 bc 7e ef df 3c bb 89 12 3d
       0.0014934876 -0.010960677 0.027335878 0.03577588
0001c0 52 f0 ca 3c eb b5 09 3d f4 c7 59 3c 26 fd c7 3c
       0.024772797 0.033620756 0.013292301 0.024412703
0001d0 e3 64 27 3c f3 94 b0 3c 5d 3d 11 3d 75 7e a2 3c
       0.010216924 0.0215554 0.03545891 0.01983569
0001e0 bc b4 74 3d d8 97 e1 ba 6b e8 27 3c 74 06 a1 3c
       0.059742674 -0.0017211391 0.010248284 0.019656397
0001f0 ed 93 e6 3b 4a 6f 7d 3b 89 90 0e 3d 96 83 ce 3c
       0.007036677 0.003867107 0.03480581 0.02520923

bn_ms.running_mean f4 [128]
000000 d7 2f 20 3e 79 41 17 be f8 bb 36 be 76 9f 7c 3e
       0.1564325 -0.1477107 -0.17845142 0.24670205
000010 c3 62 b3 3e 2e fc 14 3e f0 c6 c5 3d f4 d0 80 be
       0.35036287 0.14549324 0.09657085 -0.2515942
000020 89 ba 11 3e ec 4e ae 3e 7f 21 91 3e 01 f1 81 3e
       0.14231314 0.34044588 0.28345868 0.25379184
000030 d3 16 8b be 17 29 3b be e1 8a 0d 3f ca 41 6a 3e
       -0.2716585 -0.18277393 0.5529004 0.22876659
000040 66 cc ee bb ff 5c b8 3c 53 99 63 be b8 1d d1 3d
       -0.00728755 0.022505281 -0.22226457 0.102107465
000050 c7 df 9e 3e 2d 40 97 3e 7e 51 f9 bc 26 1f e1 3e
       0.31030104 0.2954115 -0.030434366 0.43969077
000060 1a 6d 4d be f1 1b 94 3d c9 59 cb 3e 25 3b c8 be
       -0.2006115 0.07231892 0.39716938 -0.39107624
000070 c1 89 f8 be 90 6f a9 3d 31 78 94 bd 79 3d 09 bf
       -0.48542598 0.08273232 -0.07249487 -0.53609425
000080 b9 88 3a bb 3f 68 38 be 2b c0 06 be 3c 62 91 3e
       -0.002846284 -0.18008517 -0.13159244 0.2839526
000090 e8 2f b8 bd 05 cb 95 be 97 bc 29 be 76 48 07 be
       -0.089935124 -0.29256454 -0.16575848 -0.13211235
0000a0 30 43 0c be 07 33 4b bd 3d b4 f1 be 92 72 c7 bd
       -0.13697505 -0.04960921 -0.47207823 -0.097386494
0000b0 71 3a bc be 1c 10 a7 be 20 7d 01 3f a5 52 03 3f
       -0.36763337 -0.32629478 0.5058155 0.5129798
0000c0 7a 93 dd bd 06 7b 46 3e 2e 90 00 3d a1 02 63 3e
       -0.108191445 0.19382867 0.0313875 0.22168972
0000d0 6d 8c bb be 50 90 34 be d7 10 6f 3e 6c 1e 7f 3d
       -0.36630574 -0.17633176 0.23346268 0.062284872
0000e0 30 d5 eb bd 50 aa a6 3e 67 03 d3 3d 63 5f 84 be
       -0.11515272 0.32551813 0.10303383 -0.25854024
0000f0 6a 32 1c be 35 b8 5a be 27 2d 7c bd 6e a9 b4 3e
       -0.15253606 -0.21359332 -0.061566498 0.35285515
000100 ca af f2 be 66 59 ab 3d 76 76 90 be 22 46 f4 3e
       -0.4739974 0.08366661 -0.2821538 0.47709757
000110 e4 31 b4 3d 94 ba 4e bf 50 a5 7a 3e 48 b9 59 bb
       0.087985784 -0.80753446 0.24477124 -0.0033222008
000120 8d 1e 0d bf aa 90 ab be fb e6 e5 3e 99 32 8e 3e
       -0.5512474 -0.33508807 0.44902787 0.27772978
000130 40 43 9a 3b 60 ca 22 bf a4 d2 39 bd d4 98 36 3d
       0.004707724 -0.6359005 -0.0453669 0.044579342
000140 45 cb 89 3e 3d 71 3c 3e ca ae 22 3f 27 f7 33 3e
       0.26912895 0.18402572 0.63547957 0.1757475
000150 10 fd e1 be 5e cc 0f bf 63 46 3f 3d 99 6f a6 bd
       -0.44138384 -0.56171215 0.046697985 -0.08126754
000160 3c 72 f7 3d 1c 82 3c 3e 33 bc 0a be 98 b4 05 3f
       0.12082335 0.18409008 -0.13548355 0.5222869
000170 1f 11 01 3f 5a 3f ef 3e c0 f0 94 3e 28 e5 bf bd
       0.5041675 0.4672802 0.29089928 -0.0936988
000180 02 b1 42 3e 03 c0 c8 3e d4 d6 8c be 98 38 06 bf
       0.19012836 0.39208993 -0.2750765 -0.52430105
000190 cc 2e f5 3d 59 29 4c bf da 50 ec be 7e 22 13 3d
       0.119718164 -0.7975059 -0.46155435 0.035921566
0001a0 94 d0 38 bf e6 65 c8 be bb 9f 04 bd a7 5b bb be
       -0.72193265 -0.39140242 -0.032378893 -0.36593363
0001b0 e8 1f ed 3e 45 a7 3e 3f 46 63 a4 3c dd 79 18 bf
       0.46313405 0.74473983 0.020066869 -0.5956095
0001c0 fa 8f e5 be f6 31 ea be ba 80 eb 3d dc ac 07 3e
       -0.44836408 -0.45741242 0.11499162 0.13249534
0001d0 f9 14 80 3f 1b ae ed be 3b d7 d9 be 0b 56 35 bd
       1.00064 -0.46421894 -0.4254702 -0.04427151
0001e0 3c ec 88 3d 5c b5 4b 3f 4a e7 f8 3e 00 f8 45 be
       0.06685683 0.7957361 0.4861396 -0.19332886
0001f0 68 b8 ee 3e 45 a8 47 3f 0e 80 d2 3d 7e ee 96 3c
       0.46625066 0.77991134 0.10278331 0.018424269
