checkpoints/best_0.1685.pt (torch, 328019 bytes, 22 tensors)

layer1.0.weight f4 [32, 1, 3, 3]
0.25054592 0.2702258 -0.08135951 0.30878755 -0.07379667 0.070505895 -0.15573241 0.20070186
0.29886487 -0.24369556 0.2879597 0.06289827 0.24594916 0.0414232 0.1577091 -0.043372087
0.26355135 0.053732265 -0.15072936 0.08721811 -0.15280236 -0.035004634 -0.13428198 0.22045164
-0.2657353 -0.15750685 -0.097185686 -0.19998339 0.03209516 -0.3290942 0.30193105 -0.28142872
0.25793925 0.05693334 -0.10604494 0.20712332 0.05391581 0.27581063 0.040190093 -0.10366764
0.09612652 -0.08675404 0.13742347 0.29306784 0.19004585 -0.14538628 0.19232172 0.059426457
0.16889875 -0.20440984 -0.33034244 -0.12835936 -0.25608456 0.2730991 0.10123722 0.14336677
0.11018587 -0.0011992902 0.26544255 -0.23211402 0.02558959 -0.22243473 0.1072999 -0.11602322
0.1001932 -0.07118937 0.27541456 -0.19910817 -0.20026577 -0.19982879 0.2982385 0.10974728
0.32205632 -0.2735961 -0.33015352 -0.25896883 -0.22151355 0.13628155 0.12025643 0.27857563
-0.17173715 -0.2269183 0.17565487 -0.1363179 0.20151396 -0.08102189 0.18850304 -0.26120934
-0.17150956 0.098765224 0.06691944 -0.0882781 0.1953965 0.22256476 -0.2455667 -0.18161982
0.30111894 -0.11648084 -0.12202832 -0.3255851 -0.19339275 0.0833644 -0.043228567 -0.23978467
0.009266528 -0.22734815 -0.27942565 -0.18175074 -0.29179776 -0.21331361 0.33265617 0.06276174
0.10185494 -0.311172 -0.21807618 -0.11405842 0.050203227 -0.29743934 -0.14712489 -0.19618337
-0.004410601 -0.12764902 -0.020715848 -0.2261605 -0.22660848 -0.18952058 -0.10896043 -0.25758025
0.28439742 -0.060888678 0.2922312 0.108966954 -0.2769048 0.2361222 -0.08651676 -0.1259754
-0.28233683 -0.33244395 0.09475962 -0.0778951 0.12787867 -0.27346525 0.24364653 -0.24616216
-0.052801125 0.0757037 0.17768203 0.27260384 0.3093735 -0.2585224 0.08832931 -0.13838528
-0.030927004 -0.24346772 0.3086427 -0.23976694 0.18463913 0.12335233 0.11326069 -0.17359093
0.30849332 0.07781379 0.040613025 -0.29625937 0.13769963 -0.05172979 -0.15490519 0.28411275
0.073030256 -0.18585753 -0.17052446 -0.016994786 0.18533014 -0.08736588 -0.1894598 -0.11391905
-0.24913307 0.12007613 0.25822675 -0.31331703 0.08373535 0.16543896 0.0655043 -0.11264967
0.16931424 0.18094961 0.13024269 -0.057054352 -0.08308193 0.040002394 -0.05460517 -0.095107526
0.21755247 0.29051852 -0.02876508 -0.069567196 0.00979507 -0.015515897 0.075747624 0.08828882
-0.30803725 -0.12718304 0.27600527 0.12513338 -0.019820591 -0.2051702 -0.20794675 -0.29984602
-0.10987958 0.11247734 0.21041732 0.15193096 -0.29523987 -0.2023397 -0.054312535 0.32159877
0.04747517 -0.08326595 0.13966787 -0.13071716 -0.21178776 0.2444923 -0.15585715 -0.06139256
-0.32998806 0.22413214 0.25335962 0.121649265 -0.23049928 -0.3271021 -0.26919675 0.25108585
0.1629628 0.28278884 0.17251368 0.08309548 -0.0049419445 -0.2554955 -0.28486788 -0.314476
0.13356616 -0.16577794 -0.07116966 -0.18571275 -0.06513397 -0.23821326 -0.21142232 0.10950888
-0.103392854 0.20980853 -0.10733354 -0.24483304 -0.056566853 -0.16013347 -0.100778855 -0.3146933
00000000: 8e47 803e 095b 8a3e d19f a6bd 6719 9e3e
00000010: b522 97bd 6565 903d 5178 1fbe ca84 4d3e
00000020: d104 993e 548b 79be 746f 933e cfd0 803d
00000030: 19da 7b3e 60ab 293d 7f7e 213e eea6 31bd
00000040: 34f0 863e 5d16 5c3d cc58 1abe 699f b23d
00000050: 3978 1cbe 0561 0fbd 3781 09be 13be 613e
00000060: 750e 88be 7a49 21be 4a09 c7bd 72c8 4cbe
00000070: 3776 033d 097f a8be b596 9a3e 6d17 90be
00000080: 9d10 843e ef32 693d 172e d9bd 2318 543e
00000090: d3d6 5c3d 0d37 8d3e 5e9e 243d b34f d4bd
000000a0: fbdd c43d 1aac b1bd bdb8 0c3e fd0c 963e
000000b0: 619b 423e 24e0 14be fcef 443e 2869 733d
000000c0: cbf3 2c3e d050 51be a522 a9be a370 03be
000000d0: 841d 83be a5d3 8b3e 7655 cf3d bdce 123e
000000e0: 21a9 e13d 8031 9dba 16e8 873e 4caf 6dbe
000000f0: 43a1 d13c eec5 63be 0dc0 db3d 959d edbd
00000100: 1832 cd3d bbcb 91bd 2303 8d3e 03e3 4bbe
00000110: 7812 4dbe eb9f 4cbe b7b2 983e 2fc3 e03d
00000120: 91e4 a43e ca14 8cbe e209 a9be 9097 84be
00000130: 73d4 62be 648d 0b3e 0149 f63d 77a1 8e3e
00000140: dddb 2fbe 455d 68be dfde 333e eb96 0bbe
00000150: ad59 4e3e ceee a5bd f106 413e 3bbd 85be
00000160: 34a0 2fbe 6c45 ca3d 0f0d 893d 26cb b4bd
00000170: 0516 483e 04e8 633e d675 7bbe 8cfa 39be
00000180: 432c 9a3e 828d eebd fce9 f9bd 17b3 a6be
00000190: c008 46be f4ba aa3d 7010 31bd 1d8a 75be
000001a0: a3d2 173c f4cd 68be e110 8fbe de1c 3abe
000001b0: 8466 95be e26e 5abe e951 aa3e 3a89 803d
000001c0: 5399 d03d f051 9fbe 5d4f 5fbe 7697 e9bd
000001d0: e6a1 4d3d f849 98be e8a7 16be 4be4 48be
000001e0: ce86 90bb 6db6 02be 48b4 a9bc 9e96 67be
000001f0: 0e0c 68be af11 42be a526 dfbd 8fe1 83be
00000200: 8a9c 913e 6866 79bd 549f 953e 112a df3d
00000210: 77c6 8dbe 05ca 713e b32f b1bd b2ff 00be
00000220: 748e 90be 1836 aabe 5511 c23d 7787 9fbd
00000230: a0f2 023e a303 8cbe 7a7e 793e ef11 7cbe
00000240: fe45 58bd 8b0a 9b3d 47f2 353e bb92 8b3e
00000250: 3466 9e3e 0c5d 84be ffe5 b43d dfb4 0dbe
00000260: a15a fdbc 9a4f 79be 6a06 9e3e 7785 75be
00000270: 0a12 3d3e 25a0 fc3d 38f5 e73d d2c1 31be
00000280: d6f2 9d3e d65c 9f3d d859 263d 4faf 97be
00000290: 2201 0d3e 9ee2 53bd 779f 1ebe 3a77 913e
000002a0: e390 953d 7051 3ebe f79d 2ebe a638 8bbc
000002b0: 2fc7 3d3e e2ec b2bd c001 42be 644e e9bd
000002c0: bd1c 7fbe 79ea f53d 4c36 843e 176b a0be
000002d0: 707d ab3d d568 293e 1e27 863d dfb4 e6bd
000002e0: b660 2d3e db4a 393e 575e 053e d3b1 69bd
000002f0: dc26 aabd 8dd9 233d aca9 5fbd bcc7 c2bd
00000300: 13c6 5e3e d8be 943e bfa4 ebbc 3f79 8ebd
00000310: 807b 203c 6436 7ebc 9221 9b3d c5d0 b43d
00000320: 0fb7 9dbe 453c 02be 9050 8d3e f722 003e
00000330: cb5e a2bc 2318 52be feef 54be 6b85 99be
00000340: 8c08 e1bd 855a e63d a377 573e ca93 1b3e
00000350: ae29 97be 2332 4fbe d276 5ebd 98a8 a43e
00000360: 5375 423d 5787 aabd 1805 0f3e b8da 05be
00000370: e4de 58be 315c 7a3e 0499 1fbe c476 7bbd
00000380: 32f4 a8be e582 653e 5ab8 813e 4023 f93d
00000390: 0108 6cbe ed79 a7be 28d4 89be 538e 803e
000003a0: b8df 263e b3c9 903e 6da7 303e f72d aa3d
000003b0: 09f0 a1bb 4ed0 82be 34da 91be 0003 a1be
000003c0: 91c5 083e b1c1 29be 66c1 91bd 7c2b 3ebe
000003d0: f564 85bd 2dee 73be 187f 58be 3146 e03d
000003e0: a2bf d3bd 0cd8 563e b0d1 dbbd 83b5 7abe
000003f0: a5b2 67bd 07fa 23be 2565 cebd 7b1f a1be

layer1.0.bias f4 [32]
0.2794211 -0.052283753 -0.037951704 -0.13604449 -0.3009821 -0.32433435 0.123860724 -0.18296677
-0.21426938 -0.026007826 -0.111025095 -0.107829385 0.010703756 -0.07068703 -0.11470119 -0.15958893
-0.27123386 0.2794754 -0.13337196 0.08830844 -0.115630075 0.027111996 0.31073982 0.1535352
-0.288832 0.13228911 0.31638482 0.0876859 0.22346249 0.3285824 -0.051076166 0.06917557
00000000: 4810 8f3e 7d27 56bd 3f73 1bbd 3f4f 0bbe
00000010: 531a 9abe 270f a6be b1aa fd3d a45b 3bbe
00000020: 6f69 5bbe 5d0e d5bc 2061 e3bd a7d5 dcbd
00000030: ce5e 2f3c 5dc4 90bd 75e8 eabd 486b 23be
00000040: 2adf 8abe 6617 8f3e a992 08be 0edb b43d
00000050: 76cf ecbd fa19 de3c 4a19 9f3e 5538 1d3e
00000060: cae1 93be cc76 073e 31fd a13e aa94 b33d
00000070: 5ad3 643e f43b a83e 3e35 51bd ecab 8d3d

layer1.1.weight f4 [32]
1.0000591 1.0014644 0.9986268 0.9975887 1.004059 1.0023123 1.002225 1.0046388
0.99827 0.99863684 1.0002333 0.99496853 0.99716055 1.000629 1.0012605 1.0030954
1.0023406 1.001624 1.0007256 0.9957847 0.9995581 1.0016756 1.0007284 1.0009621
1.0000428 0.9982705 1.0017712 0.9989746 1.0002993 0.99614584 1.0026492 1.0006565
00000000: f001 803f fc2f 803f 02a6 7f3f f961 7f3f
00000010: 0185 803f c54b 803f e948 803f 0198 803f
00000020: 9f8e 7f3f aaa6 7f3f a507 803f 42b6 7e3f
00000030: ea45 7f3f 9c14 803f 4e29 803f 6e65 803f
00000040: b24c 803f 3735 803f c717 803f bfeb 7e3f
00000050: 0ae3 7f3f e836 803f de17 803f 871f 803f
00000060: 6701 803f a88e 7f3f 0a3a 803f cdbc 7f3f
00000070: cf09 803f 6a03 7f3f cf56 803f 8315 803f

layer1.1.bias f4 [32]
-0.0002537687 0.0014094951 0.0034816302 -0.0036628172 0.003342601 0.0016410209 -0.0006344886 -0.0016162883
-0.0016332495 -0.00080738997 -0.0049893716 -0.0043034717 -0.0010827904 0.007051823 0.0023025665 0.0036150755
0.0020176128 0.0026248344 0.0030411182 -0.004613246 0.0041358597 0.004722079 0.0016450672 1.4270972e-05
0.0009671619 -0.00066116767 0.0036384552 0.0033067456 0.0049367943 -0.002977475 0.002527808 0.0009859236
00000000: 420c 85b9 cfbe b83a 102c 643b e00b 70bb
00000010: 8a0f 5b3b 8617 d73a cf53 26ba a3d9 d3ba
00000020: c212 d6ba 06a7 53ba e27d a3bb 2304 8dbb
00000030: 6bec 8dba fb12 e73b a8e6 163b e7ea 6c3b
00000040: ed39 043b 6a05 2c3b 7f4d 473b b62a 97bb
00000050: 1b86 873b abbb 9a3b 4c9f d73a 5c6d 6f37
00000060: 2389 7d3a 3652 2dba 2673 6e3b fcb5 583b
00000070: d5c4 a13b be21 43bb 95a9 253b 1b3a 813a

layer1.1.running_mean f4 [32]
-0.8855967 -0.94322133 0.6962789 -0.07934253 -1.2606719 0.08020564 -0.19007069 -0.18316188
0.21023123 0.19881798 -0.13915375 1.3927237 0.65606546 1.4632403 -0.2586659 0.76172704
-0.7471214 -0.22465573 0.21730375 0.52470917 -0.6947273 -0.29587486 0.62971544 0.32590574
0.29882696 -0.3565015 1.0869638 0.97670406 0.33664465 0.49728632 -0.64281803 1.2407049
00000000: 77b6 62bf f476 71bf 563f 323f 567e a2bd
00000010: b25d a1bf db42 a43d e4a1 42be ca8e 3bbe
00000020: db46 573e f196 4b3e 527e 0ebe c544 b23f
00000030: e8f3 273f 754b bb3f db6f 84be 8b00 433f
00000040: 5943 3fbf 270c 66be e084 5e3e 5753 063f
00000050: a6d9 31bf e97c 97be 0835 213f 1edd a63e
00000060: d9ff 983e 5d87 b6be a121 8b3f 4709 7a3f
00000070: b05c ac3e 509c fe3e b98f 24bf 6bcf 9e3f

layer1.1.running_var f4 [32]
9.619773 5.750365 3.885448 0.4311694 6.582976 1.3235229 0.8682344 0.15009302
1.7047001 0.5404831 0.4232619 15.888941 3.0664542 16.434652 0.55734295 6.1803174
1.8272406 2.165337 1.1256472 1.7135493 2.473769 0.89770186 0.914707 0.41029575
2.695224 2.0542593 4.559142 5.741663 0.6346068 0.5581234 2.6711717 9.915143
00000000: 97ea 1941 fd02 b840 2eab 7840 3cc2 dc3e
00000010: bda7 d240 3369 a93f 9c44 5e3f fcb1 193e
00000020: 9d33 da3f 1a5d 0a3f c9b5 d83e 1a39 7e41
00000030: c940 4440 2b7a 8341 07ae 0e3f 29c5 c540
00000040: 05e3 e93f e294 0a40 3515 903f 9555 db3f
00000050: 3b52 1e40 cacf 653f 3d2a 6a3f 4912 d23e
00000060: 8d7e 2c40 fc78 0340 7ee4 9140 b4bb b740
00000070: 9775 223f 2de1 0e3f 7af4 2a40 6da4 1e41

layer1.3.fc1.weight f4 [4, 32, 1, 1]
-0.12254478 -0.036109 0.13188305 0.09096246 -0.11153906 -0.14081208 -0.120476216 -0.17449848
-0.13558772 -0.042884428 0.119625136 0.030567424 -0.13345161 -0.14084767 0.08837978 -0.13057302
-0.02145052 0.08512301 -0.08087564 -0.01860137 -0.015075195 -0.041507177 -0.08898166 -0.15680103
-0.14192171 -0.09434731 0.17159922 -0.08450559 -0.11834208 0.04318078 0.049030438 0.09783455
0.1330864 0.097162135 -0.17582183 0.014427087 0.10579945 -0.017178733 -0.105435774 0.16732563
-0.06715222 -0.101873465 -0.16072153 0.0073800236 0.07774173 0.038621433 0.03363543 -0.1345768
-0.16634524 0.0018328681 0.15977225 0.10074764 -0.104186006 -0.024218734 -0.13160987 -0.086385965
0.031183865 0.09497745 0.14563137 -0.16279776 0.117077045 -0.12606414 0.06491822 0.14908306
0.007604485 0.16595235 -0.15206091 -0.06245517 0.1082283 -0.039672613 -0.031083664 -0.06847631
0.12113545 0.08653479 0.061817188 -0.10077872 -0.14478764 0.017599886 0.057718642 -0.08289579
-0.044351015 0.12463593 0.015585308 0.008691086 -0.038387742 -0.15493211 -0.16619252 -0.08364541
-0.091239534 0.06011409 -0.052866988 -0.07039711 0.17151411 0.06582892 0.13115524 -0.086927414
-0.07219945 0.064965226 -0.11776843 -0.11554799 -0.008537336 -0.0646506 -0.13250734 0.10484503
0.14214133 0.028674394 -0.030775797 -0.16372508 -0.064381555 0.0449999 0.08334647 -0.022345219
-0.069881804 0.09849354 -0.14076898 0.1117144 -0.06857401 0.0027053317 -0.0349302 0.02142992
-0.053415813 0.12852438 -0.0045951945 0.13797706 0.16994894 -0.086114205 -0.12894548 0.14181237
00000000: c2f8 fabd 08e7 13bd 5a0c 073e 874a ba3d
00000010: 976e e4bd 0b31 10be 3cbc f6bd bbaf 32be
00000020: 82d7 0abe 95a7 2fbd 06fe f43d 8968 fa3c
00000030: 8aa7 08be 5f3a 10be 7500 b53d efb4 05be
00000040: 00b9 afbc f954 ae3d 21a2 a5bd e661 98bc
00000050: f3fd 76bc 6e03 2abd 043c b6bd 7390 20be
00000060: ed53 11be 2a39 c1bd b5b7 2f3e 4411 adbd
00000070: 555d f2bd 54de 303d 24d4 483d 7b5d c83d
00000080: cd47 083e f1fc c63d a30a 34be 975f 6c3c
00000090: 62ad d83d 6aba 8cbc b6ee d7bd 6957 2b3e
000000a0: 1a87 89bd 09a3 d0bd 2f94 24be 20d4 f13b
000000b0: 0e37 9f3d 8231 1e3d 4ec5 093d 80ce 09be
000000c0: 6856 2abe d93c f03a 569b 233e c754 ce3d
000000d0: 795f d5bd 5e66 c6bc bdc4 06be 20eb b0bd
000000e0: 4e75 ff3c 8a83 c23d 6420 153e 75b4 26be
000000f0: 17c6 ef3d f516 01be d8f3 843d 3ba9 183e
00000100: 0b2f f93b 6aef 293e dbb5 1bbe fed0 7fbd
00000110: cda6 dd3d c07f 22bd 2ba3 febc 4f3d 8cbd
00000120: dd15 f83d 2739 b13d 0534 7d3d 1365 cebd
00000130: 3643 14be a32d 903c 626a 6c3d 45c5 a9bd
00000140: 69a9 35bd 1f41 ff3d 8559 7f3c 0f65 0e3c
00000150: 773c 1dbd 86a6 1ebe 5f2e 2abe 494e abbd
00000160: cbdb babd 313a 763d 0e8b 58bd 5c2c 90bd
00000170: 65a1 2f3e 50d1 863d 8f4d 063e 0007 b2bd
00000180: 4edd 93bd 7d0c 853d 9330 f1bd 6da4 ecbd
00000190: 2fe0 0bbc 8967 84bd 01b0 07be feb8 d63d
000001a0: 7f8d 113e 90e6 ea3c 861d fcbc 8ca7 27be
000001b0: 7ada 83bd d151 383d 8eb1 aa3d 520d b7bc
000001c0: 311e 8fbd fbb6 c93d be25 10be 85ca e43d
000001d0: 8870 8cbd ef4b 313b f812 0fbd cd8d af3c
000001e0: 8aca 5abd e59b 033e 4993 96bb dc49 0d3e
000001f0: 1807 2e3e a55c b0bd 490a 04be 4337 113e

layer1.3.fc1.bias f4 [4]
0.13879958 -0.13609335 -0.009030036 -0.17430453
00000000: 7a21 0e3e 0e5c 0bbe b7f2 13bc e37c 32be

layer1.3.fc2.weight f4 [32, 4, 1, 1]
-0.40878353 0.09590778 0.13436829 0.105978884 -0.13808042 0.46088174 0.07565333 -0.29501054
-0.029051423 0.1200271 0.16947256 -0.3535012 0.18637918 -0.25641334 -0.41318944 -0.27307427
0.48196644 0.4286453 0.453483 0.29347375 0.3776125 -0.06736027 -0.28061128 0.24980131
-0.25834638 -0.33635783 -0.15511754 0.10491798 0.25626048 -0.19325629 -0.29210544 0.06743917
-0.29633954 -0.32580233 0.26161242 -0.0839831 0.45750645 0.48653826 0.14420375 0.17205924
0.114119954 0.007912076 -0.034781966 0.00687133 0.18754242 0.46489608 -0.12789519 -0.2113346
-0.122683614 -0.24187706 0.085478716 0.37318498 0.3907226 0.2291546 -0.37189242 -0.26832294
-0.10984683 -0.09228283 0.046098135 -0.45893916 0.15685073 -0.38160837 -0.32153708 -0.41564468
0.43484902 -0.4725352 0.38218978 -0.01680661 -0.05882681 0.31185162 -0.04452327 0.3135452
0.36076406 -0.43434903 0.18482143 0.09437969 0.10640135 0.07406278 0.13523462 -0.24050644
-0.06399473 0.4735853 0.33588657 -0.018782234 -0.47100803 0.020448456 -0.33968344 0.4065492
-0.30270767 -0.035735458 -0.116741575 0.088967115 0.47051415 0.0480922 0.2858378 0.3880716
0.40431902 -0.17152604 -0.115853265 0.24094191 -0.13626522 0.23342842 -0.1094762 -0.33908936
0.20219627 0.07745622 0.22269148 0.49668908 0.3410842 0.47359818 0.023709118 -0.4300597
-0.3521605 -0.31186852 -0.44453275 -0.25059432 -0.46090457 -0.4632011 -0.30595532 -0.492863
-0.305713 0.1914225 0.42295802 -0.14871548 -0.14498037 0.26654172 -0.25197932 -0.23638931
00000000: 134c d1be 4c6b c43d d797 093e 750b d93d
00000010: f464 0dbe b1f8 eb3e 22f0 9a3d 9f0b 97be
00000020: 40fd edbc c5d0 f53d 378a 2d3e 1cfe b4be
00000030: 2fda 3e3e 9c48 83be 918d d3be 64d0 8bbe
00000040: 4ec4 f63e 6677 db3e ec2e e83e 3142 963e
00000050: 6d56 c13e 2ef4 89bd 48ac 8fbe eacb 7f3e
00000060: fa45 84be 1837 acbe 22d7 1ebe 3ddf d63d
00000070: 9334 833e fae4 45be d88e 95be 8c1d 8a3d
00000080: d1b9 97be 90cf a6be 10f2 853e 55ff abbd
00000090: 493e ea3e 8b1b f93e 26aa 133e 4c30 303e
000000a0: b9b7 e93d a7a1 013c 8977 0ebd e528 e13b
000000b0: 1f0b 403e dc06 ee3e f5f6 02be 1968 58be
000000c0: 8c41 fbbd 9fae 77be 770f af3d 1a12 bf3e
000000d0: cb0c c83e 81a7 6a3e af68 bebe a061 89be
000000e0: 60f7 e0bd c8fe bcbd 66d1 3c3d 13fa eabe
000000f0: 7a9d 203e 2c62 c3be 82a0 a4be 61cf d4be
00000100: 88a4 de3e 22f0 f1be 61ae c33e 04ae 89bc
00000110: 62f4 70bd 04ab 9f3e 085e 36bd ff88 a03e
00000120: 11b6 b83e ff62 debe d441 3d3e 244a c13d
00000130: f3e8 d93d 3aae 973d f27a 0a3e 5247 76be
00000140: ab0f 83bd c679 f23e 53f9 ab3e 33dd 99bc
00000150: f727 f1be 8583 a73c fdea adbe 3727 d03e
00000160: 80fc 9abe 585f 12bd 3516 efbd 6434 b63d
00000170: 3be7 f03e 54fc 443d 5559 923e 52b1 c63e
00000180: e702 cf3e 86a4 2fbe 7a44 edbd 7ab9 763e
00000190: 1c89 0bbe dc07 6f3e 0f35 e0bd 1f9d adbe
000001a0: 8a0c 4f3e 5ea1 9e3d 3c09 643e 084e fe3e
000001b0: 97a2 ae3e 767b f23e a039 c23c c930 dcbe
000001c0: 624e b4be 3bad 9fbe cc99 e3be e64d 80be
000001d0: affb ebbe b228 edbe 2da6 9cbe 8a58 fcbe
000001e0: 6a86 9cbe 4304 443e f48d d83e df48 18be
000001f0: bc75 14be 2878 883e 6f03 81be 0a10 72be

layer1.3.fc2.bias f4 [32]
0.3082183 -0.43480432 0.059868045 0.43943647 0.08953212 0.13837442 -0.28869694 -0.0019512469
0.025875593 0.12145925 0.19428715 0.42949426 -0.38435388 0.015743243 -0.24877445 -0.39228123
-0.037765477 -0.43910187 0.3497801 0.053804547 -0.26962888 0.26353177 -0.47232082 -0.19228081
-0.09724886 -0.42677987 -0.31602174 -0.0825191 0.3796285 0.4789326 0.32017598 -0.29777306
00000000: cace 9d3e ac9e debe 3238 753d d1fd e03e
00000010: 9e5c b73d 06b2 0d3e 16d0 93be fbc0 ffba
00000020: 0df9 d33c a1bf f83d 36f3 463e ace6 db3e
00000030: 08ca c4be f9f7 803c bbbe 7ebe 16d9 c8be
00000040: f9af 1abd f6d1 e0be 6116 b33e 2862 5c3d
00000050: cc0c 8abe a3ed 863e 09d4 f1be 43e5 44be
00000060: 692a c7bd e482 dabe 9acd a1be c6ff a8bd
00000070: ab5e c23e a736 f53e 1bee a33e b675 98be

branch3.weight f4 [64, 32, 3, 3]
-0.03429631 0.055403776 0.024699053 0.0056396816 0.011938504 -0.04355197 -0.015754633 0.0604425
-0.010928904 0.0011320673 -0.045086827 -0.029142378 0.0027334793 -0.032887895 -0.0035890099 0.027673906
-0.054205228 0.021005308 -0.0432256 -0.032672707 0.019136041 0.04266707 -0.019966416 -0.027642038
-0.05740125 -0.034158807 -0.054950524 -0.01774268 0.008709955 -0.05819353 0.04746282 0.033959486
-0.06043597 -0.032049555 0.01620053 -0.014584402 -0.0022882589 -0.022737 0.051099587 -0.028847117
0.0525612 0.007560395 0.015691405 0.049508926 -0.0060762176 -0.037766915 -0.01332934 0.044380337
-0.047800712 0.009648198 -0.061214983 0.026804242 0.018066281 -0.00085361296 0.029809512 0.004362613
0.0367075 -0.04209516 -0.0045542335 0.030107822 0.062967315 0.034030907 -0.03893812 0.04715453
-0.014611956 -0.011577484 -0.052448586 -0.009960544 0.043100037 0.010170491 -0.035614848 0.019995505
-0.022974715 0.050049648 -0.054640047 -0.022480048 -0.060250487 -0.02646534 0.014864935 0.053347927
0.0066269613 0.052869063 0.0069609946 0.030051643 0.04237054 0.044684578 -0.03695045 0.049398433
0.031244345 -0.03136983 -0.025901522 -0.04432312 0.018133288 -0.04600794 0.02974622 0.021832217
-0.049332976 0.020801276 -0.0019226591 0.022755137 0.030015903 -0.06199418 0.049959194 0.045696527
0.020088863 -0.05789595 -0.024708739 -0.020353217 -0.01953244 0.029183868 0.017776363 0.042370744
-0.026059784 0.016268704 0.01668968 -0.052969456 -0.060619827 -0.034648042 0.03663654 -0.05883751
-0.055274077 0.029383792 0.028489625 0.04458097 -0.048015278 -0.04634361 0.031012261 0.05068687
0.037311 0.009312087 0.01891746 0.05779565 -0.03915141 -0.028013956 0.042842615 -0.044369325
-0.036220234 0.03956425 0.014659702 0.015424832 -0.0283055 -0.004611584 0.05047711 -0.038555123
0.004935638 0.03222485 -0.03664223 0.061469525 -0.025346262 -0.010277314 -0.011817679 -0.034546077
-0.054098956 0.037147973 0.018903226 -0.051571723 -0.034055274 0.06137478 0.02609396 0.02723779
-0.03267391 -0.022440646 -0.013290916 -0.014643573 -0.043777537 0.00046690763 0.002016198 -0.010804516
0.0038839977 -0.027082589 0.012080858 0.018662395 -0.034368627 -0.06163983 0.027420195 0.010897047
-0.033074524 0.053395446 -0.02984009 0.036611 0.03412625 -0.0452566 0.041968815 -0.049934823
-0.02866385 -0.0059236325 -0.035662677 0.06131591 -0.008078255 0.027762447 -0.048641995 0.03774926
-0.014028156 -0.041049257 0.0122845145 0.032387562 0.05438053 -0.032584302 -0.032476902 0.008080869
0.0129095 0.019140113 0.029043416 -0.016529616 0.029362552 0.040265072 -0.018516837 0.03657482
0.023731522 0.04741527 -0.038588207 -0.033997003 -0.021360872 -0.0021210022 0.03061837 -0.037700668
0.025296167 -0.024920369 0.032169063 -0.0069905333 -0.05541088 -0.03583015 -0.04678479 0.025443692
-0.042891204 -0.001098595 0.01654584 -0.02879474 0.020771874 -0.053731773 -0.038697064 -0.04947604
-0.013966873 -0.017929437 0.004535591 -0.014403467 0.024438364 0.05023524 0.017750235 -0.026375348
-0.058917277 0.017951593 -0.032405566 0.026107201 0.035795145 0.019363374 0.051502924 0.052507136
0.009229911 -0.0466206 0.049290344 -0.031123117 -0.0328137 0.044239316 0.040892426 0.013074804
00000000: 4a7a 0cbd 12ef 623d ab55 ca3c 14cd b83b
00000010: b799 433c 8d63 32bd dc0f 81bc 8e92 773d
00000020: 250f 33bc e061 943a f7ac 38bd ffbb eebc
00000030: 2c24 333b 75b5 06bd 9835 6bbb 63b4 e23c
00000040: 4d06 5ebd 5313 ac3c 540d 31bd d1d3 05bd
00000050: 30c3 9c3c aac3 2e3d 9c90 a3bc 8e71 e2bc
00000060: 931d 6bbd 1bea 0bbd cd13 61bd 1959 91bc
00000070: 33b4 0e3c 575c 6ebd 6068 423d 1a19 0b3d
00000080: b58b 77bd 6546 03bd f9b6 843c 6af3 6ebc
00000090: 9df6 15bb f242 babc cd4d 513d ca50 ecbc
000000a0: 6a4a 573d 31bd f73b 438b 803c dfc9 4a3d
000000b0: 021b c7bb 7bb1 1abd 4e63 5abc 28c8 353d
000000c0: aeca 43bd 7a13 1e3c 90bc 7abd 9294 db3c
000000d0: bdff 933c ffc4 5fba 1433 f43c 40f4 8e3b
000000e0: 9b5a 163d f96b 2cbd ae3b 95bb aea4 f63c
000000f0: 02f5 803d fe63 0b3d 947d 1fbd 1c25 413d
00000100: fc66 6fbc 7daf 3dbc 54d4 56bd 8d31 23bc
00000110: aa89 303d 22a2 263c e0e0 11bd 9dcd a33c
00000120: 7835 bcbc dc00 4d3d 3ece 5fbd 1428 b8bc
00000130: 37c9 76bd d7cd d8bc 0e8c 733c 5b83 5a3d
00000140: fb26 d93b 3b8d 583d 0e19 e43b dd2e f63c
00000150: bb8c 2d3d 2d07 373d 5b59 17bd 0356 4a3d
00000160: 24f4 ff3c a77d 00bd 6e2f d4bc 298c 35bd
00000170: 438c 943c d272 3cbd 58ae f33c 7ad9 b23c
00000180: 6011 4abd 7067 aa3c bc01 fcba fb68 ba3c
00000190: e9e3 f53c 9ced 7dbd 03a2 4c3d 482c 3b3d
000001a0: 6691 a43c 4e24 6dbd fb69 cabc cabb a6bc
000001b0: 7f02 a0bc 0213 ef3c bc9f 913c f28c 2d3d
000001c0: 547b d5bc f245 853c ccb8 883c 80f6 58bd
000001d0: 7f4c 78bd 1beb 0dbd 3210 163d 9aff 70bd
000001e0: 1267 62bd 47b6 f03c 1363 e93c 899a 363d
000001f0: abab 44bd ccd2 3dbd 6d0d fe3c 099d 4f3d
00000200: 6bd3 183d b991 183c caf8 9a3c 22bb 6c3d
00000210: 3b5d 20bd 867d e5bc bd7b 2f3d 9cbc 35bd
00000220: ab5b 14bd 1f0e 223d 3f2f 703c 6fb8 7c3c
00000230: f0e0 e7bc c51c 97bb 16c1 4e3d faeb 1dbd
00000240: 22bb a13b 34fe 033d 2a16 16bd 78c7 7b3d
00000250: f7a2 cfbc 2e62 28bc f09e 41bc 3080 0dbd
00000260: de96 5dbd 7928 183d f0da 9a3c df3c 53bd
00000270: 8b7d 0bbd 1f64 7b3d 00c3 d53c c921 df3c
00000280: 14d5 05bd 72d5 b7bc 24c2 59bc 99eb 6fbc
00000290: 1350 33bd 48cb f439 3022 043b 6d05 31bc
000002a0: ab8a 7e3b 4edc ddbc cbee 453c e1e1 983c
000002b0: 1ec6 0cbd 0c7a 7cbd 51a0 e03c 8789 323c
000002c0: 2779 07bd 2fb5 5a3d 3473 f4bc 6af5 153d
000002d0: f7c7 0b3d fc5e 39bd 7ee7 2b3d 7588 4cbd
000002e0: 73d0 eabc 081b c2bb 0713 12bd 6426 7b3d
000002f0: a85a 04bc 126e e33c d43c 47bd f89e 1a3d
00000300: 5ad6 65bc 4423 28bd fd44 493c d2a8 043d
00000310: 1ebe 5e3d 1e77 05bd 8006 05bd 9f65 043c
00000320: 5e82 533c bacb 9c3c 75ec ed3c 1e69 87bc
00000330: bc89 f03c fdec 243d 9fb0 97bc 7acf 153d
00000340: 9c68 c23c 8436 423d ab0e 1ebd 7140 0bbd
00000350: fffc aebc 8300 0bbb 60d3 fa3c 046c 1abd
00000360: e839 cf3c cd25 ccbc b5c3 033d d810 e5bb
00000370: 85f6 62bd a3c2 12bd 68a1 3fbd 4a6f d03c
00000380: b0ae 2fbd bbfe 8fba 248b 873c f2e2 ebbc
00000390: c729 aa3c d915 5cbd d080 1ebd 63a7 4abd
000003a0: 50d5 64bc c1e0 92bc 4c9f 943b 85fc 6bbc
000003b0: f732 c83c 78c3 4d3d f168 913c 1d11 d8bc
000003c0: 3e53 71bd 380f 933c b3bb 04bd c5de d53c
000003d0: ee9d 123d f09f 9e3c bbf4 523d b911 573d
000003e0: 0d39 173c 3ef5 3ebd ace4 493d e8f5 febc
000003f0: a967 06bd 4934 353d d17e 273d b437 563c

branch3.bias f4 [64]
-0.010348129 -0.052713398 0.055000834 0.042446773 -0.043183386 -0.056093697 0.0512254 0.048872493
-0.052824803 0.012502845 -0.037429698 -0.04337881 -0.04102673 0.0018786513 0.054386597 0.027446873
-0.054426767 0.031781532 0.053502705 0.041392263 0.054433297 -0.03425985 -0.029855281 0.032670304
-0.04655443 -0.016624179 0.042314086 0.018264148 -0.015669188 0.023683403 -0.027490377 -0.029820642
0.01755507 -0.028390184 0.040986847 0.026267605 0.0359294 0.04243766 0.007406694 -0.021733439
-0.04952241 -0.017137304 -0.04949945 0.035893884 0.004557867 -0.025076818 -0.001933871 0.0424772
-0.025914816 0.011511766 0.007407497 -0.008007995 -0.013624817 0.022009222 -0.019082427 -0.048426926
0.0133418115 -0.034248047 -0.03028917 0.0016873297 0.028431147 -0.017068252 -0.035159603 0.027156612
00000000: 338b 29bc 01ea 57bd 8e48 613d abdc 2d3d
00000010: 10e1 30bd 81c2 65bd bad1 513d 862e 483d
00000020: d25e 58bd bcd8 4c3c e24f 19bd fbad 31bd
00000030: a50b 28bd 143d f63a 7bc4 5e3d 44d8 e03c
00000040: 9aee 5ebd 5a2d 023d a725 5b3d ef8a 293d
00000050: 73f5 5e3d 0e54 0cbd 1093 f4bc 4cd1 053d
00000060: dcaf 3ebd 6e2f 88bc 8951 2d3d b29e 953c
00000070: ab5c 80bc b203 c23c 8033 e1bc 6b4a f4bc
00000080: a6cf 8f3c 8892 e8bc d3e1 273d 292f d73c
00000090: b52a 133d 1dd3 2d3d dab3 f23b 530a b2bc
000000a0: 03d8 4abd 8863 8cbc efbf 4abd 7705 133d
000000b0: 295a 953b e66d cdbc f179 fdba 93fc 2d3d
000000c0: 4f4b d4bc d99b 3c3c 97ba f23b f733 03bc
000000d0: a03a 5fbc af4c b43c c052 9cbc 505b 46bd
000000e0: 9d97 5a3c ae47 0cbd fe20 f8bc 6429 dd3a
000000f0: 70e8 e83c b8d2 8bbc 8403 10bd 8b77 de3c

branch5.weight f4 [64, 32, 5, 5]
-0.018983202 0.010353537 0.012822414 0.0020347263 -0.0061028255 -0.0019321447 -0.017262882 0.025883313
-0.00037492492 -0.011835276 -0.01646643 0.018348588 -0.019139206 0.017272456 0.002984059 -0.029673526
0.025373908 0.01656841 0.01763844 -0.013009287 -0.027658459 0.01958356 -0.024651114 0.019598132
0.03335123 -0.0015990736 -0.02596702 0.029174756 -0.0309321 -0.0087782405 -0.023422804 0.017499577
0.034598608 -0.019704742 -0.017435858 0.031410106 0.019922698 0.027441151 -0.022467175 0.035803217
-0.0099918535 -0.01681825 -0.008993692 0.0050804312 0.02331233 -0.006075589 -0.020966886 0.008657446
-0.031137172 -0.025346445 0.007439709 0.031772997 -0.019188404 0.02035012 -0.021864578 -0.012025724
0.035214778 0.010606456 -0.014301388 -0.015655296 0.007815274 0.022307562 0.027478255 0.0030929921
-0.017117705 0.017577017 -0.02896811 -0.00043823308 -0.031848777 -0.0068472205 -0.0008946517 0.028075749
0.007472447 -0.024370924 0.015479681 -0.0050854036 -0.028401459 -0.03565417 0.0010734142 -0.026278613
-0.019005405 -0.023330325 -0.031671423 -0.028733416 -0.010860724 -0.0060845125 0.019063506 -0.034213122
0.024536608 0.027187664 -0.03913626 0.017901348 0.023329286 -0.032160066 0.012882988 0.010108301
0.013441284 -0.01744315 -0.023426518 -0.005549175 -0.007930312 0.018367967 -0.023565566 0.03283215
-0.00832129 0.02310455 -0.008765361 -0.0026908156 0.008140644 -0.028219227 0.019173171 0.034636673
-0.023632081 0.016344564 -0.02927102 0.0015739031 -0.013266315 -0.027667848 0.018335799 0.024889667
0.007890104 0.014868892 -0.016458254 0.026281528 -0.025170095 -0.0104481615 -0.012161731 -0.015289441
0.027907299 0.026315443 0.017315028 -0.0133845145 -0.021798052 -0.010861939 -0.014475587 0.0029764657
0.017460521 0.03186736 0.023800127 -0.029176572 0.02923158 -0.033078544 0.0028417776 0.0040652053
-0.0067106206 -0.012050277 -0.016489165 0.018882189 -0.023609608 0.0053292424 0.015239911 0.029346475
0.0029111414 0.03280369 -0.0319084 -0.0170441 -0.028409397 0.0009574459 -0.01948464 0.026068874
-0.014423552 0.0049577164 0.03146921 -0.032468285 0.016887568 -0.027781751 0.01889306 -0.00746384
-0.028051898 0.007937528 0.004736005 0.014029469 0.023067536 -0.0018022007 -0.014556456 0.028144276
-0.017120281 0.023483578 0.017178431 -0.041120358 -0.0154780615 -0.0037487494 -0.034613818 -6.847733e-05
-0.021160716 -0.023508431 0.020349689 0.008820161 0.028884612 -0.013607947 -0.0157343 -0.02838043
-0.0021736745 0.021753933 -0.01018943 -0.016962294 0.016827727 -0.004136246 -0.00011687812 0.027020523
0.032234777 0.032221764 -0.033276398 0.0040203724 0.02627288 0.030532558 -0.03059874 0.024525141
-0.017935816 -0.019608917 -0.020289429 -0.01897908 -0.0067398017 -0.0025918265 -0.017475527 0.021880845
-0.020455474 0.029897448 -0.033268172 0.010295007 -0.022057753 -0.019655371 0.0071519013 -0.006827402
-0.0240615 -0.004780158 -0.027099803 -0.02166664 0.0189259 0.00022426498 -0.012327561 0.02595329
0.0033784122 0.023457149 0.01261417 0.00046516643 -0.015045942 -0.017079001 0.028561454 0.0059000743
0.027597353 0.0186957 -0.004625825 -0.0346173 0.011726444 -0.010475094 0.0040327613 -0.016118897
0.024395721 0.030509012 -0.02421943 -0.010912326 -0.031450905 0.011199512 -0.030447079 -0.030812528
00000000: a982 9bbc e2a1 293c 1a15 523c 0b59 053b
00000010: 36fa c7bb 0540 fdba e36a 8dbc 3e09 d43c
00000020: 9291 c4b9 bfe8 41bc 9be4 86bc c74f 963c
00000030: d3c9 9cbc f77e 8d3c 3490 433b e515 f3bc
00000040: f1dc cf3c 79ba 873c 7d7e 903c e824 55bc
00000050: fe93 e2bc b46d a03c 22f1 c9bc 438c a03c
00000060: 4d9b 083d 0298 d1ba cab8 d4bc e6ff ee3c
00000070: 5165 fdbc 9cd2 0fbc 2ee1 bfbc 465b 8f3c
00000080: 45b7 0d3d d76b a1bc a5d5 8ebc e2a7 003d
00000090: ed34 a33c 44cc e03c 150d b8bc 65a6 123d
000000a0: dfb4 23bc 6dc6 89bc 475a 13bc bf79 a63b
000000b0: 80f9 be3c bc15 c7bb bfc2 abbc f6d7 0d3c
000000c0: 6213 ffbc 59a3 cfbc cdc8 f33b 6724 023d
000000d0: 0031 9dbc 4bb5 a63c 581d b3bc 8b07 45bc
000000e0: 5f3d 103d b3c6 2d3c 5e50 6abc 893f 80bc
000000f0: a30b 003c 59be b63c 141a e13c ccb3 4a3b
00000100: 6e3a 8cbc adfd 8f3c 884e edbc a6c2 e5b9
00000110: dd73 02bd a65e e0bb 0f87 6aba 1dff e53c
00000120: 6edb f43b 88a5 c7bc 7d9e 7d3c 75a3 a6bb
00000130: 2daa e8bc 1b0a 12bd ceb1 8c3a 3f46 d7bc
00000140: 39b1 9bbc 3d1f bfbc e5b9 01bd 5762 ebbc
00000150: 2ef1 31bc 9760 c7bb 122b 9c3c 0f23 0cbd
00000160: ff00 c93c aab8 de3c 584d 20bd d9a5 923c
00000170: 0f1d bf3c 46ba 03bd 2b13 533c 4a9d 253c
00000180: d538 5c3c f0e4 8ebc f8e8 bfbc dbd5 b5bb
00000190: 24ee 01bc 6b78 963c 930c c1bc 017b 063d
000001a0: 0556 08bc c145 bd3c 979c 0fbc 6558 30bb
000001b0: 5660 053c 022c e7bc 0e11 9d3c 2fdf 0d3d
000001c0: 1198 c1bc 09e5 853c c7c9 efbc 6d4b ce3a
000001d0: f55a 59bc afa7 e2bc f534 963c 6ae5 cb3c
000001e0: 7f45 013c a79c 733c 76d3 86bc 5c4c d73c
000001f0: 8431 cebc c42e 2bbc ff41 47bc 9080 7abc
00000200: d99d e43c 7c93 d73c 3fd8 8d3c b94a 5bbc
00000210: d491 b2bc 46f6 31bc 032b 6dbc cf10 433b
00000220: 5e09 8f3c 5987 023d 7cf8 c23c b503 efbc
00000230: 1177 ef3c 5e7d 07bd 1e3d 3a3b 6a35 853b
00000240: c4e4 dbbb 866e 45bc 4914 87bc d2ae 9a3c
00000250: f068 c1bc eda0 ae3b d2b0 793c 0568 f03c
00000260: d9c8 3e3b 295d 063d 62b2 02bd 12a0 8bbc
00000270: d3ba e8bc 1bfd 7a3a 409e 9fbc 648e d53c
00000280: c350 6cbc 5774 a23b dce5 003d 77fd 04bd
00000290: cc57 8a3c 8e96 e3bc 9ec5 9a3c 3a93 f4bb
000002a0: 18cd e5bc 680c 023c 7d30 9b3b dcdb 653c
000002b0: 21f8 bc3c d237 ecba 347e 6ebc d38e e63c
000002c0: d53f 8cbc a260 c03c c8b9 8c3c d26d 28bd
000002d0: b297 7dbc 94ad 75bb 38c7 0dbd 7d9b 8fb8
000002e0: 3d59 adbc c194 c0bc 64b4 a63c 7082 103c
000002f0: 6c9f ec3c def3 5ebc 38e5 80bc 137e e8bc
00000300: 3574 0ebb 4e35 b23c 91f1 26bc 82f4 8abc
00000310: 4dda 893c 5989 87bb 761c f5b8 255a dd3c
00000320: 9d08 043d f8fa 033d d54c 08bd 54bd 833b
00000330: 393a d73c 6a1f fa3c 35aa fabc f3e8 c83c
00000340: 22ee 92bc e1a2 a0bc 0436 a6bc 047a 9bbc
00000350: 8ed9 dcbb a2db 29bb d628 8fbc 753f b33c
00000360: 3d92 a7bc 7eeb f43c 3544 08bd 64ac 283c
00000370: 76b2 b4bc 4d04 a1bc 7f5a ea3b 66b8 dfbb
00000380: 9f1c c5bc dfa2 9cbb 6800 debc 3d7e b1bc
00000390: 7d0a 9b3c ac28 6b39 8af9 49bc fe9b d43c
000003a0: 5a68 5d3b 3529 c03c aaab 4e3c 95e1 f339
000003b0: 4183 76bc 43e9 8bbc b6f9 e93c 6955 c13b
000003c0: d813 e23c ba27 993c 3c94 97bb dfca 0dbd
000003d0: 4520 403c bb9f 2bbc 4125 843b c70b 84bc
000003e0: 89d9 c73c 09ee f93c d367 c6bc 9dc9 32bc
000003f0: aad2 00bd 287e 373c 276c f9bc 8e6a fcbc

branch5.bias f4 [64]
-0.010674831 -0.02957048 -0.012865948 0.0047843438 0.02922484 -0.030705094 -0.005546552 0.025970815
0.033026867 0.018149007 0.014715916 0.0057610013 -0.032565944 -0.0092359185 -0.033994623 -0.020629223
-0.021237291 0.027544744 0.025792385 0.020360697 0.028990425 0.013104704 0.019276746 0.008123622
-0.0019022623 -0.013419088 0.011975776 0.0060509676 0.027313247 -0.026407873 -0.0156656 -0.015743854
-0.03149998 -0.011448658 -0.005676689 0.027688038 -0.03393209 0.030035041 0.007969708 -0.0023372553
-0.025583094 -0.017178899 -0.0300933 0.01614763 0.015515867 -0.021752845 -0.030764038 -0.0026335444
0.023497634 0.006818345 -0.026885957 -0.033886693 0.021456193 0.014519241 -0.03146595 -0.029207623
0.0062270747 0.000120008815 -0.01906524 0.0005301118 -0.0235492 0.025035203 0.0074439454 0.022381747
00000000: 7de5 2ebc cb3d f2bc b2cb 52bc fcc5 9c3b
00000010: ef68 ef3c 4089 fbbc dabf b5bb bfc0 d43c
00000020: 2e47 073d 3aad 943c 061b 713c c8c6 bc3b
00000030: de63 05bd 4052 17bc f23d 0bbd 9efe a8bc
00000040: d4f9 adbc 84a5 e13c 8d4a d33c 7acb a63c
00000050: 547d ed3c 1db5 563c 44ea 9d3c f118 053c
00000060: 5555 f9ba bcdb 5bbc 0c36 443c 3247 c63b
00000070: 08c0 df3c 5355 d8bc 2555 80bc 41f9 80bc
00000080: 1f06 01bd 2793 3bbc 8503 babb 06d2 e23c
00000090: 60fc 0abd 0c0c f63c 6193 023c a32c 19bb
000000a0: a393 d1bc c3ba 8cbc 3986 f6bc 0948 843c
000000b0: 4336 7e3c 0633 b2bc dd04 fcbc 8b97 2cbb
000000c0: 1c7e c03c 6c6c df3b f03f dcbc c6cc 0abd
000000d0: e6c4 af3c 1ce2 6d3c 71e2 00bd d344 efbc
000000e0: 7d0c cc3b 3ead fb38 b52e 9cbc 33f7 0a3a
000000f0: 40ea c0bc a016 cd3c 57ec f33b ed59 b73c

bn_ms.weight f4 [128]
0.9968554 0.9983275 1.000008 1.0001479 0.99736774 1.0029471 1.0003276 0.9977237
1.0007659 0.9990395 1.0043591 0.9998822 0.99974287 1.0032282 1.0047398 1.0028911
1.0009109 1.0037565 0.999989 0.99773073 1.0045527 1.0044779 1.0028237 0.99768525
0.99732864 1.000969 0.99975383 1.0030103 1.006569 1.0023059 1.004224 0.99944985
1.0000052 1.0010931 0.99769765 0.99804425 1.0048527 1.0032926 1.0008401 1.000221
1.0028592 1.004197 1.0045906 1.000675 0.99913883 0.9977262 1.00579 1.0070286
1.001294 1.0062158 1.0050161 0.9995104 1.001338 1.0020232 1.0006442 0.9970069
1.0005635 1.0044969 0.9974615 1.0060352 0.99879503 1.0025076 1.0057657 0.99901414
1.0020521 1.0053952 1.0004215 1.004562 0.9988341 1.0001168 1.0005203 1.0076388
1.003502 0.9964388 1.0002854 0.9968068 1.0017031 1.0018058 1.0024368 1.0006802
1.00238 1.0062964 1.0038058 1.0046891 1.000759 1.0012628 0.9989533 1.0005192
1.0040432 1.0066371 1.0036827 1.0029954 1.0039852 1.004873 1.0034207 1.0039243
1.0043283 1.0045094 1.003052 1.0004802 1.0045472 1.004592 1.0014521 1.0014849
1.0024109 0.99880743 0.9980408 0.99816155 1.002601 1.0026516 0.99848545 1.003238
1.0037024 1.0017803 0.9986279 0.9992859 1.0033841 1.0013362 1.004785 1.0009853
1.0029074 1.0017864 1.001936 1.0056319 1.005818 0.9994954 1.0040671 1.0009115
00000000: ea31 7f3f 6492 7f3f 4300 803f d904 803f
00000010: 7e53 7f3f 9260 803f bc0a 803f d26a 7f3f
00000020: 1919 803f 0dc1 7f3f d78e 803f 48f8 7f3f
00000030: 26ef 7f3f c869 803f 509b 803f bc5e 803f
00000040: d91d 803f 187b 803f 47ff 7f3f 486b 7f3f
00000050: 2f95 803f bb92 803f 875c 803f 4d68 7f3f
00000060: ee50 7f3f c11f 803f deef 7f3f a462 803f
00000070: 41d7 803f 8f4b 803f 698a 803f f2db 7f3f
00000080: 2c00 803f d223 803f 1d69 7f3f d47f 7f3f
00000090: 039f 803f e46b 803f 871b 803f 3e07 803f
000000a0: b15d 803f 8789 803f 6d96 803f 1e16 803f
000000b0: 90c7 7f3f fc6a 7f3f babd 803f 50e6 803f
000000c0: 672a 803f aecb 803f 5ea4 803f eadf 7f3f
000000d0: d82b 803f 4c42 803f 1c15 803f d83b 7f3f
000000e0: 7712 803f 5b93 803f a359 7f3f c3c5 803f
000000f0: 08b1 7f3f 2b52 803f eebc 803f 64bf 7f3f
00000100: 3e43 803f cab0 803f d00d 803f 7d95 803f
00000110: 97b3 7f3f d403 803f 0d11 803f 4ffa 803f
00000120: c172 803f 9d16 7f3f 5a09 803f bb2e 7f3f
00000130: cf37 803f 2c3b 803f d94f 803f 4a16 803f
00000140: fd4d 803f 52ce 803f b57c 803f a799 803f
00000150: df18 803f 6129 803f 67bb 7f3f 0311 803f
00000160: 7d84 803f 7cd9 803f ad78 803f 2762 803f
00000170: 9682 803f ae9f 803f 1770 803f 9780 803f
00000180: d48d 803f c493 803f 0264 803f bc0f 803f
00000190: 0195 803f 7896 803f 952f 803f a830 803f
000001a0: 004f 803f d8b1 7f3f 9a7f 7f3f 8487 7f3f
000001b0: 3b55 803f e356 803f be9c 7f3f 1a6a 803f
000001c0: 5279 803f 563a 803f 14a6 7f3f 33d1 7f3f
000001d0: e46e 803f c92b 803f cb9c 803f 4920 803f
000001e0: 455f 803f 893a 803f 703f 803f 8cb8 803f
000001f0: a5be 803f eede 7f3f 4585 803f de1d 803f

bn_ms.bias f4 [128]
-0.0023150088 -0.0024173982 0.0002534639 -0.0010450092 -0.0044217054 0.0023885884 -0.000616693 -0.0024518757
0.0012379463 -0.0019364036 0.0028559705 -0.00087521714 -0.00026945115 0.003420579 0.0030975228 0.0015335369
3.921733e-05 0.004407471 0.0027900646 -0.0026809059 0.005208502 0.0037406285 0.0027806938 -0.0041357954
-0.0026453424 0.00024166283 -8.49588e-06 0.0031547933 0.0070731803 0.0025228055 0.004500978 0.00022114512
-0.0016625816 0.0007520913 -0.0024512573 -0.0020196794 0.004415233 0.004780084 0.0006015962 0.0005060354
0.00077552674 0.0030605923 0.0051010665 0.00085030496 -0.00068318244 -0.00076068577 0.002206092 0.0060183634
0.0008837327 0.0057914667 0.005461149 -0.0017342896 0.0010298154 0.0027595868 0.0003816662 -0.0027598308
0.0010647766 0.004580766 -0.0035644742 0.006384915 -0.0011912109 0.0012991244 0.0057097515 -0.001468829
0.0010939887 0.0049009644 0.0011889444 0.004243996 -0.0010398104 0.00040708025 -0.0009802249 0.007882767
0.0035251463 -0.0035447844 -0.0017963763 -0.0032464564 0.0018232901 0.0023757336 0.0028870667 0.0008151346
0.0010218188 0.0056519522 0.003435584 0.00446737 0.001602234 0.0011496623 -0.00052843837 0.00011011977
0.004156312 0.0053071473 0.004417072 0.0029868314 0.0017020353 0.004580866 0.0028120186 0.0041271504
0.002851119 0.0020301153 0.0035087883 0.00010019439 0.004692009 0.0047479905 -0.0004945711 0.0020791914
0.003274361 -0.0016867047 -0.002159336 -0.0010494649 0.002321649 -0.0007108652 -0.0009739426 0.005142474
0.0046034963 0.0020442957 -0.0015852639 -0.0013963497 0.0030194526 0.0012481428 0.0044183596 0.0023105105
0.0025113344 -0.0006835166 0.000964913 0.005195717 0.004405056 -0.00207438 0.005244785 0.0010200534
00000000: 67b7 17bb 366d 1ebb 59e3 8439 b1f8 88ba
00000010: f4e3 90bb dd89 1c3b 91a9 21ba a6af 20bb
00000020: 9642 a23a ecce fdba 3c2b 3b3b d46e 65ba
00000030: 1f45 8db9 cb2b 603b cfff 4a3b f600 c93a
00000040: 4a7d 2438 8c6c 903b 84d9 363b 23b2 2fbb
00000050: 15ac aa3b 5525 753b 4d3c 363b 9185 87bb
00000060: 7b5d 2dbb df66 7d39 8789 0eb7 a6c0 4e3b
00000070: 23c6 e73b a755 253b f17c 933b 31e3 6739
00000080: fbea d9ba fe27 453a 46a5 20bb 995c 04bb
00000090: a9ad 903b 40a2 9c3b 70b4 1d3a 76a7 043a
000000a0: b84c 4b3a 3894 483b d926 a73b 00e7 5e3a
000000b0: 9917 33ba c268 47ba 1594 103b b135 c53b
000000c0: 4caa 673a 58c6 bd3b 70f3 b23b 1a51 e3ba
000000d0: dffa 863a 2fda 343b 5f1a c839 47de 34bb
000000e0: f98f 8b3a 401a 963b f499 69bb 8d38 d13b
000000f0: 6822 9cba 6247 aa3a de18 bb3b b985 c0ba
00000100: 2b64 8f3a 4598 a03b 5bd6 9b3a 3811 8b3b
00000110: 3f4a 88ba 636d d539 e47a 80ba b926 013c
00000120: 2406 673b 9d4f 68bb 6374 ebba 80c2 54bb
00000130: 77fb ee3a 32b2 1b3b f134 3d3b c2ae 553a
00000140: 8dee 853a 0334 b93b 8927 613b 0463 923b
00000150: 0d02 d23a 44b0 963a e686 0aba 1af0 e638
00000160: ac31 883b 94e7 ad3b 16bd 903b b7be 433b
00000170: d416 df3a 171b 963b d849 383b 0c3d 873b
00000180: d7d9 3a3b af0b 053b b3f3 653b 741f d238
00000190: 6dbf 993b 0895 9b3b 1ba6 01ba 0b43 083b
000001a0: a996 563b 6b14 ddba a683 0dbb 338e 89ba
000001b0: cf26 183b 5b59 3aba 2e50 7fba 3382 a83b
000001c0: edd8 963b 97f9 053b a1c8 cfba b905 b7ba
000001d0: 02e2 453b b998 a33a e3c7 903b ef6b 173b
000001e0: 3395 243b 062e 33ba 37f2 7c3a d540 aa3b
000001f0: 4a58 903b 52f2 07bb 72dc ab3b 50b3 853a

bn_ms.running_mean f4 [128]
-0.023423502 0.011661966 0.10535985 0.18338269 0.036416523 -0.098525956 0.0756103 0.0030242482
-0.027531177 0.058861792 0.12285156 0.104763106 -0.031139592 -0.26426005 0.32568368 0.37192786
-0.06002614 0.18081799 -0.08336317 -0.11531799 0.24383393 0.11795725 -0.14361057 0.19218601
-0.22871807 -0.033203084 0.17671938 -0.026516624 -0.10492959 0.21924327 -0.0016618198 -0.16043244
0.04638056 -0.18735708 -0.039308492 0.035042223 0.09646261 -0.06341114 0.030698227 0.04129944
-0.041447774 -0.027027769 0.023303038 0.022320537 -0.117129095 -0.16099598 0.23357512 0.22887114
-0.107840456 0.086823024 -0.032871015 0.09897694 -0.2526894 0.21696784 0.06705037 -0.10733593
0.015599251 0.23612264 -0.11765102 0.02093267 0.08377257 -0.061594076 -0.1391643 -0.02135782
-0.15138306 0.100677945 -0.1969091 0.478086 -0.004664236 -0.39455307 0.28468862 0.24231456
0.06663954 -0.017595243 0.2478808 -0.0084670605 -0.17457148 -0.11350881 0.06577615 -0.100988306
0.13141587 0.28636786 0.29876137 0.25512698 -0.06980673 -0.108915396 0.020017248 0.113641866
0.14211291 0.24237555 0.24425529 0.2898249 0.3071165 0.24163678 0.042535327 0.13491553
0.29373887 0.28861472 0.096628465 -0.40894562 0.115912765 -0.17241547 0.2175475 -0.1192104
-0.024256734 -0.16542014 -0.13172197 0.13867941 0.08387254 0.33599696 -0.32812253 -0.1517659
-0.044796295 -0.16888155 0.025600633 -0.037022803 0.40152308 -0.3423309 0.039295383 -0.15825462
0.108662724 0.3829377 0.21110651 0.18382436 0.2021308 0.32063103 0.17705847 -0.09809996
00000000: a5e2 bfbc d511 3f3c e8c6 d73d acc8 3b3e
00000010: 7e29 153d fac7 c9bd 93d9 9a3d 7732 463b
00000020: 1089 e1bc 1019 713d 9999 fb3d 0a8e d63d
00000030: 7518 ffbc 184d 87be 03c0 a63e 546d be3e
00000040: f8dd 75bd 5a28 393e 4fba aabd d72b ecbd
00000050: 9aaf 793e 9293 f13d a60e 13be 69cc 443e
00000060: 1235 6abe f5ff 07bd edf5 343e 6439 d9bc
00000070: 53e5 d6bd 4f81 603e 6bd1 d9ba 6748 24be
00000080: 8bf9 3d3d 89da 3fbe f101 21bd 6f88 0f3d
00000090: 308e c53d b3dd 81bd d97a fb3c 9a29 293d
000000a0: 24c5 29bd 5769 ddbc 03e6 be3c 8fd9 b63c
000000b0: 61e1 efbd 21dc 24be 512e 6f3e 325d 6a3e
000000c0: 75db dcbd 45d0 b13d c2a3 06bd 6cb4 ca3d
000000d0: 8160 81be d12c 5e3e b451 893d f1d2 dbbd
000000e0: 0094 7f3c 22ca 713e 05f3 f0bd fe7a ab3c
000000f0: f490 ab3d 124a 7cbd 1681 0ebe 98f6 aebc
00000100: 2904 1bbe 3d30 ce3d 8aa2 49be b0c7 f43e
00000110: 73d6 98bb dc02 cabe b5c2 913e 4f21 783e
00000120: 507a 883d e623 90bc 77d4 7d3e 6db9 0abc
00000130: dec2 32be 4f77 e8bd a5b5 863d f5d2 cebd
00000140: e291 063e cf9e 923e 40f7 983e 01a0 823e
00000150: d5f6 8ebd 090f dfbd 36fb a33c 11bd e83d
00000160: 0c86 113e 4c31 783e 0f1e 7a3e ee63 943e
00000170: 603e 9d3e a26f 773e 8639 2e3d 4c27 0a3e
00000180: f164 963e 4fc5 933e 25e5 c53d 5261 d1be
00000190: ac63 ed3d ae8d 30be c6c4 5e3e 9524 f4bd
000001a0: 0fb6 c6bc e663 29be 20e2 06be fa01 0e3e
000001b0: 5ec5 ab3d cb07 ac3e adff a7be 8568 1bbe
000001c0: 527c 37bd 49ef 2cbe 6bb8 d13c 39a5 17bd
000001d0: 6f94 cd3e ff45 afbe 32f4 203d 800d 22be
000001e0: 908a de3d 6910 c43e 4e2c 583e 743c 3c3e
000001f0: 60fb 4e3e c029 a43e d14e 353e a2e8 c8bd

bn_ms.running_var f4 [128]
0.049112394 0.028647317 0.03558565 0.0617403 0.03708429 0.083400555 0.026778117 0.047409266
0.06475124 0.021771353 0.034264438 0.07272343 0.030042466 0.14169621 0.097113185 0.17314257
0.08546385 0.039653476 0.058887772 0.040347375 0.11797169 0.06432 0.06113708 0.03122668
0.08824317 0.03632752 0.06460173 0.043408755 0.071334556 0.04132245 0.035748303 0.044726186
0.061048865 0.042424936 0.07622734 0.02715309 0.031537645 0.05747805 0.034268156 0.047687527
0.05291368 0.080471665 0.055061497 0.02286222 0.06843334 0.047427274 0.08965094 0.14107758
0.027387876 0.05977086 0.025520753 0.04849807 0.08136638 0.08632477 0.02873285 0.030041525
0.03063248 0.14853062 0.068414964 0.08255428 0.024495708 0.059610516 0.110296294 0.028268864
0.124643184 0.11977255 0.07727313 0.43631947 0.035145734 0.056871757 0.10885115 0.12891066
0.11537962 0.025235485 0.06024758 0.033054806 0.07602843 0.047183335 0.04148168 0.034889594
0.10875161 0.25362638 0.3062342 0.22969696 0.13036977 0.057789624 0.039086632 0.14839356
0.043892525 0.09894666 0.081510365 0.068988875 0.09119145 0.12367901 0.03292012 0.13529938
0.13059777 0.15121552 0.032940686 0.15434386 0.16506895 0.11606795 0.15843849 0.12218187
0.111604325 0.047945086 0.034924343 0.09969515 0.06341536 0.13421208 0.0975194 0.05650796
0.13688438 0.15677911 0.114517555 0.028001469 0.35696945 0.10599315 0.07621794 0.07532437
0.059125077 0.11230361 0.10964015 0.24412477 0.08345462 0.16328278 0.12641537 0.04000076
00000000: 142a 493d c7ad ea3c 42c2 113d 66e3 7c3d
00000010: b2e5 173d e9cd aa3d c85d db3c 3830 423d
00000020: 4c9c 843d d659 b23c de58 0c3d 06f0 943d
00000030: 9e1b f63c d018 113e 47e3 c63d 494c 313e
00000040: ac07 af3d af6b 223d 4e34 713d 4a43 253d
00000050: 249b f13d 34ba 833d e06a 7a3d 18cf ff3c
00000060: d6b8 b43d 2acc 143d e94d 843d 61cd 313d
00000070: da17 923d bb41 293d d06c 123d ce32 373d
00000080: 600e 7a3d c5c5 2d3d 141d 9c3d 2870 de3c
00000090: 9e2d 013d 1b6e 6b3d c45c 0c3d ff53 433d
000000a0: 04bc 583d 54ce a43d 2a88 613d 8d49 bb3c
000000b0: c726 8c3d 1a43 423d e99a b73d a476 103e
000000c0: 8a5c e03c 4ad2 743d e610 d13c eaa5 463d
000000d0: 6ba3 a63d 0acb b03d 2761 eb3c a519 f63c
000000e0: f7f0 fa3c 6918 183e 251d 8c3d 3812 a93d
000000f0: 39ab c83c 282a 743d 06e3 e13d 1b94 e73c
00000100: ed44 ff3d 504b f53d 6041 9e3d 4465 df3e
00000110: f9f4 0f3d 5cf2 683d 5aed de3d 2801 043e
00000120: 264c ec3d a6ba ce3c 2bc6 763d 7a64 073d
00000130: cbb4 9b3d 5043 413d b2e8 293d 64e8 0e3d
00000140: 2ab9 de3d 51db 813e bbca 9c3e ae35 6b3e
00000150: a77f 053e d0b4 6c3d 4e19 203d 7bf4 173e
00000160: a6c8 333d 8ca4 ca3d e8ee a63d 0a4a 8d3d
00000170: 95c2 ba3d 6c4b fd3d 3fd7 063d ec8b 0a3e
00000180: 6cbb 053e 3ed8 1a3e d0ec 063d 510c 1e3e
00000190: d607 293e 09b5 ed3d b33d 223e 7d3a fa3d
000001a0: cf90 e43d 1162 443d d40c 0f3d f92c cc3d
000001b0: eadf 813d e46e 093e 40b8 c73d e474 673d
000001c0: 6b2b 0c3e b48a 203e 2e88 ea3d 5663 e53c
000001d0: b3c4 b63e f012 d93d 2718 9c3d aa43 9a3d
000001e0: 232d 723d 6fff e53d 048b e03d d8fb 793e
000001f0: 41ea aa3d 9a33 273e 0873 013e d6d7 233d
