checkpoints/best_0.3166.pt (torch, 328019 bytes, 22 tensors)

layer1.0.weight f4 [32, 1, 3, 3]
000000 38 39 65 3e 5c 3e 72 3e 93 a9 94 bd 07 49 9b 3e
       0.22385108 0.236566 -0.07258906 0.30329153
000010 f5 fe cb bd c1 fd bf 3d 89 92 f6 bd b8 cc 64 3e
       -0.099607386 0.093745716 -0.12039668 0.22343719
000020 7b 5f ab 3e 1e e8 7e be b5 fb 94 3e 14 24 4d 3d
       0.33471283 -0.24893233 0.29098287 0.050083235
000030 ae 7f 66 3e f9 46 1d 3d d0 28 05 3e f7 01 2a bd
       0.22509643 0.038397763 0.1300385 -0.04150578
000040 8b ad 97 3e 2b b5 76 3d a4 bd 07 be 8e b2 bb 3d
       0.2962459 0.06023137 -0.13255936 0.09164916
000050 44 49 0e be 0d 6f 9a bc fa 27 0b be 33 f3 6b 3e
       -0.13895136 -0.018851781 -0.13589469 0.23041992
000060 84 97 8b be 37 a2 34 be cd f4 bd bd b3 6a 49 be
       -0.27264035 -0.17640005 -0.09275208 -0.19669609
000070 69 27 1d 3d c0 ba a6 be 46 a7 9d 3e 6e 1d 8a be
       0.038367663 -0.32564354 0.30791682 -0.26975578
000080 9e 4b 87 3e 23 c5 84 3d b5 1f be bd 5d c8 5c 3e
       0.2642488 0.06482913 -0.092833914 0.21560808
000090 a7 8d 13 3d 00 f5 95 3e 29 ec 21 3d 88 9c f7 bd
       0.036023762 0.29288483 0.03953186 -0.12090403
0000a0 75 49 ec 3d 06 b5 b5 bd 07 78 e7 3d 9e 33 98 3e
       0.11537448 -0.08872418 0.1130219 0.2972688
0000b0 e8 f1 30 3e 15 47 09 be 6d 8b 54 3e b4 8f 91 3d
       0.1727978 -0.13406022 0.20756312 0.07107487
0000c0 c7 56 33 3e f6 c9 41 be 23 25 a5 be aa 5e 04 be
       0.17513572 -0.18924698 -0.32254896 -0.12926736
0000d0 77 49 7c be 9f af 8d 3e 98 13 e7 3d 75 fa 1d 3e
       -0.246374 0.2767305 0.11283034 0.15427573
0000e0 f2 c9 00 3e de d5 b9 3b 44 0d 8b 3e eb 5e 61 be
       0.12577036 0.005671247 0.27158558 -0.22008865
0000f0 7a 74 0a 3d 72 b1 59 be 0e b7 f0 3d 43 9a e6 bd
       0.033802487 -0.21259096 0.11753665 -0.11259892
000100 30 68 c8 3d e3 ce 8e bd ac a6 8e 3e 30 af 4e be
       0.09785497 -0.06973054 0.27861536 -0.20184016
000110 80 b5 4c be f8 ff 4b be 4f 52 97 3e 97 7b e4 3d
       -0.19991112 -0.19921863 0.29554984 0.111563854
000120 e0 be a8 3e 53 b5 86 be 8a 1c a8 be 3b dc 80 be
       0.32958126 -0.26310214 -0.32834274 -0.25168023
000130 49 8d 59 be 86 f6 0c 3e 67 27 ff 3d 88 60 91 3e
       -0.21245302 0.13765916 0.12458687 0.2839396
000140 33 88 2e be 2a b4 53 be f6 49 3f 3e 26 c1 f7 bd
       -0.17044143 -0.20674196 0.18680558 -0.12097387
000150 1e f7 57 3e bf c7 90 bd 54 65 4a 3e 4a 24 86 be
       0.21090361 -0.070693485 0.19765216 -0.2619956
000160 7d e8 2f be 90 a4 cf 3d f5 12 82 3d da 16 c0 bd
       -0.17178531 0.1013881 0.06351272 -0.093793586
000170 9d 09 45 3e aa 9e 64 3e 70 a7 7c be 2f 4b 38 be
       0.19241948 0.2232615 -0.24673247 -0.1799743
000180 f1 3c 98 3e 2c 42 fb bd 11 3d 00 be 6f 64 af be
       0.29733995 -0.12268481 -0.12523295 -0.34256312
000190 16 ba 5b be 23 cd a1 3d b8 7c 65 bd 1a 2e 7c be
       -0.21457705 0.07900455 -0.056027144 -0.24626961
0001a0 db bd 4d 3c 55 ad 5b be 2e 68 83 be 6f 2c 27 be
       0.012557472 -0.2145284 -0.2566542 -0.16325544
0001b0 05 ff 98 be 6b 89 64 be ab 7b ab 3e af c1 42 3d
       -0.29882064 -0.22318046 0.3349279 0.047547992
0001c0 ed 8f b2 3d 2d d3 9a be ce ca 53 be 93 b7 fa bd
       0.08718858 -0.3023924 -0.20682833 -0.12242045
0001d0 04 e2 72 3d 7a 13 9f be e3 dc 2e be db a3 46 be
       0.059297577 -0.31069547 -0.17076449 -0.19398443
0001e0 92 50 10 bc e8 ba 13 be 13 3e 2c bc 0a 1f 57 be
       -0.008808272 -0.14426768 -0.0105128465 -0.21007934
0001f0 c6 9e 60 be 6f e6 2c be 51 2e f8 bd 4a 4b 87 be
       -0.21935567 -0.16884778 -0.12118209 -0.26424628
000200 6e 87 8e 3e c6 aa 9b bd 11 b3 8e 3e fc 3f cc 3d
       0.278377 -0.07600932 0.27870992 0.099731416
000210 82 f5 92 be 2e 10 69 3e c8 24 b6 bd 7c 73 dd bd
       -0.28702933 0.22760078 -0.08893734 -0.108130425
000220 a7 48 9d be 77 ad a7 be 53 d6 d2 3d 8a 24 c4 bd
       -0.30719492 -0.3274953 0.10294785 -0.09577282
000230 05 f5 0b 3e d2 c9 89 be 14 1f 6f 3e 47 5f 79 be
       0.13667686 -0.2691179 0.23351699 -0.24352752
000240 d7 90 07 bd 19 79 c0 3d 33 34 4a 3e 92 83 91 3e
       -0.033097114 0.093980975 0.19746475 0.28420693
000250 92 a0 a6 3e c1 c9 73 be bd 6b d8 3d 1c fa f4 bd
       0.3254438 -0.23807432 0.105674244 -0.11961767
000260 5f 17 2a bc ed 65 7a be 3f 86 a0 3e 1f 4b 79 be
       -0.010381549 -0.24452944 0.31352422 -0.24345063
000270 58 60 35 3e a1 48 f7 3d 31 b5 cb 3d 41 95 2f be
       0.17712533 0.120744 0.09946669 -0.1714678
000280 19 63 a2 3e c5 7b 8b 3d df 67 0e 3d cb 7d 9b be
       0.3171623 0.068107165 0.034767028 -0.3036941
000290 56 76 09 3e ad 9d 62 bd 8d 64 23 be dd 19 90 3e
       0.13424048 -0.055326153 -0.15956326 0.28144732
0002a0 10 43 95 3d 0e b5 3c be 92 9b 2c be 40 4a b2 bc
       0.07288182 -0.18428442 -0.1685622 -0.02176392
0002b0 dc 9d 33 3e 53 96 ce bd 8f 21 42 be 1b ae f8 bd
       0.17540687 -0.10087266 -0.18958114 -0.12142583
0002c0 a9 60 84 be c4 3c f5 3d e3 ba 80 3e eb 2f a3 be
       -0.25854996 0.11974481 0.25142583 -0.31872496
0002d0 e2 a0 b7 3d a6 ed 1b 3e ba ea 92 3d 21 88 c8 bd
       0.08966233 0.15227374 0.07173677 -0.097915895
0002e0 da 36 2f 3e d0 db 44 3e 23 a6 18 3e e4 66 16 bd
       0.17110768 0.19224477 0.14907126 -0.036719218
0002f0 64 21 7a bd eb 0b 2f 3d d8 db 51 bd ab 46 b5 bd
       -0.061067 0.042735975 -0.05123505 -0.088513695
000300 79 03 69 3e 78 ab 97 3e 60 a4 8a bc 5f 9e 5e bd
       0.22755231 0.29623008 -0.016924083 -0.054350253
000310 21 87 b9 3c a3 a9 84 bb c4 e9 9d 3d a7 db a0 3d
       0.022647442 -0.0040485426 0.07710603 0.07854395
000320 d7 25 a1 be 0e 2d 01 be 66 d1 87 3e 29 07 ef 3d
       -0.31474182 -0.12614843 0.26526946 0.116712876
000330 e0 02 84 bc da 42 5f be d1 fb 60 be d3 17 90 be
       -0.016114652 -0.21802846 -0.2197106 -0.28143176
000340 d1 41 c0 bd 3c a9 0a 3e 97 be 64 3e 69 12 28 3e
       -0.093875535 0.1354112 0.2233833 0.16413273
000350 43 c3 8c be 4b c6 43 be 26 48 2e bd a2 9c ad 3e
       -0.27492723 -0.19118612 -0.042549275 0.33908564
000360 40 cd 7e 3d 26 85 5a bd 9e 85 21 3e 65 39 fe bd
       0.06220746 -0.053349636 0.15773627 -0.12413291
000370 6c dd 37 be 04 c9 84 3e 60 42 25 be ce 4b 25 bd
       -0.1795556 0.25934613 -0.16138601 -0.040355496
000380 b1 c1 a3 be 10 1a 6e 3e 0d 70 82 3e c1 35 05 3e
       -0.31983712 0.2325213 0.25476113 0.13008787
000390 9e 1e 61 be 91 6e a3 be b0 00 85 be 63 18 87 3e
       -0.21984336 -0.31920293 -0.25977087 0.26385793
0003a0 69 7b 30 3e 3b dc 95 3e 17 95 3a 3e 44 c9 c9 3d
       0.17234577 0.29269585 0.18220936 0.098528415
0003b0 84 95 26 3c db f0 81 be 71 9c 8a be ec 13 9b be
       0.010167483 -0.2537907 -0.2707248 -0.30288637
0003c0 db ef 08 3e fa 0a 20 be d5 51 88 bd 5f 33 2c be
       0.13372748 -0.15629187 -0.06656233 -0.16816472
0003d0 57 d5 ab bd 9e 2d 75 be 86 b5 48 be 64 65 b7 3d
       -0.08390301 -0.23943183 -0.19600496 0.089548856
0003e0 d3 27 ef bd 2c 41 5f 3e 4b 3f f9 bd 23 b5 7c be
       -0.11677518 0.21802205 -0.12170275 -0.24678473
0003f0 f0 25 2d bd 7a d5 1f be a8 5b b6 bd 61 35 98 be
       -0.04227251 -0.15608779 -0.08904201 -0.29728225

layer1.0.bias f4 [32]
000000 d9 0b 8f 3e d4 c1 55 bd 58 37 1b bd f9 13 0b be
       0.27938727 -0.052186802 -0.037894577 -0.13581838
000010 e9 f4 99 be 3e fc a5 be 0e 99 fd 3d 36 c1 3b be
       -0.30069664 -0.32419008 0.123827085 -0.18335423
000020 5b 61 5b be 5d a1 d3 bc a9 6a e3 bd ed c4 dc bd
       -0.21423857 -0.02583378 -0.11104328 -0.10779748
000030 b5 22 2f 3c 47 a7 90 bd 9d 96 ea bd 5a 56 23 be
       0.010689427 -0.070631556 -0.114545085 -0.1595091
000040 d7 da 8a be e8 0c 8f 3e 32 83 08 be ee aa b4 3d
       -0.27120087 0.27939534 -0.13331297 0.08821665
000050 5f c1 ec bd 2e aa de 3c a5 0a 9f 3e 92 56 1d 3e
       -0.1156032 0.027180757 0.3106281 0.15365055
000060 57 c9 93 be 9f 79 07 3e 1e ed a1 3e e4 8b b3 3d
       -0.28864548 0.13229989 0.3162622 0.087669164
000070 0a e4 64 3e 97 31 a8 3e cd e4 50 bd 91 a6 8d 3d
       0.22352615 0.32850334 -0.05099945 0.06916536

layer1.1.weight f4 [32]
000000 e1 00 80 3f a5 e7 80 3f ea e9 7c 3f b3 0d 81 3f
       1.0000268 1.0070692 0.98794425 1.0082306
000010 02 6a 81 3f f3 07 7d 3f 23 e6 80 3f 14 0e 85 3f
       1.0110476 0.98840255 1.0070232 1.0394921
000020 55 3b 7b 3f 7e 22 7d 3f ee 98 85 3f e9 47 7b 3f
       0.9813741 0.98880756 1.0437295 0.981566
000030 ee 44 7d 3f e0 5d 7d 3f 7d 8d 83 3f 57 32 7f 3f
       0.98933303 0.98971367 1.0277554 0.9968619
000040 89 54 80 3f 6e a2 81 3f 6d 47 7c 3f d9 8e 7c 3f
       1.0025798 1.0127695 0.9854649 0.9865547
000050 21 e3 7f 3f 78 d3 80 3f 9a f5 7c 3f 5c bb 7f 3f
       0.99955946 1.0064535 0.9881226 0.9989526
000060 0b ab 7d 3f dc 64 80 3f 9e 3d 7f 3f f1 2a 7c 3f
       0.99089116 1.003078 0.99703395 0.98503023
000070 59 ea 82 3f b0 88 7c 3f 25 5a 80 3f 4b 96 7e 3f
       1.0227767 0.9864607 1.002751 0.9944808

layer1.1.bias f4 [32]
000000 a3 4e b9 3c 72 fa d3 3c bc 0c 75 3c b1 00 89 bc
       0.022620505 0.025876258 0.014956649 -0.016723963
000010 58 d4 02 3d aa f3 06 bb c7 2b 5c 3c 1e 03 8d bc
       0.031940788 -0.0020592012 0.013438172 -0.0172134
000020 27 ea 35 bc 47 b5 1c bb 9e f3 4b bb 24 8b 51 bc
       -0.01110319 -0.002391176 -0.003112055 -0.012789521
000030 15 d1 0e bc 97 aa d4 3c 9e 47 9e 3a 72 b0 72 3c
       -0.008716841 0.02596025 0.0012075787 0.014812576
000040 4e 9c df 3c 8c f8 01 3d 0d 16 e2 bb ce a9 85 bc
       0.027296212 0.031731173 -0.0068996013 -0.01631632
000050 2f 64 17 3d bc a9 06 3d 3a 79 92 3b cc 0f 8b bb
       0.036960777 0.032876715 0.0044700177 -0.0042438265
000060 92 0a 9d 3c f7 56 de 3c bd 62 b1 3c 91 4f 3c 3c
       0.01917008 0.027141077 0.021653527 0.0114935795
000070 8c 1d 3b 3a a4 d3 64 3c 9d 2d ce 3c c5 ef 97 3b
       0.0007137887 0.013966475 0.025168234 0.004636737

layer1.1.running_mean f4 [32]
000000 cc 98 a4 bf 7b af 96 bf 4f 6d 5d 3f 06 f3 1f be
       -1.285913 -1.1772302 0.86494917 -0.1562005
000010 a2 98 bf bf 73 7a bb 3d 4a 8e d2 be 3c 29 40 be
       -1.4968455 0.09154215 -0.41124183 -0.1876573
000020 5c 6a 8a 3e 30 22 26 3e 33 62 e9 bd 61 ee ec 3f
       0.2703427 0.16223979 -0.11395683 1.8510247
000030 e5 82 62 3f 8e c6 f6 3f a5 33 3c be 0d 3b 86 3f
       0.8848098 1.9279344 -0.18379076 1.0486771
000040 73 d9 8e bf 03 f8 b0 be 41 e4 b6 3e 41 8a 3c 3f
       -1.116011 -0.34564218 0.3572102 0.7364846
000050 e4 f0 7d bf b6 2a 01 bf 67 88 4d 3f c1 9a 37 3e
       -0.99195695 -0.50455797 0.8028626 0.17930128
000060 e7 da 8f 3e da 80 1d bf 88 6f 9a 3f ea 73 a4 3f
       0.28096697 -0.61524737 1.2065287 1.2847874
000070 9e 6f 58 3e 88 9f b1 3e 32 78 7c bf 6c ff c7 3f
       0.21136329 0.34692025 -0.98620903 1.5624824

layer1.1.running_var f4 [32]
000000 a8 66 71 41 bb ba ff 40 99 e4 a4 40 d3 1d e9 3e
       15.087563 7.9915442 5.152905 0.45530567
000010 90 c1 0f 41 28 81 9e 3f 40 34 fd 3f fd 50 25 3e
       8.984756 1.2383165 1.978157 0.16144176
000020 a6 e5 fa 3f ba 46 eb 3e a3 a5 01 3f 6c 9f bd 41
       1.9601333 0.45952398 0.50643367 23.702843
000030 3e 1c 9c 40 92 12 c4 41 f3 36 07 3f 82 35 14 41
       4.8784475 24.509068 0.5281822 9.263063
000040 24 83 95 40 12 60 35 40 6c 87 e3 3f c8 6d 41 40
       4.6722584 2.8339887 1.7775702 3.0223255
000050 a0 d3 9a 40 95 e3 f6 3f e1 4d db 3f 4e 34 77 3e
       4.838333 1.9288203 1.7133142 0.24141046
000060 69 9b 14 40 6d 9b 78 40 c7 29 a9 40 f7 fa 10 41
       2.3219855 3.8844864 5.28635 9.061271
000070 22 01 1e 3f 5c 53 e0 3e 75 df b2 40 4d 95 61 41
       0.6172048 0.43813598 5.5897775 14.09895

layer1.3.fc1.weight f4 [4, 32, 1, 1]
000000 6f 53 01 be 8f 7a 23 bd 9f d4 04 3e c6 1e b5 3d
       -0.12629484 -0.039911803 0.12971734 0.0884376
000010 e3 2e ec bd ec 66 12 be 1a 7f fe bd 39 4e 35 be
       -0.115323804 -0.14297074 -0.124265864 -0.17705621
000020 7c 1c 0d be 4c d5 38 bd 19 bf f0 3d 66 63 e9 3c
       -0.13780397 -0.04512529 0.11755199 0.02848978
000030 9e c4 0a be 55 4c 12 be 2d 38 ad 3d 3c ce 07 be
       -0.13551566 -0.14286931 0.0845798 -0.13262266
000040 58 2c cf bc c9 62 a6 3d ce 23 aa bd ac 7f aa bc
       -0.0252897 0.081243105 -0.083076105 -0.020812832
000050 3c e2 9a bc 9f d4 39 bd eb 96 ba bd 7b 0e 23 be
       -0.018906705 -0.045368787 -0.091108166 -0.15923493
000060 7b 85 13 be 51 fe c8 bd 11 6f 2d 3e 9b 4a b1 bd
       -0.14406388 -0.09814132 0.169369 -0.08656808
000070 1e c2 f7 bd 5e ad 26 3d 2e 1a 39 3d fe f6 c3 3d
       -0.12097572 0.04069268 0.045190983 0.095685944
000080 02 12 07 3e 91 a5 c4 3d bd ff 31 be 48 6f 4d 3c
       0.13190463 0.09601892 -0.17382713 0.012538739
000090 61 4e d6 3d ad 1a 78 bc 80 45 da bd ca 72 29 3e
       0.10464168 -0.015143079 -0.10657787 0.16547695
0000a0 35 40 85 bd 8f b0 d3 bd fa 74 27 be 5d 7a 1a 3c
       -0.06506387 -0.1033641 -0.16353217 0.009428588
0000b0 33 69 a3 3d cb 52 27 3d 0e ab 04 3d 4a b2 06 be
       0.079790495 0.040850442 0.032389693 -0.1315395
0000c0 cc 6f 2b be dd 51 4e 3a 9e 98 23 3e ba c4 d1 3d
       -0.16741866 0.0007870475 0.15976188 0.10242601
0000d0 0d a4 d7 bd 58 43 cf bc 00 13 06 be b3 95 b6 bd
       -0.10529337 -0.025300667 -0.13093185 -0.089152716
0000e0 f4 fa 04 3d 70 10 c0 3d 3e 56 17 3e 51 cc 23 be
       0.03246589 0.09378135 0.14778993 -0.1599591
0000f0 eb 3e ed 3d 9a a8 05 be c1 9e 82 3d 55 2a 1b 3e
       0.11584266 -0.13052598 0.06377936 0.15152867
000100 46 c0 72 3c df 5f 31 3e ad e9 2f be a4 6a 74 bd
       0.014816349 0.17321728 -0.17178984 -0.059672013
000110 16 a3 ec 3d 5b 0a 74 bd 66 75 ca bc 69 39 8a bd
       0.11554544 -0.05958019 -0.024714183 -0.06749231
000120 0a 8a d1 3d 6b 97 8c 3d 44 51 8b 3d 86 4d f6 bd
       0.10231407 0.06864818 0.068026096 -0.12026505
000130 80 b3 27 be 71 c1 21 bb 03 b5 82 3d af b7 d0 bd
       -0.16377068 -0.002468195 0.063821815 -0.10191285
000140 ca b6 19 bd bf 45 08 3e c5 4d 1f 3c 03 bb 22 bb
       -0.037527837 0.13307856 0.009723132 -0.0024830706
000150 25 6b 00 bd 3b 95 17 be 93 a5 39 be 8b cf c9 bd
       -0.03135218 -0.1480302 -0.18129568 -0.09854039
000160 8b bc e5 bd a3 b0 87 3d 51 30 98 bd a2 fc b6 bd
       -0.11217602 0.06625488 -0.074310906 -0.08934905
000170 54 b7 25 3e 92 07 93 3d 51 af 0d 3e ec 86 d9 bd
       0.16183215 0.07179178 0.13836409 -0.106214374
000180 69 cd 93 bd 44 fe 84 3d 12 17 f1 bd 31 8b ec bd
       -0.07216913 0.0649381 -0.117719784 -0.11549986
000190 43 d1 0b bc 50 59 84 bd 81 a1 07 be f4 a1 d6 3d
       -0.008533779 -0.064623475 -0.13245203 0.10480109
0001a0 db 7d 11 3e 6f cd ea 3c 19 02 fc bc 85 95 27 be
       0.14208166 0.028662411 -0.030762719 -0.16365631
0001b0 41 cc 83 bd 2b 3e 38 3d 3d 9f aa 3d cc f9 b6 bc
       -0.06435443 0.044981163 0.083311535 -0.02233591
0001c0 bf 0e 8f bd 5e a1 c9 3d 4a 16 10 be e0 b1 e4 3d
       -0.069852345 0.098452315 -0.14071003 0.111667395
0001d0 83 61 8c bd fa 38 31 3b a4 03 0f bd f3 7a af 3c
       -0.068545364 0.0027042017 -0.03491558 0.021420931
0001e0 ff b2 5a bd ac 8d 03 3e 47 83 96 bb a3 3a 0d 3e
       -0.05339336 0.12847012 -0.004593286 0.137919
0001f0 6b f4 2d 3e c9 49 b0 bd 10 fc 03 be ae 27 11 3e
       0.1698777 -0.086078234 -0.12889123 0.14175293

layer1.3.fc1.bias f4 [4]
000000 b6 1c 0a 3e 5f 97 0b be 0e c4 0d bb d1 69 32 be
       0.13487515 -0.13631962 -0.002163175 -0.17423178

layer1.3.fc2.weight f4 [32, 4, 1, 1]
000000 0d f3 cf be 41 19 c1 3d 7f da 13 3e 3c f4 d8 3d
       -0.4061512 0.09428645 0.14438818 0.10593459
000010 32 fb 0a be a7 b2 ec 3e 3c 29 c3 3d 9d fb 96 be
       -0.13572386 0.4623005 0.09529349 -0.2948884
000020 54 a1 ef bc 7a 7a eb 3d c4 d4 1d 3e da ea b4 be
       -0.029251732 0.1149797 0.15413195 -0.35335428
000030 a7 3b 3f 3e 6e 3c 8a be b0 a4 cd be 78 c1 8b be
       0.186751 -0.2699923 -0.4016471 -0.27296042
000040 03 87 f7 3e 6c a3 dd 3e 4a f8 f1 3e 2f 32 96 3e
       0.48345193 0.43288743 0.47259742 0.29335162
000050 c1 1b c1 3e 69 a3 9e bd ac 2a 97 be 7d b0 7f 3e
       0.37716487 -0.07746012 -0.29524744 0.24969669
000060 60 7b 83 be b1 36 ad be 1c 8e 10 be 33 c8 d6 3d
       -0.25680065 -0.3383079 -0.1411671 0.10487404
000070 be 30 82 3e e2 70 4c be 18 91 8f be c9 0e 8a 3d
       0.25427812 -0.19964936 -0.28040385 0.06741101
000080 63 ce 97 be b2 f7 a7 be 9d c2 7f 3e 04 ed ab bd
       -0.29649648 -0.32806164 0.24976583 -0.083948165
000090 cf f6 e9 3e 5a 5b fa 3e 0c 81 f3 3d 70 1d 30 3e
       0.45696113 0.4889782 0.11889848 0.1719873
0000a0 7d 83 e8 3d c4 aa f8 3b f3 53 fe ba b1 10 e1 3b
       0.113532044 0.007588716 -0.0019403681 0.006868445
0000b0 51 9b 40 3e 82 dc ee 3e da 01 04 be e0 50 58 be
       0.18809249 0.4665261 -0.12891331 -0.21124601
0000c0 6b 07 fc bd 10 c1 76 be 5c 30 b3 3d bd fd be 3e
       -0.12306102 -0.24097085 0.08749458 0.37302962
0000d0 98 66 c7 3e 72 8b 6a 3e 33 9c c3 be dd 52 89 be
       0.3894546 0.22904757 -0.38205108 -0.26821032
0000e0 83 4e e2 bd eb dd bd bd 94 c7 5d 3d f2 e0 ea be
       -0.11050131 -0.09270843 0.05414541 -0.45874745
0000f0 c7 fc 1f 3e 41 db c4 be c4 c2 a8 be d0 b8 d4 be
       0.1562377 -0.38448527 -0.32961094 -0.4154725
000100 84 f1 de 3e 3e fe ef be 70 b9 cc 3e 41 9f 89 bc
       0.43543637 -0.4687366 0.39985228 -0.016799571
000110 d7 28 63 bd af 45 9d 3e 51 e7 fc bc a9 77 a0 3e
       -0.05545887 0.30717227 -0.030872019 0.31341293
000120 a2 95 b8 3e 6c fd db be 5c ab 2b 3e 44 35 c1 3d
       0.3605166 -0.42966783 0.16764587 0.09433988
000130 24 96 da 3d f9 84 a0 3d 86 a1 eb 3d e2 2c 76 be
       0.10673168 0.078378625 0.115054175 -0.24040559
000140 54 b7 7c bd 00 fc ee 3e 01 7d af 3e cb cc 99 bc
       -0.061698273 0.46676636 0.34275058 -0.01877441
000150 fb 93 ef be 9e 00 4f 3c f8 47 af be ff 10 d0 3e
       -0.46792588 0.0126344245 -0.34234595 0.40637967
000160 98 0a 9b be 8e ae 14 bd d6 d8 13 be de 20 b6 3d
       -0.3028152 -0.03629928 -0.14438185 0.08892988
000170 f5 ca f0 3e be 64 26 3d 91 19 85 3e ee 9b c6 3e
       0.47029844 0.04062342 0.25996068 0.3879084
000180 b2 8c ce 3e 53 b2 2c be 9e 15 05 be 0a 9f 76 3e
       0.40341717 -0.168649 -0.12996528 0.24084106
000190 ca 48 08 be d6 4c 6f 3e 97 71 c7 bd 95 8a ad be
       -0.13309017 0.23369154 -0.097384624 -0.33894792
0001a0 c7 ee 4d 3e 99 bb a7 3d a0 cb 55 3e 9b 32 fe 3e
       0.20110618 0.08190078 0.20878458 0.49647984
0001b0 8f 54 ae 3e 2f fd f2 3e fb 2b a2 3c 3e 19 dc be
       0.34048888 0.4745879 0.019796362 -0.42988008
0001c0 33 c5 b4 be 85 fd a7 be 4a 9d e6 be ad 3f 80 be
       -0.353067 -0.32810608 -0.45041877 -0.2504858
0001d0 11 05 ec be 65 d1 f2 be 7e 54 92 be 1d 3d fc be
       -0.46097615 -0.4742538 -0.28580087 -0.49265376
0001e0 fd 1d 9b be af 42 49 3e 9c cd e3 3e 90 38 18 be
       -0.30296317 0.19654344 0.44492805 -0.14865327
0001f0 ef 78 14 be 9b 7c 87 3e e8 79 84 be 4a f6 71 be
       -0.14499258 0.26462254 -0.25874257 -0.23629108

layer1.3.fc2.bias f4 [32]
000000 a9 e3 9d 3e 92 bc db be 8c a5 49 3d d6 18 e7 3e
       0.30837753 -0.42917305 0.049230143 0.45136136
000010 84 8c c3 3d bb 20 ff 3d fe d3 90 be 2e c5 0a 3d
       0.095482856 0.12457415 -0.28286737 0.03387945
000020 20 92 22 3c f6 49 e6 3d ab bb 73 3e d3 09 d5 3e
       0.009922534 0.11244576 0.23802058 0.41609058
000030 f8 d3 c8 be 14 bd b2 3b eb 8f 63 be d1 e2 cb be
       -0.3922422 0.005454669 -0.22222869 -0.39821485
000040 74 e3 1d bd 22 c3 da be 6f 7d ab 3e c0 bf 38 3d
       -0.038546994 -0.42727 0.33494136 0.045104742
000050 1e 75 89 be 4e ed 89 3e 86 70 f8 be 4c 8b 46 be
       -0.26847166 0.26938862 -0.4852335 -0.19389075
000060 91 9b d9 bd 25 87 d7 be 87 f8 a3 be 0d 25 c5 bd
       -0.10625375 -0.42095295 -0.3202555 -0.096262075
000070 fc f0 cd 3e ba b1 f0 3e 69 ca a1 3e 06 89 9b be
       0.4022292 0.47010595 0.3159974 -0.30377978

branch3.weight f4 [64, 32, 3, 3]
000000 18 b6 d7 bc f3 a6 7e 3d 96 9a 01 3d 60 28 59 3c
       -0.026331946 0.062170934 0.031641565 0.013254255
000010 b7 89 9a 3c 0e fa 14 bd 4f 5c 12 bc da 89 87 3d
       0.018864496 -0.036371283 -0.008933141 0.0661809
000020 ac ad 9f bb 46 c9 05 3c 4a 57 1c bd ee 78 b7 bc
       -0.004872998 0.008165663 -0.038169183 -0.022396531
000030 c4 85 1c 3c 07 cf d6 bc 32 55 3c 3b fa f1 07 3d
       0.009553377 -0.026221765 0.0028737304 0.03318975
000040 a2 f0 46 bd 9e 6e d7 3c 3d 4f 3c bd 09 c4 08 bd
       -0.04856933 0.026297864 -0.045974005 -0.03339008
000050 2b b7 a3 3c 50 c5 21 3d 86 cc a9 bc b5 d7 d8 bc
       0.019984802 0.039494812 -0.020727407 -0.026470045
000060 47 8c 74 bd cf b4 0d bd 77 77 5a bd 3b f4 8d bc
       -0.05970409 -0.03459626 -0.053336587 -0.017328372
000070 52 39 1c 3c 6b 19 5c bd 86 58 46 3d 74 e5 11 3d
       0.009535151 -0.053735178 0.048424266 0.035619214
000080 f3 a8 63 bd a3 0d 03 bd 68 3e 87 3c 74 17 35 bc
       -0.055581044 -0.031995427 0.01650925 -0.011052955
000090 37 ca a8 3b f2 2f 7e bc 6d 2a 6c 3d 35 21 af bc
       0.005151059 -0.015514361 0.057657648 -0.021378139
0000a0 4d fc 72 3d 7b b0 69 3c 08 ac b4 3c 4e 62 63 3d
       0.059322644 0.014263268 0.022054687 0.055513673
0000b0 8c 7f 00 b9 68 28 24 bd 95 e5 5e bc 25 59 39 3d
       -0.00012254546 -0.040077597 -0.013604541 0.04525103
0000c0 41 e1 4a bd d1 65 1a 3c 19 ee 72 bd cc 48 c8 3c
       -0.049531225 0.009423689 -0.0593091 0.024448775
0000d0 a0 4b 91 3c c7 0e e1 39 0b 98 1c 3d ac 91 49 3c
       0.017736256 0.00042926354 0.038230937 0.012302797
0000e0 12 fc 33 3d b4 c3 08 bd 8b 09 58 3b 78 50 18 3d
       0.043941565 -0.033389762 0.0032964672 0.037186116
0000f0 ee b2 90 3d 7f ad 28 3d 00 45 02 bd ca 14 3f 3d
       0.07065378 0.041181084 -0.031804085 0.046650685
000100 14 d1 64 bc 00 73 47 bc 6f 18 44 bd 07 30 df bb
       -0.013965864 -0.012173414 -0.047874864 -0.006811145
000110 4a 05 2f 3d 03 38 41 3c 8b 11 0a bd d2 60 9d 3c
       0.042729653 0.011793139 -0.033708137 0.019211207
000120 93 18 c5 bc a7 0d 4b 3d 16 4a 5f bd 6a 99 ba bc
       -0.02405957 0.049573567 -0.054514013 -0.022778232
000130 cf 58 70 bd 6a 8b d2 bc 66 ae 74 3c 56 e8 5d 3d
       -0.058678444 -0.025701243 0.014934158 0.05417665
000140 4b ef e6 3b a8 64 3a 3d 4f 23 1a 3b 78 39 ea 3c
       0.007047569 0.04550615 0.002351958 0.028591856
000150 f7 11 11 3d 8b 8c 23 3d 13 07 1b bd dd 56 2e 3d
       0.035417523 0.039928954 -0.037848543 0.042563308
000160 bc 4d db 3c 59 f9 01 bd 7a 08 ab bc a0 c4 2c bd
       0.026770465 -0.031731937 -0.020878065 -0.042179704
000170 1a 6f 86 3c 24 ba 22 bd c3 a3 fd 3c ad 15 a8 3c
       0.0164104 -0.0397283 0.030961877 0.020518148
000180 57 ff 30 bd bc de b3 3c 74 e0 36 bb e7 84 a4 3c
       -0.04321226 0.021956794 -0.002790478 0.020082904
000190 fd de ef 3c 90 6a 77 bd 79 aa 41 3d 78 b4 38 3d
       0.029281134 -0.06040436 0.047281716 0.045093983
0001a0 20 b7 ad 3c c1 50 74 bd 56 bc c9 bc 1d ac 99 bc
       0.021205485 -0.059647325 -0.024625938 -0.018758828
0001b0 13 6a bd bc ec 8f e0 3c cc 86 93 3c 1a 65 1e 3d
       -0.02312187 0.027412377 0.018008612 0.038670637
0001c0 df c7 df bc 02 a2 89 3c e9 c3 56 3c bb c1 5c bd
       -0.027316986 0.016800884 0.013108232 -0.053895693
0001d0 75 32 73 bd af cb 14 bd 22 b6 14 3d cb 76 6a bd
       -0.05937429 -0.03632706 0.036306508 -0.057242196
0001e0 7b a7 67 bd b8 99 f0 3c c4 2a f3 3c 00 76 2f 3d
       -0.056556206 0.029370174 0.029683478 0.042837143
0001f0 88 a3 41 bd 68 07 36 bd e4 ce ac 3c 94 21 2f 3d
       -0.047275096 -0.044440657 0.021094747 0.042756632
000200 4c e3 0e 3d c5 b0 67 ba d8 bd 38 3c 86 da 61 3d
       0.034884736 -0.00088382914 0.011275731 0.05514004
000210 6e b2 4d bd 06 b3 12 bd 56 32 23 3d 14 49 3b bd
       -0.050218992 -0.03581526 0.039842926 -0.04572399
000220 c3 c2 13 bd d7 aa 24 3d 89 80 5b 3c 0b 19 81 3c
       -0.03607441 0.040201988 0.013397344 0.015759012
000230 43 cb dc bc 59 cc af bb 3a 52 51 3d 06 74 16 bd
       -0.026952391 -0.0053649363 0.051103808 -0.036731742
000240 f8 d9 61 3c bd c1 24 3d 25 ae ec bc 07 ca 8e 3d
       0.013784878 0.040223826 -0.028891632 0.069721274
000250 b0 90 8d bc 01 62 3c bb 8f f0 82 bb 9f 58 df bc
       -0.017280906 -0.0028744938 -0.003995962 -0.027263938
000260 95 19 41 bd 29 60 2e 3d 80 26 c8 3c 9f ee 3c bd
       -0.047143538 0.042572174 0.02443242 -0.046126004
000270 a1 1d ea bc 17 8f 88 3d 36 1d fd 3c 49 8d fd 3c
       -0.028578581 0.06667917 0.030897718 0.03095116
000280 df 48 ea bc 4d 87 9b bc f5 9e 8a bc bc 3e 81 bc
       -0.0285992 -0.018985415 -0.0169215 -0.015776984
000290 b2 42 2e bd 3b f2 54 bb 20 14 67 3a 85 9c 1c bc
       -0.042544074 -0.0032493013 0.00088149495 -0.009558802
0002a0 42 28 dc 39 b2 50 e2 bc 2b cc 5d 3c c0 fc 99 3c
       0.00041991664 -0.02762637 0.013537447 0.018797278
0002b0 16 30 07 bd 1d af 78 bd a7 46 e5 3c 3e bc 4d 3c
       -0.033004843 -0.060713876 0.027987791 0.0125570875
0002c0 ec b9 02 bd 4e 78 5c 3d 81 61 e6 bc 3a aa 17 3d
       -0.03191559 0.05382567 -0.028122665 0.037027575
0002d0 a4 86 2d 3d 8f 12 18 bd dd d3 4a 3d 3f b6 29 bd
       0.04236473 -0.037127074 0.049518455 -0.04143357
0002e0 1d bd a9 bc ec ed ec 3a 1c a3 e5 bc 0c 7e 8b 3d
       -0.020720059 0.0018076277 -0.028031878 0.06811151
0002f0 ba 0c 89 ba 98 69 10 3d d8 e3 28 bd 85 8a 32 3d
       -0.0010456063 0.035256952 -0.041232914 0.043589134
000300 a3 b9 d5 bb be 24 0c bd 01 cb 92 3c c1 aa 1b 3d
       -0.0065223738 -0.034214728 0.017919065 0.03800464
000310 6f 63 72 3d f3 a1 e7 bc 8c 7b 02 bd 13 d0 1d 3c
       0.05917686 -0.028275466 -0.031856105 0.009632128
000320 b8 28 69 3c 8b 17 9f 3c 1a de f7 3c 21 dc 7c bc
       0.0142308995 0.019420406 0.030257273 -0.015433342
000330 9e b9 f6 3c 8a 04 2b 3d c5 79 8d bc ab c8 df 3c
       0.030117806 0.041752376 -0.017269978 0.027317366
000340 f9 90 87 3c 1b 8e 31 3d 0f a8 3f bd 3a 7c 25 bd
       0.01654862 0.043348413 -0.046791133 -0.040401675
000350 47 c7 c7 bc 54 06 36 bc d8 45 c2 3c b4 df 24 bd
       -0.024387015 -0.011109907 0.023714945 -0.040252402
000360 97 25 b6 3c 70 04 d0 bc c0 79 07 3d a3 f6 22 bc
       0.022234721 -0.025392741 0.033075094 -0.009946498
000370 3e 4c 64 bd ab 88 0d bd 32 e2 49 bd 06 04 ca 3c
       -0.055736773 -0.034554165 -0.049287982 0.024660122
000380 68 a3 29 bd c6 71 bb 3b 67 7b b8 3c 94 4f b9 bc
       -0.041415602 0.00572035 0.02251978 -0.022620954
000390 7c 68 e3 3c 76 3e 41 bd 01 61 04 bd 25 67 2d bd
       0.027759783 -0.047178708 -0.032319073 -0.042334694
0003a0 97 24 01 bc 79 01 42 bc 14 bd 7c 3b 28 b4 59 bc
       -0.007882259 -0.011841171 0.0038564848 -0.0132875815
0003b0 4c 68 d2 3c b7 b2 4b 3d 4b 7c 9c 3c 55 21 c9 bc
       0.025684498 0.049730983 0.019102236 -0.024552027
0003c0 7d b9 70 bd 54 aa 9c 3c 3f c6 fc bc 37 4a ce 3c
       -0.058770645 0.019124188 -0.03085625 0.025181873
0003d0 5c fc 13 3d d1 38 a5 3c 34 de 4f 3d d6 d4 59 3d
       0.03612934 0.020168694 0.05074902 0.05318149
0003e0 22 72 2c 3c c0 6b 3e bd 16 d8 4d 3d fd f2 f0 bc
       0.010525258 -0.046489477 0.050254904 -0.02941274
0003f0 d3 57 18 bd 3e 31 22 3d ff d3 17 3d 05 bc 18 3c
       -0.03719313 0.039597742 0.03706741 0.009322171

branch3.bias f4 [64]
000000 a2 90 2b bc ed c3 56 bd df 68 61 3d 0b 61 2d 3d
       -0.010471495 -0.052432943 0.055031653 0.042328876
000010 51 87 31 bd 41 1d 66 bd 84 40 52 3d d2 b7 47 3d
       -0.04334194 -0.056180242 0.05133106 0.04875929
000020 d4 d2 58 bd d0 67 49 3c 90 62 19 bd d8 c4 31 bd
       -0.052935436 0.012292817 -0.037447512 -0.043400615
000030 27 16 27 bd 60 42 05 3b fb cf 5d 3d 60 21 e0 3c
       -0.04079261 0.0020333752 0.054153424 0.027359664
000040 ae 13 5e bd cd b9 03 3d c8 e8 5b 3d ef 00 2a 3d
       -0.054217987 0.032159615 0.053688794 0.041504797
000050 17 9d 5e 3d c7 c6 0b bd 5b 2b f0 bc 5c c4 03 3d
       0.05434903 -0.034125116 -0.029317548 0.032169685
000060 b4 f6 3e bd 01 6c 86 bc 71 ac 2d 3d 83 07 9a 3c
       -0.046621993 -0.016408922 0.04240078 0.01880241
000070 79 fb 7b bc e7 7b c1 3c 46 1b e0 bc d2 1f f4 bc
       -0.01537978 0.023618652 -0.027356755 -0.02980033
000080 1b 15 90 3c 24 2b e1 bc 67 6a 28 3d 8d 49 d8 3c
       0.017588189 -0.027486391 0.0411171 0.02640226
000090 9f a9 14 3d 81 18 30 3d 2d d8 f3 3b a6 47 b2 bc
       0.036294576 0.04299212 0.0074415416 -0.02176268
0000a0 54 8c 4a bd 70 77 8a bc 55 6e 49 bd 23 f3 13 3d
       -0.049450234 -0.016902655 -0.049177486 0.036120545
0000b0 f7 2c 96 3b d8 c7 cd bc 15 f2 04 bb 9c cd 2d 3d
       0.004582997 -0.025119707 -0.0020285894 0.042432413
0000c0 ed 5d d0 bc 47 86 3e 3c 7e 92 00 3c 65 c1 02 bc
       -0.025435412 0.011628694 0.007847426 -0.007980679
0000d0 ac bc 5a bc 62 98 b5 3c d1 97 9c bc f4 4a 47 bd
       -0.013350647 0.022167388 -0.01911536 -0.048655465
0000e0 98 99 63 3c d5 18 0c bd 7a ec f7 bc 47 26 ff 3a
       0.0138916 -0.03420337 -0.030264128 0.0019466364
0000f0 17 d7 e7 3c 9c b2 8c bc 22 47 0e bd ff 2e dd 3c
       0.028300805 -0.017175011 -0.034735806 0.026999949

branch5.weight f4 [64, 32, 5, 5]
000000 7d 9c a4 bc 61 e4 f5 3b 20 33 23 3c fc 1f a4 38
       -0.02009415 0.0075040315 0.00996092 7.826087e-05
000010 af 82 e3 bb 65 c2 23 bb 1a e4 98 bc b6 83 bd 3c
       -0.006943069 -0.0024987694 -0.018663455 0.023134094
000020 d3 de f1 ba f2 59 44 bc 7c ef 7d bc dd ac 8e 3c
       -0.0018453248 -0.011984335 -0.015498992 0.017416412
000030 29 25 a3 bc ce 0e 80 3c 53 b8 46 3b b9 25 dd bc
       -0.01991518 0.01563206 0.0030322268 -0.026995527
000040 5c 7e d5 3c 6d ed 84 3c cb 55 8f 3c d2 0d 40 bc
       0.02606123 0.016226495 0.017496964 -0.011722045
000050 fa d4 bc bc bd e2 b7 3c 55 b6 af bc 8f 80 b1 3c
       -0.023050774 0.022446984 -0.021449247 0.021667747
000060 b8 6d 0d 3d aa f8 6e bb 87 5e e6 bc 49 53 d5 3c
       0.034528464 -0.0036464133 -0.028121246 0.02604069
000070 84 be 01 bd ed e2 18 bc b9 63 c3 bc bf 1d 74 3c
       -0.03167583 -0.009331447 -0.023851262 0.01489967
000080 2d 9b 05 3d 75 4a a0 bc cc 3e 8e bc 15 86 fe 3c
       0.03261869 -0.019566754 -0.017363928 0.031069795
000090 11 91 99 3c 3a 90 da 3c 1f b4 b2 bc ff 09 12 3d
       0.01874593 0.0266801 -0.021814404 0.035654064
0000a0 22 32 03 bc 33 fe 7a bc ae fd ed bb 27 c2 d1 3b
       -0.008007558 -0.015319395 -0.007262907 0.0064013186
0000b0 45 5d c4 3c 7f 2e 0c bb f6 22 8c bc 15 ef 47 3c
       0.023970256 -0.0021390019 -0.017106514 0.012202998
0000c0 24 2b e1 bc f2 0b b6 bc 93 4f 99 3b 1b da fe 3c
       -0.027486391 -0.022222493 0.0046786754 0.03110986
0000d0 01 eb 43 bc f6 5b b2 3c 5e 9a 8a bc 29 4b 67 bc
       -0.011957885 0.021772366 -0.016919311 -0.014117041
0000e0 1a f8 fe 3c 94 6f 4b 3c 16 83 42 bc 9f 40 59 bc
       0.031124163 0.012416739 -0.011872074 -0.013260036
0000f0 34 f4 6c 3b 4a 70 9d 3c 24 cc de 3c b1 50 3f 3b
       0.0036156299 0.019218583 0.027196951 0.0029192383
000100 c2 c1 59 bc cf ce 42 3c dd aa e3 bc 10 b3 4c 39
       -0.013290824 0.011890127 -0.027791435 0.00019521662
000110 19 76 ec bc c3 50 a3 bb 1a 8e 0a bc b8 c5 9c 3c
       -0.028864907 -0.004983993 -0.008456731 0.019137248
000120 0e 2f eb 3a 97 b1 e3 bc 0f dc 1b 3c 3f d4 ca bc
       0.00179431 -0.027794642 0.009512915 -0.02475941
000130 9b cc 12 bd f7 41 41 bd 68 46 98 bc ba 66 2c bd
       -0.03583966 -0.04718205 -0.01858826 -0.042090155
000140 d7 d8 d9 bc e7 6e bc bc 12 6d 10 bd b2 a6 22 bd
       -0.026592655 -0.023002101 -0.035260268 -0.039709754
000150 34 3a b3 bc 66 58 ae bc eb f7 46 3c 2b bb 38 bd
       -0.02187834 -0.021282386 0.012144069 -0.045100372
000160 f0 6a 9c 3b 61 31 10 3c af 6a 4e bd 30 8b 2f 3c
       0.00477349 0.008800835 -0.05039471 0.010714337
000170 03 08 9c 3b 89 90 2e bd 9f 22 ab bb 0b 01 8d bb
       0.0047616973 -0.04261831 -0.005222633 -0.004303103
000180 9d 93 86 3b 1c fe 00 bd 77 2b fc bc 9a 25 ad bc
       0.0041069523 -0.031492338 -0.030782444 -0.021136094
000190 7b 99 10 bc eb de 80 3c 0e 98 ce bc f1 7c fd 3c
       -0.008825655 0.015731296 -0.02521899 0.030943366
0001a0 1e e4 0d bc 9b 70 b7 3c e5 be 24 bc 84 c7 85 bb
       -0.008660344 0.022392562 -0.010055278 -0.004082622
0001b0 32 6d fe 3b 9f f9 e0 bc 24 6a a1 3c 45 b1 09 3d
       0.007764482 -0.027462779 0.019703932 0.033616323
0001c0 2d 9c c0 bc 90 5f 84 3c 4b ad e7 bc e0 9a 78 3b
       -0.02351197 0.016158849 -0.028280875 0.003793411
0001d0 25 09 3e bc bb dd d1 bc df b2 9d 3c b2 0f d1 3c
       -0.01159886 -0.025618425 0.019250331 0.02552018
0001e0 f2 78 3f 3c 13 68 93 3c 7a b3 4a bc 6f 7c ea 3c
       0.01168655 0.017993962 -0.012371892 0.028623788
0001f0 78 86 b2 bc 83 c8 38 bc 08 9f 96 bb f0 84 39 bc
       -0.021792635 -0.0112782745 -0.0045965947 -0.011323199
000200 41 1e c8 3c 7f ff cf 3c 48 b8 47 3c c6 2f 30 bc
       0.024428489 0.025390385 0.012189932 -0.010753578
000210 3e 85 9b bc b0 df 5b bc 9c f0 54 bc f0 15 5b bb
       -0.018984433 -0.0134200305 -0.012996819 -0.0033429824
000220 f7 c3 72 3c 31 be c4 3c b0 43 9b 3c 9f f6 cc bc
       0.0148172295 0.024016472 0.018953174 -0.025019942
000230 47 42 a3 3c b1 a0 02 bd 6b 81 26 bb 9e ac 82 3b
       0.019929064 -0.03189153 -0.002540673 0.0039878627
000240 4d 86 ce bb d1 84 93 bc 14 74 a8 bc 7b 06 45 3c
       -0.006302631 -0.018007668 -0.020563163 0.012025471
000250 2e 39 d9 bc 0a 02 05 bb 74 66 42 3c ae 6b c6 3c
       -0.026516523 -0.0020295405 0.011865247 0.024221268
000260 1f 0b 19 bb 0c e5 e6 3c a9 b8 0b bd f5 54 9e bc
       -0.0023352576 0.02818539 -0.034111653 -0.01932762
000270 1d a4 01 bd 6f 0f 8d bb c6 04 ba bc da c5 bc 3c
       -0.03165065 -0.0043048183 -0.022707354 0.023043562
000280 b1 33 83 bc bf 98 9b 3a d3 e7 cd 3c f2 18 0c bd
       -0.01601586 0.0011871083 0.025134956 -0.034203477
000290 0b df 69 3c 4b 82 e7 bc de 47 79 3c f6 9c 35 bc
       0.014274369 -0.02826037 0.015214888 -0.011084786
0002a0 67 fc ef bc f9 72 b1 3b 8b c9 98 3b 8c 40 44 3c
       -0.02929516 0.005415317 0.0046626977 0.01197828
0002b0 ba d6 ae 3c 40 e7 7b bb 27 f6 85 bc 4c b0 e1 3b
       0.021342624 -0.0038437396 -0.016352726 0.0068874713
0002c0 38 ba 07 bd 78 e9 2b 3a 34 d8 83 bb b1 c8 73 bd
       -0.033136576 0.0006557922 -0.004023576 -0.059517566
0002d0 8b 9e e7 bc 39 1f b0 bc 89 99 4a bd ef f7 91 bc
       -0.028273841 -0.021499263 -0.04946283 -0.01781842
0002e0 72 01 31 bd e8 25 28 bd fe c2 e4 ba fe ab 5b bc
       -0.04321427 -0.041051775 -0.0017453132 -0.013407705
0002f0 21 3e 90 3b 20 c8 18 bd 29 c1 13 bd d5 3f 43 bd
       0.0044019376 -0.03730023 -0.036072884 -0.047668297
000300 03 b2 b6 bc ce be 49 b9 4a 1b 07 bd d1 87 05 bd
       -0.02230168 -0.00019239934 -0.03298501 -0.032600228
000310 61 bf b5 bb 7e ef 9f bc 54 90 83 bc cf 01 62 3a
       -0.005546496 -0.019523378 -0.016060032 0.00086214853
000320 6f ee 09 3d d3 41 11 3d de 56 b7 bc 70 49 15 3c
       0.033674654 0.035463165 -0.022380289 0.009111747
000330 5e 81 d2 3c 29 72 06 3d 02 68 97 bc 8c 47 d1 3c
       0.025696453 0.032823715 -0.018482212 0.025546812
000340 00 8b 52 bc 6c eb 87 bc 41 d3 8c bc 36 8d 68 bc
       -0.012850523 -0.01659175 -0.017190577 -0.014193824
000350 57 c8 cc bb bc ac a6 bb a7 99 99 bc 1a 9a 9c 3c
       -0.0062494683 -0.0050865095 -0.018750025 0.01911645
000360 35 2e 88 bc 2d f4 cb 3c 9f 4a fe bc f8 1a 2d 3c
       -0.016623596 0.024896706 -0.031041441 0.010565512
000370 c5 61 ab bc e1 e6 7b bc 2d e6 a1 3b 8b d2 45 ba
       -0.020920644 -0.01537487 0.004940769 -0.0007546327
000380 f3 3f 88 bc 56 d3 88 bc e2 bd d3 bc 4c 7f 86 bc
       -0.016632056 -0.016702335 -0.02584738 -0.016418122
000390 e7 fe 59 3c 4c 13 31 bb bb 7f ab bc dd 7f 86 3c
       0.013305402 -0.0027019558 -0.02093493 0.016418392
0003a0 56 96 93 3b 23 bc 81 3c cd 59 d7 3b 23 8c 30 bc
       0.0045040054 0.01583678 0.0065719844 -0.010775599
0003b0 be a3 9b bc 40 62 8a bc 54 ae 93 3c 9d 86 12 3b
       -0.018998977 -0.016892552 0.018027462 0.0022358068
0003c0 89 70 5c 3c bf 95 25 3c 27 b8 37 bc 4a f4 17 bd
       0.013454565 0.010106503 -0.011213339 -0.037098207
0003d0 d1 d2 22 3b 48 e1 be bc 16 43 12 bc ac 77 e0 bc
       0.0024844895 -0.023300782 -0.008927127 -0.027400814
0003e0 b2 23 05 3c aa 80 4d 3c 79 f3 21 bd 88 36 a2 bc
       0.008126186 0.012542883 -0.039538834 -0.019801393
0003f0 b6 aa 4d bd 7b 5d 70 bc 0d 84 51 bd 2e fc 3c bd
       -0.05021163 -0.014670725 -0.051151324 -0.046138935

branch5.bias f4 [64]
000000 d4 2a 24 bc 09 dd f2 bc 84 29 4c bc f6 f0 99 3b
       -0.010019977 -0.029646413 -0.01246107 0.0046979142
000010 e0 50 f1 3c d7 6e f7 bc c6 0f c0 bb e7 92 d6 3c
       0.02945751 -0.03020422 -0.0058612553 0.026193095
000020 f3 ab 07 3d 25 94 93 3c 3c 5f 6d 3c e3 a0 b5 3b
       0.033122968 0.018014977 0.014488038 0.005542861
000030 bd 63 04 bd 22 ec 11 bc 64 9f 08 bd 3d 2a a8 bc
       -0.03232168 -0.008906396 -0.03335513 -0.020527953
000040 9e af ad bc 87 c8 e0 3c a7 8d d2 3c de 11 a7 3c
       -0.021201905 0.027439369 0.02570231 0.020394262
000050 a9 12 f0 3c 68 4c 5a 3c 12 42 a1 3c 8a 13 06 3c
       0.029305773 0.013323881 0.019684825 0.008183369
000060 72 ac b4 ba 30 e5 57 bc 0c fe 45 3c 64 88 c5 3b
       -0.0013784303 -0.013177201 0.012084495 0.006028222
000070 cd b4 dd 3c 3f b4 d7 bc 29 7a 80 bc c8 d3 7f bc
       0.027063752 -0.026331065 -0.01568325 -0.015614457
000080 2b dc 01 bd 2a 90 3c bc 98 f5 b8 bb 33 31 e5 3c
       -0.03170411 -0.011508981 -0.0056445114 0.027977562
000090 d6 7d 0a bd e8 db f8 3c c1 e5 09 3c 44 21 2a bb
       -0.033811413 0.030378297 0.008416594 -0.002595977
0000a0 7c 82 d0 bc 8d 79 8b bc ac 3e f1 bc f9 d7 85 3c
       -0.025452845 -0.017025733 -0.02944883 0.016338335
0000b0 23 38 7c 3c 97 aa b4 bc f1 78 f6 bc a5 85 28 bb
       0.015394243 -0.022054 -0.030086966 -0.0025714424
0000c0 d8 33 c1 3c 73 16 f4 3b 62 99 d9 bc 76 e2 0a bd
       0.023584291 0.007448965 -0.026562396 -0.033907376
0000d0 c8 29 b0 3c 91 35 76 3c ad e6 fe bc ba 12 ef bc
       0.021504298 0.01502742 -0.031115854 -0.029183734
0000e0 74 41 dd 3b c5 e8 99 38 35 94 9c bc 11 d9 21 3a
       0.0067521874 7.338965e-05 -0.01911364 0.0006174008
0000f0 2f 90 c2 bc 71 58 cb 3c f2 7e f5 3b 71 d0 b9 3c
       -0.023750393 0.024822446 0.0074919397 0.0226824

bn_ms.weight f4 [128]
000000 89 18 80 3f cc b3 7f 3f e1 25 81 3f 12 68 81 3f
       1.0007488 0.99883723 1.0089685 1.0109885
000010 59 5e 80 3f 6b be 81 3f 93 90 82 3f 6c ca 7f 3f
       1.0028793 1.0136236 1.020037 0.99918246
000020 68 21 81 3f d3 be 80 3f 1e d5 81 3f 90 88 81 3f
       1.008832 1.0058235 1.0143163 1.01198
000030 72 2b 81 3f af 7c 82 3f ca de 81 3f 87 8f 81 3f
       1.0091383 1.01943 1.0146115 1.0121926
000040 8e 83 82 3f 63 20 82 3f 87 98 81 3f a2 9a 81 3f
       1.0196397 1.0166134 1.0124673 1.0125315
000050 a3 cb 81 3f 42 bd 82 3f 10 ee 82 3f 78 04 80 3f
       1.014027 1.0214007 1.0228901 1.0001364
000060 2d 12 7f 3f ff 20 82 3f 97 51 81 3f 02 67 83 3f
       0.9963711 1.016632 1.0103024 1.026581
000070 84 f0 82 3f 83 23 81 3f 49 f6 82 3f 09 6b 81 3f
       1.022965 1.0088962 1.023141 1.011079
000080 94 9a 80 3f bd ae 82 3f 95 db 81 3f 7b 81 81 3f
       1.0047174 1.0209576 1.0145136 1.0117639
000090 db 40 82 3f 66 76 82 3f 46 ec 81 3f fe 99 80 3f
       1.0176042 1.0192382 1.015023 1.0046995
0000a0 bb 24 82 3f 77 c3 81 3f ec c7 82 3f ff 33 81 3f
       1.0167459 1.0137776 1.0217261 1.0093993
0000b0 88 42 80 3f 12 fe 80 3f 74 3e 82 3f 0d 8c 82 3f
       1.0020304 1.0077536 1.0175309 1.019899
0000c0 bf 31 82 3f 46 c4 82 3f f6 c3 82 3f b7 3b 80 3f
       1.0171431 1.0216148 1.0216053 1.0018224
0000d0 83 54 82 3f 86 8c 81 3f 99 8c 80 3f 05 d8 7e 3f
       1.0182041 1.0121009 1.0042907 0.9954837
0000e0 5a 40 81 3f 57 3e 81 3f cc cb 80 3f a7 52 82 3f
       1.0097764 1.009715 1.0062194 1.0181473
0000f0 ac 70 81 3f 8c e1 80 3f 42 f1 82 3f 71 f1 80 3f
       1.011251 1.0068831 1.0229876 1.0073682
000100 e4 22 84 3f ec d3 82 3f b2 31 82 3f fb 44 82 3f
       1.0323148 1.0220923 1.0171416 1.0177301
000110 fd 6c 82 3f 28 14 82 3f f2 d4 81 3f 82 8f 83 3f
       1.018951 1.0162401 1.0143111 1.027817
000120 71 ea 81 3f e8 ab 7f 3f bb c4 80 3f de 25 80 3f
       1.0149671 0.99871683 1.0060037 1.0011556
000130 b8 52 82 3f e4 24 82 3f 13 37 82 3f 3e 37 82 3f
       1.0181494 1.0167508 1.0173057 1.0173109
000140 ee ac 81 3f 01 5b 82 3f 23 b9 80 3f 25 f3 81 3f
       1.0130899 1.0184022 1.0056499 1.0152327
000150 d2 61 83 3f 32 81 81 3f 68 5f 82 3f 18 a9 80 3f
       1.0264227 1.0117552 1.0185366 1.0051603
000160 ef 9b 83 3f 4d 77 83 3f 5f d2 81 3f 5f 47 81 3f
       1.0281962 1.0270783 1.0142325 1.0099906
000170 3b 34 82 3f 28 e0 81 3f 2b 6f 83 3f 47 b9 82 3f
       1.017219 1.0146532 1.0268301 1.0212792
000180 63 33 82 3f 9a 7f 83 3f 1c a4 81 3f 2d 96 82 3f
       1.0171932 1.0273316 1.0128207 1.020208
000190 96 06 82 3f 34 09 83 3f 1d d2 83 3f 0b 5d 80 3f
       1.015826 1.0237184 1.0298496 1.0028394
0001a0 d2 18 82 3f d3 4a 81 3f 4f b3 81 3f b3 c8 80 3f
       1.0163825 1.010096 1.0132846 1.0061249
0001b0 16 6e 80 3f 4b 97 81 3f 1c 13 82 3f c9 f6 82 3f
       1.0033596 1.0124296 1.0162082 1.0231563
0001c0 4a d2 81 3f 0c 6a 84 3f 5c 0b 81 3f d6 9f 82 3f
       1.01423 1.0344863 1.0081592 1.0205028
0001d0 00 71 81 3f c4 9b 82 3f c3 f1 82 3f 67 93 81 3f
       1.011261 1.0203786 1.023003 1.0123109
0001e0 1e 6c 84 3f f4 d7 80 3f 94 17 81 3f 08 b8 81 3f
       1.0345495 1.0065904 1.008532 1.0134287
0001f0 6a eb 81 3f cf f2 80 3f 26 b9 82 3f aa f6 81 3f
       1.0149968 1.0074099 1.0212753 1.0153401

bn_ms.bias f4 [128]
000000 62 11 4e ba b2 97 f0 ba 99 65 28 3c 3d 02 bd 3b
       -0.00078608666 -0.0018355756 0.010278129 0.005768089
000010 ae 1f bd bb 3a a4 10 3c 0b d7 53 3c 5f ab b8 ba
       -0.005771599 0.008828217 0.012929688 -0.0014089159
000020 c0 ee ea 3b 5e 2a e4 ba 80 6f 1e 3c 07 94 24 3c
       0.0071695745 -0.0017407646 0.009670138 0.010045058
000030 ba 45 08 3c 45 1d a1 3c 93 f8 15 3c a2 62 85 3b
       0.008317405 0.019667277 0.009153503 0.004070596
000040 ad 64 4b 3c b3 4a bb 3c 6a cb 4f 3c 84 0e 7a 3a
       0.01241414 0.022862768 0.012682775 0.0009538906
000050 08 e2 49 3c c7 39 9c 3c 12 a1 99 3c 38 ff 06 bc
       0.012321956 0.01907052 0.018753562 -0.00823956
000060 fa a7 9d bb 01 18 3d 3c 6f 9f e2 3b 79 cf c9 3c
       -0.004811284 0.0115413675 0.0069159786 0.024635063
000070 79 96 b8 3c 60 21 0c 3c c2 24 c1 3c 1c 24 03 3c
       0.022532688 0.008552879 0.023577098 0.008004215
000080 15 aa 99 3a d6 27 87 3c f5 cf 31 3c 23 5c fc 3b
       0.0011723662 0.016498487 0.0108528035 0.0077014132
000090 2f 0f 99 3c b4 f6 97 3c 33 80 63 3c c1 d9 eb 3b
       0.018683998 0.018550254 0.013885546 0.007197589
0000a0 4a 90 52 3c 2f 33 60 3c cb 88 d6 3c 50 d2 10 3c
       0.012851784 0.013684078 0.026188275 0.008839205
0000b0 72 22 d4 3a af 86 ac 3b f4 0c c3 3b a7 76 72 3c
       0.0016184582 0.005265079 0.005952472 0.014798797
0000c0 e8 2c 6e 3c 82 9b 94 3c 79 1f b4 3c d2 ff 86 bb
       0.014537074 0.018140558 0.021987664 -0.0041198516
0000d0 c9 04 84 3c 3a 50 8a 3c d1 52 7e 39 70 79 c2 bb
       0.016115563 0.016883958 0.00024254179 -0.0059348866
0000e0 1e 57 3e 3c af 1b f3 3b 22 ee 3d b9 23 61 a2 3c
       0.01161745 0.0074190716 -0.00018113156 0.019821709
0000f0 11 94 7f 3c 3d eb 6a 3b 09 78 b8 3c a6 1e 8d 38
       0.015599267 0.003584578 0.022518175 6.729113e-05
000100 88 c0 9b 3c 88 53 7b 3c d6 29 64 3c d7 95 47 3c
       0.019012704 0.01533974 0.01392599 0.012181721
000110 a2 f9 3a 3c 5d 0d 7d 3c e0 a2 20 3c 90 f6 00 3d
       0.011412056 0.015445081 0.009804457 0.03148514
000120 79 fe 6c 3c 9c 2c 87 ba 7b 3f c0 bb 45 02 35 bb
       0.014464968 -0.0010312977 -0.0058669425 -0.002761976
000130 53 56 86 3c 1c e5 9d 3c d5 1f 89 3c 07 ee 89 3c
       0.016398584 0.019274287 0.016738812 0.016837133
000140 87 da 91 3b 06 49 9e 3c d7 fa 5a 3b 5e 3a 18 3c
       0.0044510993 0.01932193 0.0033413672 0.00929126
000150 cf dd b1 3c f7 68 d4 3b 9b f2 7f 3c dd c9 53 3b
       0.021712212 0.0064822393 0.0156218065 0.0032316365
000160 b5 4f fb 3c e7 60 b8 3c c7 1d 8a 3c 78 cb 07 3c
       0.030677656 0.022507144 0.016859902 0.008288257
000170 ec ba 15 3b 1f 67 48 3c 66 cb 88 3c fd c3 c1 3c
       0.002284701 0.012231617 0.01669855 0.023653025
000180 5a 89 d7 3b 88 a8 7d 3c ec 9d 52 3c d5 73 14 3c
       0.006577653 0.0154820755 0.012855034 0.00906082
000190 d3 7a 80 3c 1e bb 9b 3c 72 38 c2 3c 3a 60 b1 3a
       0.015683567 0.019010123 0.023708556 0.0013532706
0001a0 f0 fa 57 3c c4 6f b7 3b 88 59 51 3c d2 7d f6 3b
       0.013182387 0.0055980403 0.012777694 0.007522323
0001b0 75 20 4d ba b0 07 c1 bb 8b ad 60 3c 2b 06 b5 3c
       -0.0007824966 -0.005890809 0.013713251 0.022097668
0001c0 ae 81 8d 3c 8f 36 b1 3c 19 3e cf 3b ec 38 1f 3c
       0.01727375 0.02163246 0.0063245413 0.009718161
0001d0 85 7d 07 3c c6 63 3c 3c 8c 30 ba 3c 17 5b 5f 3c
       0.008269672 0.011498397 0.022728227 0.013632557
0001e0 ad 49 0b 3d e8 b1 d5 ba a6 02 bd 3b 6a 6b 71 3c
       0.03400581 -0.001630363 0.005768138 0.014735082
0001f0 1d 0d c3 3b 24 75 18 b9 6f 1c 96 3c a0 a4 4c 3c
       0.005952491 -0.00014539488 0.018324105 0.0124904215

bn_ms.running_mean f4 [128]
000000 6a f9 86 3d 53 ce 97 bd 52 e6 c0 3c c5 9f 98 3e
       0.06590541 -0.074124 0.023547325 0.29809394
000010 06 2a 8e 3e 4e 67 cd 3d 05 48 a6 3d df 95 d8 bd
       0.27766436 0.100294694 0.081192054 -0.10575461
000020 be a0 05 3e ad e3 87 3e 8c b1 72 3e fa 66 77 3e
       0.130496 0.2654089 0.23700541 0.24160376
000030 eb 86 55 be ae ee 16 be b3 d3 f9 3e e4 47 9d 3e
       -0.20852248 -0.14739487 0.48794326 0.3071891
000040 47 fb 7d 3d 7a 44 35 3d 87 c0 68 be 47 d6 09 3e
       0.062007215 0.044254757 -0.22729693 0.13460647
000050 63 9a 7b 3e 2e 34 79 3e d4 d6 41 3b 2a db b2 3e
       0.24570613 0.24336311 0.002957751 0.34932834
000060 09 90 54 be 00 81 64 3d f9 bc 9a 3e 2f 10 92 be
       -0.2075807 0.055787086 0.302223 -0.28527972
000070 9b 7c 9d be 4e f7 38 3e 30 04 aa bd 67 7e d4 be
       -0.3075913 0.18063089 -0.0830158 -0.41502687
000080 83 e1 a2 3d f8 5c 66 be 53 43 34 bc 4e 41 21 3e
       0.07953169 -0.22496402 -0.0110023795 0.15747568
000090 db 81 80 bd 3a c1 5a be 36 5c b4 bd ac 49 b0 bd
       -0.06274768 -0.21362773 -0.0880665 -0.08607802
0000a0 fd 03 13 bd 7c 42 b2 bd 77 0a a5 be 72 f9 e2 bd
       -0.035892475 -0.08704087 -0.32234547 -0.11082734
0000b0 9a 40 5a be cc 8c 89 be 71 29 c8 3e 57 1c cd 3e
       -0.21313706 -0.26865232 0.39094117 0.40060684
0000c0 ac 17 95 bd 6c ab 5c 3e 33 c4 13 3d ac d6 33 3e
       -0.07279906 0.21549767 0.036075782 0.1756236
0000d0 c5 16 af be 2d 27 4e 3c 28 b9 2e 3e 3e bd 06 bd
       -0.3419706 0.012582582 0.17062819 -0.03289532
0000e0 81 34 55 bd 55 3d 89 3e ed ee bb 3d 14 30 1c be
       -0.052052025 0.26804605 0.09176431 -0.15252715
0000f0 98 79 2f bd 52 f0 c8 bd 7b 89 d9 bc 4a 35 7b 3e
       -0.04284057 -0.098114625 -0.026554814 0.24532047
000100 b3 5c 06 bf d5 1d 82 3e fd 5c a7 be 12 11 fe 3e
       -0.524852 0.25413385 -0.32688132 0.496224
000110 57 b0 c7 3d bf bc 38 bf a4 cc d7 3e 68 78 12 3e
       0.09750431 -0.72163004 0.42148316 0.14303744
000120 9d f0 ac be b5 f0 81 be 27 79 bc 3e b6 15 03 3e
       -0.33777323 -0.25378957 0.36811182 0.12801251
000130 77 96 b8 3d 59 d8 00 bf 94 5e 33 bd 9e 9d 0b 3e
       0.09013074 -0.5033012 -0.04379137 0.13634345
000140 40 c2 cb 3e 7d 56 d5 3d b4 f6 04 3f f5 43 62 3e
       0.39796638 0.10416887 0.5193894 0.22096236
000150 1e 79 b1 be 51 21 c6 be a8 13 a7 bb 32 81 67 bd
       -0.34662718 -0.38697293 -0.0050987788 -0.056519695
000160 2f de 6f 3d 72 5e d8 3e c5 4b 47 bd a2 4a bc 3e
       0.0585615 0.42259556 -0.048656244 0.3677569
000170 68 10 e7 3e ed e5 a1 3e 0f 18 8e 3e fd ed ab 3d
       0.45129704 0.31620732 0.2775273 0.08395002
000180 4f df 84 3e a3 e8 12 3f db 5d 1c be f6 a8 02 bf
       0.2595162 0.57386225 -0.15270178 -0.51039064
000190 8b de 29 ba 5a 15 08 bf 9c 20 cb be 16 d2 28 3d
       -0.000648 -0.5315758 -0.39673316 0.04121598
0001a0 f4 59 1a bf 0c fc 9f be 35 fb 55 be a4 b7 25 be
       -0.6029351 -0.31246984 -0.20896609 -0.16183335
0001b0 32 3d c0 3e a2 26 1b 3f ca 48 34 be a7 56 06 bf
       0.37546688 0.60605824 -0.17605892 -0.5247597
0001c0 18 98 be be d2 c6 f0 be c1 45 37 3e 94 cd 22 3e
       -0.37225413 -0.47026688 0.17897703 0.15898734
0001d0 d2 ba 58 3f d4 d3 bc be b2 03 b5 be dc 2a ab b9
       0.84660065 -0.36880362 -0.35354382 -0.00032647594
0001e0 b7 83 ac 3d ea 44 2a 3f c8 c6 bc 3e 1b 63 2d be
       0.0842356 0.66511405 0.36870408 -0.16932337
0001f0 29 02 b5 3e 1e 03 27 3f c2 aa cf 3e d4 0f b9 3d
       0.3535321 0.6523913 0.40559965 0.09036222
