checkpoints/best_0.5890.pt (torch, 328019 bytes, 22 tensors)

layer1.0.weight f4 [32, 1, 3, 3]
0.09516565 -0.0048663346 -0.19978513 0.52417946 -0.32267627 0.06877525 0.11112553 0.012420865
0.16960959 -0.34544575 0.19677623 -0.07602535 0.11049262 0.024070099 0.040957097 -0.11514267
0.30603263 0.020918502 -0.029481895 0.17125796 -0.037835296 0.040543508 -0.06848546 0.28377113
-0.2772561 -0.17847276 -0.06521837 -0.20249982 0.019428855 -0.3139213 0.32568377 -0.24118198
0.2854484 0.07393944 -0.09011306 0.2058627 -0.085382946 0.21925339 -0.062062565 -0.21740846
0.048811104 -0.18400829 0.02737719 0.2810428 0.080240935 -0.07034559 0.27846617 0.079738066
0.21348812 -0.12308256 -0.31507793 -0.13319325 -0.2070945 0.27541268 0.114272915 0.14191808
0.13841607 -0.04053335 0.18998587 -0.23699316 -0.047135584 -0.2818734 0.05716619 -0.052224193
0.10000255 -0.045103494 0.30829236 -0.21297717 -0.19917648 -0.2402751 0.25055364 0.117808804
0.36089593 -0.22424714 -0.31862763 -0.19784707 -0.15931655 0.15866229 0.15667877 0.3235182
-0.13381357 -0.1570055 0.22004908 -0.0805876 0.21022649 -0.041682404 0.21498951 -0.27609712
-0.16918235 0.10880044 0.042466495 -0.11126102 0.18168652 0.24688716 -0.23251192 -0.16385704
0.30923682 -0.12258481 -0.1277996 -0.15870114 -0.19472958 0.25382644 0.071381114 -0.2852318
0.19346641 -0.027576204 -0.16816081 0.096549496 -0.30809546 -0.17918462 0.40811393 0.02038757
0.11682464 -0.19122855 -0.11206505 -0.021171039 0.18003073 -0.28154966 -0.3304139 -0.24757752
0.049306046 -0.25902987 0.0018740129 -0.022894314 -0.16444062 -0.038070653 -0.1482143 -0.26959452
0.29479033 -0.12917897 0.23715423 0.10420279 -0.27972013 0.22974288 -0.04737928 -0.049107537
-0.29281643 -0.46260825 0.1935412 -0.043999083 0.1428098 -0.09213527 0.33875868 -0.1340075
0.12638426 0.1047171 0.19786097 0.2583682 0.24699894 -0.23625621 0.0044858716 -0.20145886
-0.089772545 -0.2942347 0.28857768 -0.28707615 0.103664115 0.07433331 0.019562474 -0.18924591
0.29799217 -0.013170081 0.10629273 -0.2915722 0.14943226 0.032960363 -0.13697866 0.30516905
0.13105313 -0.15351425 -0.09456297 0.011326062 0.22517024 -0.11367931 -0.18270162 -0.06546543
-0.22373164 0.12003063 0.30576646 -0.23738578 0.10652394 0.20707333 0.15651283 -0.14581794
0.07726532 0.088631295 0.011361763 -0.122202836 -0.15210328 -0.01132418 -0.12142446 -0.15195632
0.22145604 0.23182666 -0.043836556 -0.019250117 0.0026300556 -0.029035483 0.15088654 0.12131322
-0.24120624 -0.066122375 0.27486664 0.127969 -0.0008953245 -0.23214294 -0.2601108 -0.26798293
-0.083867215 0.16584429 0.21709925 0.15917026 -0.25126168 -0.20949009 -0.047623243 0.35115555
0.122237235 0.04058035 0.2014805 -0.07526984 -0.10539102 0.27789134 -0.12627463 -0.016185056
-0.3109915 0.15904793 0.16718899 0.072412685 -0.28706214 -0.3787611 -0.3220499 0.21948001
0.13723102 0.23040688 0.2670072 0.19460315 0.108248845 -0.18229751 -0.1824519 -0.21857922
0.14763913 -0.11002705 -0.04621497 -0.06391224 -0.10118591 -0.30196792 -0.052698392 0.11754338
-0.044613164 0.34286314 -0.044210397 -0.11031272 -0.042313673 -0.19033425 -0.09001106 -0.2782487
00000000: 35e6 c23d c675 9fbb 7994 4cbe a030 063f
00000010: d335 a5be 0ada 8c3d c895 e33d e280 4b3c
00000020: 23ae 2d3e 44de b0be b57f 493e 2eb3 9bbd
00000030: f449 e23d a82e c53c a1c2 273d eccf ebbd
00000040: 4fb0 9c3e 475d ab3c 0484 f1bc 3f5e 2f3e
00000050: 2ff9 1abd f310 263d 1b42 8cbd 734a 913e
00000060: 83f4 8dbe 90c1 36be 3591 85bd 1d5c 4fbe
00000070: 4329 9f3c 4bba a0be 06c0 a63e 69f8 76be
00000080: 4b26 923e 906d 973d 328d b8bd accd 523e
00000090: 41dd aebd f683 603e 5135 7ebd 53a0 5ebe
000000a0: 27ee 473d ab6c 3cbe 2146 e03c d8e4 8f3e
000000b0: 5c55 a43d 5911 90bd 1e93 8e3e b64d a33d
000000c0: a19c 5a3e b612 fcbd e551 a1be d063 08be
000000d0: 9510 54be e402 8d3e eb07 ea3d f952 113e
000000e0: f1bc 0d3e 4c06 26bd a88b 423e 56ae 72be
000000f0: 3e11 41bd b651 90be 1827 6a3d 09e9 55bd
00000100: 23ce cc3d 71be 38bd 7fd8 9d3e b016 5abe
00000110: ebf4 4bbe ad0a 76be 9148 803e be45 f13d
00000120: 5ac7 b83e 0ba1 65be 2923 a3be 6c98 4abe
00000130: e123 23be 5e78 223e 6670 203e 2da4 a53e
00000140: 6d06 09be 0dc6 20be 8c54 613e 1d0b a5bd
00000150: 9d45 573e 2bbb 2abd 3626 5c3e 9a5c 8dbe
00000160: 233e 2dbe c4d2 de3d 59f1 2d3d d1dc e3bd
00000170: 080c 3a3e fdcf 7c3e 9b17 6ebe 24ca 27be
00000180: 4a54 9e3e bf0d fbbd e6dd 02be 8d82 22be
00000190: 3167 47be 8af5 813e 4330 923d e709 92be
000001a0: 0f1c 463e 7ee7 e1bc 5932 2cbe bebb c53d
000001b0: b0be 9dbe 2c7c 37be 4ff4 d03e d503 a73c
000001c0: c241 ef3d 6bd1 43be 5c82 e5bd e36e adbc
000001d0: fa59 383e 4727 90be 032c a9be f684 7dbe
000001e0: 23f5 493d 909f 84be 70a1 f53a db8c bbbc
000001f0: 1f63 28be f9ef 1bbd 7dc5 17be 4b08 8abe
00000200: c2ee 963e 7e47 04be 8fd8 723e 4668 d53d
00000210: 7a37 8fbe b841 6b3e c710 42bd fc24 49bd
00000220: 09ec 95be fdda ecbe aa2f 463e 6238 34bd
00000230: bb3c 123e 6bb1 bcbd c771 ad3e 4339 09be
00000240: e06a 013e eb75 d63d 119c 4a3e d648 843e
00000250: 4aed 7c3e 26ed 71be 38fe 923b 3b4b 4ebe
00000260: abda b7bd eea5 96be 74c0 933e a5fb 92be
00000270: da4d d43d 103c 983d 7b41 a03c aec9 41be
00000280: 6e92 983e 53c7 57bc 01b0 d93d f448 95be
00000290: c504 193e 7201 073d 2244 0cbe 1e3f 9c3e
000002a0: cb32 063e d732 1dbe 3baa c1bd f290 393c
000002b0: 0793 663e b3d0 e8bd 2216 3bbe bd12 86bd
000002c0: e819 65be 9ed2 f53d 6c8d 9c3e 4215 73be
000002d0: 3929 da3d 080b 543e e644 203e 4c51 15be
000002e0: 483d 9e3d 5384 b53d b026 3a3c 7b45 fabd
000002f0: f6c0 1bbe 0e89 39bc 63ad f8bd 709a 1bbe
00000300: 5fc5 623e f863 6d3e f68d 33bd 6cb2 9dbc
00000310: 035d 2c3b d2db edbc 0082 1a3e 1173 f83d
00000320: c5fe 76be 2b6b 87bd 52bb 8c3e 4e0a 033e
00000330: 36b4 6aba e1b6 6dbe 3e2d 85be 0f35 89be
00000340: 93c2 abbd 16d3 293e 444f 5e3e 87fd 223e
00000350: 5fa5 80be 9284 56be 9710 43bd a9ca b33e
00000360: 8457 fa3d 9537 263d e750 4e3e 1327 9abd
00000370: 3fd7 d7bd c647 8e3e 234e 01be 8696 84bc
00000380: 473a 9fbe 76dd 223e 9733 2b3e 1a4d 943d
00000390: cff9 92be faec c1be b9e3 a4be 5ebf 603e
000003a0: 4a86 0c3e c8ef 6b3e 2bb5 883e 0c46 473e
000003b0: 92b1 dd3d 33ac 3abe acd4 3abe 3bd3 5fbe
000003c0: b62e 173e dd55 e1bd e94b 3dbd 6ce4 82bd
000003d0: 8f3a cfbd 8a9b 9abe 45da 57bd 95ba f03d
000003e0: 4bbc 36bd c28b af3e f615 35bd a3eb e1bd
000003f0: 1a51 2dbd fbe6 42be b857 b8bd 9d76 8ebe

layer1.0.bias f4 [32]
0.2770437 -0.03837681 -0.039502855 -0.1395854 -0.29246452 -0.3205409 0.11920089 -0.18953794
-0.21111466 -0.016048802 -0.078342326 -0.10806775 0.009718017 -0.07032232 -0.14301492 -0.15785512
-0.2718037 0.25573453 -0.11152267 0.08352934 -0.110682815 0.037860945 0.30623683 0.17082217
-0.28490198 0.12542553 0.30506718 0.08560467 0.26144385 0.35033444 -0.055097625 0.06281085
00000000: acd8 8d3e 0031 1dbd bfcd 21bd 7aef 0ebe
00000010: e9bd 95be f01d a4be 991f f43d 3c16 42be
00000020: 712e 58be c778 83bc f171 a0bd a052 ddbd
00000030: 5138 1f3c 2605 90bd 8172 12be c6a4 21be
00000040: db29 8bbe a3ef 823e ff65 e4bd 6e11 ab3d
00000050: acad e2bd 1414 1b3d 13cb 9c3e 02ec 2e3e
00000060: acde 91be 8d6f 003e c431 9c3e 8051 af3d
00000070: f8db 853e 095f b33e 0cae 61bd faa2 803d

layer1.1.weight f4 [32]
0.8616062 0.9559202 0.869367 1.0170041 0.94593793 0.9191896 0.9720402 1.131061
0.9539382 0.92653733 1.1058104 0.8043305 0.86641556 0.87007684 1.186289 0.93760026
0.9267505 1.0729138 1.0720332 0.96496314 0.854355 0.9679249 0.82240534 0.977951
0.98765385 1.166232 0.9510442 0.94045645 1.1803899 1.1095 0.8800064 0.98071337
00000000: 3992 5c3f 30b7 743f d68e 5e3f 312d 823f
00000010: fd28 723f 0250 6b3f a0d7 783f 9bc6 903f
00000020: 4b35 743f 8d31 6d3f 328b 8d3f 9be8 4d3f
00000030: 69cd 5d3f 5bbd 5e3f 51d8 973f 9206 703f
00000040: 853f 6d3f 3d55 893f 6238 893f d307 773f
00000050: 02b7 5a3f edc9 773f 2889 523f ff5a 7a3f
00000060: e2d6 7c3f 1747 953f a277 733f c1c1 703f
00000070: 0417 973f 1904 8e3f 1948 613f 0810 7b3f

layer1.1.bias f4 [32]
-0.11002361 0.07391509 -0.07245928 -0.10046502 0.013263747 -0.43146586 0.06711956 -0.28456408
-0.3001059 -0.035004042 0.17933032 -0.12957804 -0.18132517 0.16511165 -0.31159663 0.030964684
-0.038461253 -0.0047659106 -0.056966953 -0.13827084 -0.009059285 0.14174883 -0.14315715 -0.20568784
0.0051301923 0.024782423 -0.12233037 0.0006442065 -0.0005945596 0.0038894704 -0.03879539 -0.05027283
00000000: 0f54 e1bd cb60 973d 8865 94bd 9bc0 cdbd
00000010: 3050 593c 18e9 dcbe fb75 893d 62b2 91be
00000020: 7ba7 99be 6660 0fbd 5ea2 373e 1bb0 04be
00000030: 4ead 39be 0713 293e 9889 9fbe a6a9 fd3c
00000040: 8c89 1dbd 5b2b 9cbb 2e56 69bd df96 0dbe
00000050: 656d 14bc 9b26 113e ca97 12be d59f 52be
00000060: 2c1b a83b 8204 cb3c 5888 fabd f7df 283a
00000070: 38dc 1bba 7ce6 7e3b eae7 1ebd e2ea 4dbd

layer1.1.running_mean f4 [32]
-0.34834838 -0.27132845 0.17781934 -0.23644966 -0.4444241 -0.30892512 0.081653796 -0.22327283
-0.16636327 -0.057583906 -0.09662038 0.19960284 0.13040678 1.6671535 -0.13472658 0.3622057
-0.8213322 0.23855828 -0.173176 0.30365968 -0.40884724 -0.08123707 0.46738973 0.124014966
-0.2898273 0.13951418 0.34632704 0.42493927 0.25290236 0.4135612 -0.24692875 0.34415397
00000000: b85a b2be 90eb 8abe 4616 363e dc1f 72be
00000010: 8e8b e3be 6f2b 9ebe 1b3a a73d a2a1 64be
00000020: 225b 2abe 1add 6bbd e8e0 c5bd b064 4c3e
00000030: 5b89 053e 4965 d53f c4f5 09be 0773 b93e
00000040: d442 52bf 9f48 743e 0d55 31be 4879 9b3e
00000050: 6d54 d1be 9f5f a6bd b54d ef3e 8ffb fd3d
00000060: 3e64 94be cedc 0e3e c751 b13e a491 d93e
00000070: 6b7c 813e 4bbe d33e e4da 7cbe f334 b03e

layer1.1.running_var f4 [32]
2.3878882 0.55805266 0.5247457 0.42967555 0.41437018 0.16181275 0.23584622 0.1053946
0.380898 0.24504955 0.41832423 0.88932437 0.35861477 15.226443 0.4350995 1.9228113
1.9042816 0.40379483 0.32799056 0.6223032 0.7109287 0.23266809 0.4332069 0.19697623
0.35557327 0.44424185 0.33134764 0.9555619 0.5069381 0.40832147 0.5159027 0.8654086
00000000: 29d3 1840 8adc 0e3f bc55 063f 6ffe db3e
00000010: 5428 d43e 3eb2 253e ac81 713e 20d9 d73d
00000020: 1005 c33e 45ee 7a3e 982e d63e c3aa 633f
00000030: 5b9c b73e 839f 7341 5dc5 de3e ae1e f63f
00000040: 80bf f33f 32be ce3e 61ee a73e 434f 1f3f
00000050: 6cff 353f 8b40 6e3e 4bcd dd3e 23b4 493e
00000060: b30d b63e ab73 e33e 66a6 a93e b49f 743f
00000070: b2c6 013f 830f d13e 3312 043f 6b8b 5d3f

layer1.3.fc1.weight f4 [4, 32, 1, 1]
-0.16150315 -0.082250476 0.10838149 0.06283209 -0.15359505 -0.16300642 -0.15146597 -0.20210384
-0.16029724 -0.06923775 0.07567724 0.012872218 -0.15547933 -0.14957641 0.0665612 -0.14434084
-0.064853586 0.052313965 -0.11018025 -0.039239652 -0.05916599 -0.08975629 -0.11011636 -0.18247095
-0.16648132 -0.12472943 0.14248484 -0.108231045 -0.15881252 0.0103242975 0.0074141393 0.07495886
0.14756532 0.1678463 -0.10517375 0.17788139 0.19375245 -0.031193683 -0.09052311 0.23338428
-0.0012213801 -0.045671936 -0.028715625 0.07284549 0.13894357 0.07736283 0.10969618 -0.07598205
-0.16747542 0.20187363 0.36036962 0.2056028 -0.10451478 -0.015098987 -0.0479772 0.018703252
0.06330784 0.18076868 0.20624457 -0.08152237 0.23157454 0.008361673 0.10159382 0.23530206
0.015939776 0.18056083 -0.2674746 -0.069642946 0.10948032 -0.048167534 0.00623062 -0.063881524
0.027838208 0.0796469 0.07938231 -0.5304855 -0.29299235 -0.27475026 0.06084459 -0.32946333
-0.024378527 0.13449593 0.027936237 -0.24413525 -0.011882381 -0.11226958 -0.25487724 -0.116284825
-0.103819676 0.0849629 -0.116668776 -0.31508723 0.12546079 0.092280746 0.14545909 -0.31584898
-0.26489198 0.0059116525 0.0889331 -0.026484208 -0.055684794 0.07135074 -0.07308469 0.17570765
0.34579238 0.14574565 0.09917125 0.042145837 0.13893877 0.25956395 0.27076802 0.19906552
-0.22930232 0.24240284 -0.05339018 0.3279915 -0.19633466 -0.03274561 0.16394362 0.13747267
0.08031544 0.23123538 0.17879753 0.36337018 0.29077014 0.0933342 -0.25102034 0.36875567
00000000: 1561 25be f072 a8bd 1df7 dd3d 1cae 803d
00000010: 0548 1dbe 28eb 26be e519 1bbe 4ff4 4ebe
00000020: f624 24be 85cc 8dbd abfc 9a3d ffe5 523c
00000030: f935 1fbe 8f2a 19be 3d51 883d 16ce 13be
00000040: f5d1 84bd 2b47 563d 2fa6 e1bd c2b9 20bd
00000050: 0a58 72bd 25d2 b7bd b084 e1bd aad9 3abe
00000060: 147a 2abe 2572 ffbd 8ce7 113e 3da8 ddbd
00000070: c09f 22be 3e27 293c 4ff2 f23b 0884 993d
00000080: 5d1b 173e e7df 2b3e 5665 d7bd 8a26 363e
00000090: 0b67 463e e589 ffbc 2e64 b9bd 4afc 6e3e
000000a0: b716 a0ba 7f12 3bbd 083d ebbc 0430 953d
000000b0: 3947 0e3e 6770 9e3d 64a8 e03d 7a9c 9bbd
000000c0: ad7e 2bbe f6b7 4e3e 5e82 b83e 8a89 523e
000000d0: d80b d6bd be61 77bc be83 44bd 9037 993c
000000e0: 8aa7 813d 6d1b 393e c731 533e 33f5 a6bd
000000f0: e021 6d3e 66ff 083c 6c10 d03d 06f3 703e
00000100: 2294 823c f0e4 383e 6ef2 88be f6a0 8ebd
00000110: 3837 e03d 524b 45bd 3b2a cc3b 51d4 82bd
00000120: f40c e43c ea1d a33d 3193 a23d e6cd 07bf
00000130: 1803 96be 11ac 8cbe 2d38 793d 6baf a8be
00000140: 7ab5 c7bc 4db9 093e 89da e43c 97fe 79be
00000150: 51ae 42bc 98ed e5bd 457f 82be bd26 eebd
00000160: 699f d4bd 0701 ae3d 0af0 eebd 1d53 a1be
00000170: cb78 003e b0fd bc3d 3af3 143e f5b6 a1be
00000180: ec9f 87be 89b6 c13b 8f22 b63d 69f5 d8bc
00000190: bd15 64bd 5620 923d 6dad 95bd b5ec 333e
000001a0: b30b b13e 593e 153e 4c1a cb3d 1da1 2c3d
000001b0: f745 0e3e 91e5 843e 1ba2 8a3e d5d7 4b3e
000001c0: 3ace 6abe 7338 783e a9af 5abd 80ee a73e
000001d0: f40b 49be 4320 06bd d6e0 273e a3c5 0c3e
000001e0: 6c7c a43d f8c8 6c3e b316 373e a80b ba3e
000001f0: d3df 943e 0026 bf3d bd85 80be 8bcd bc3e

layer1.3.fc1.bias f4 [4]
0.08861181 -0.1479133 0.11326195 -0.080784164
00000000: 1c7a b53d 9676 17be e2f5 e73d 2b72 a5bd

layer1.3.fc2.weight f4 [32, 4, 1, 1]
-0.36280957 -0.102988385 -0.16679433 0.7259957 -0.08389458 0.5751254 -0.23683172 -0.10014265
-0.004917323 -0.0140865045 0.091487505 -0.58432627 0.20714295 -0.29699484 -0.28812733 -0.3332362
0.52691805 0.4520756 0.21347633 0.5243113 0.36266077 -0.045556504 -0.3519055 0.20619318
-0.2467981 -0.40929487 -0.17321977 0.08883364 0.20925373 -0.30521172 -0.1633606 -0.006052494
-0.29349476 -0.29043645 0.03994891 -0.09181818 0.48312125 0.32180563 0.07808018 0.032473173
0.06841847 -0.21925156 0.20377752 -0.048761465 0.20575963 0.23985277 0.055943377 -0.56563073
-0.12633793 -0.3888733 0.07298991 0.19715932 0.38017923 0.026705269 -0.19771813 -0.5753701
-0.1344854 -0.19730708 0.09284859 -0.4325039 0.14032134 -0.44586256 -0.26418757 -0.5860245
0.41823786 -0.6825749 0.40792307 0.43154505 -0.04387671 0.16924177 0.012190785 0.30987242
0.31227034 -0.7427174 0.43381914 0.09522367 0.08574323 0.075337015 0.042156946 -0.3693541
-0.049790308 0.21042661 0.24105011 0.40993613 -0.41294444 0.09549503 -0.6798877 0.5218082
-0.2694716 -0.07351363 -0.17195351 -0.080907226 0.44781518 -0.055260587 0.11369052 0.3651349
0.43686417 -0.2593243 -0.10901723 0.106984116 -0.084532015 0.32090726 -0.2588171 -0.45435858
0.24632423 0.05286784 0.07771462 0.35002476 0.3233287 0.43639544 -0.08754351 -0.6124796
-0.30502412 -0.35191962 -0.586439 -0.42033845 -0.49880522 -0.6202449 0.05746869 -0.5088929
-0.2678767 -0.007495614 0.4110603 0.21435355 -0.16246206 0.21185714 -0.4227431 -0.3858443
00000000: 2dc2 b9be 93eb d2bd 22cc 2abe dbda 393f
00000010: ecd0 abbd 6b3b 133f 0484 72be 9717 cdbd
00000020: 7f21 a1bb 15cb 66bc cd5d bb3d 6896 15bf
00000030: 481d 543e b50f 98be 6d85 93be ef9d aabe
00000040: 1ae4 063f 7476 e73e 8a99 5a3e 4439 063f
00000050: acae b93e 7599 3abd f52c b4be 4e24 533e
00000060: a4b8 7cbe 198f d1be 8660 31be 69ee b53d
00000070: 9c46 563e b644 9cbe 0048 27be 0054 c6bb
00000080: f244 96be 16b4 94be 78a1 233d 2c0b bcbd
00000090: ab5b f73e b5c3 a43e 80e8 9f3d 9702 053d
000000a0: fc1e 8c3d 7b83 60be 0eab 503e 1aba 47bd
000000b0: a7b2 523e f79b 753e e224 653d 2dcd 10bf
000000c0: bb5e 01be 671a c7be bc7b 953d 22e4 493e
000000d0: daa6 c23e 02c5 da3c 9f76 4abe 744b 13bf
000000e0: 8ab6 09be de0a 4abe 6727 be3d 2771 ddbe
000000f0: 66b0 0f3e 1948 e4be 9843 87be b405 16bf
00000100: 4623 d63e 3bbd 2ebf 4bdb d03e 79f3 dc3e
00000110: 11b8 33bd b74d 2d3e dcbb 473c 99a7 9e3e
00000120: e6e1 9f3e ba22 3ebf 8b1d de3e a104 c33d
00000130: 269a af3d 4b4a 9a3d c3ac 2c3d fb1b bdbe
00000140: ecf0 4bbd 137a 573e d7d5 763e 26e3 d13e
00000150: 746d d3be e692 c33d 1f0d 2ebf 3995 053f
00000160: 2ef8 89be 508e 96bd 9514 30be b0b2 a5bd
00000170: 0848 e53e ed58 62bd 93d6 e83d f6f2 ba3e
00000180: a9ac df3e 28c6 84be 6d44 dfbd 7d1a db3d
00000190: 1f1f adbd f54d a43e ad83 84be b0a1 e8be
000001a0: 6b3c 7c3e f38b 583d d828 9f3d 7236 b33e
000001b0: 578b a53e 396f df3e 034a b3bd 77cb 1cbf
000001c0: 1f2c 9cbe cf2e b4be de20 16bf 9a36 d7be
000001d0: 6663 ffbe 5fc8 1ebf 4a64 6b3d ce46 02bf
000001e0: 2327 89be c49d f5bb 7f76 d23e 7f7f 5b3e
000001f0: 745c 26be 14f1 583e c971 d8be 628d c5be

layer1.3.fc2.bias f4 [32]
0.09264264 -0.48510873 -0.08327955 0.46182984 0.0008143533 0.20000495 -0.29673502 0.1824145
0.0144722415 0.09112471 0.32248273 0.19681145 -0.5116404 -0.15467665 -0.00997472 -0.49419323
-0.14081228 -0.35887957 0.33591098 -0.030888757 -0.4183538 0.21484478 -0.6470386 -0.15670624
-0.08252997 -0.2788657 -0.3407515 -0.22334708 0.47898483 0.57492816 0.1520516 -0.3973954
00000000: 6dbb bd3d 2c60 f8be 788e aabd f674 ec3e
00000010: 537a 553a 19ce 4c3e a7ed 97be deca 3a3e
00000020: fb1c 6d3c 989f ba3d 751c a53e f188 493e
00000030: defa 02bf 8e63 1ebe 026d 23bc e506 fdbe
00000040: 1831 10be 10bf b7be 86fc ab3e 6b0a fdbc
00000050: 7832 d6be 4500 5c3e 52a4 25bf 9a77 20be
00000060: 7905 a9bd 7cc7 8ebe fb76 aebe 19b5 64be
00000070: 803d f53e 7e2e 133f 6ab3 1b3e 6977 cbbe

branch3.weight f4 [64, 32, 3, 3]
0.01689469 0.06991568 0.059102263 0.070670344 0.06216254 0.030667905 0.03363216 0.08109156
0.03675108 -0.038754847 -0.055212792 -0.029469432 0.0132484585 -0.008891835 0.017038194 0.0044769477
-0.04547765 0.011772068 -0.06874346 -0.028501809 0.036429532 0.004521725 -0.023158468 -0.0073079113
-0.07210764 -0.025868282 -0.019817317 -0.011205282 -0.010680262 -0.022096554 0.0731048 0.045479424
0.004374136 -0.05825082 -0.03328651 -0.028643372 -0.031570606 -0.027214684 0.018148823 -0.013058511
0.047031038 0.014856489 0.020263912 0.053622693 0.01590009 -0.057300217 -0.04385318 -0.011476097
-0.04987518 -0.025598245 -0.051838394 -0.011850602 0.006474743 -0.0019884815 0.049564093 0.0061334395
0.026348617 -0.01831751 -0.004449624 0.02863476 0.062348135 0.043120947 -0.007984004 -0.049360566
-0.061706007 -0.08346487 -0.056723524 -0.040498354 -0.033976138 -0.039103944 -0.04166165 -0.018595373
0.0023441496 0.040253207 -0.069276445 -0.0004356242 -0.026525173 -0.04161084 0.036099654 0.036647327
-0.019349799 0.024667865 0.017637374 0.07499918 0.021386372 0.031604264 0.029113447 0.04342971
0.054709688 0.05822883 -0.009919356 -0.06036445 -0.080369346 0.0021439567 -0.006669596 -0.045598235
0.02784963 0.022779454 -0.0330314 0.019424116 0.054694496 -0.010860351 0.039414544 0.061011516
0.04786227 -0.04746406 0.008378804 0.017091695 -0.04647233 0.023311015 0.040578842 -0.005441076
-0.03130231 0.030351287 -0.017750094 -0.041936498 -0.0287207 0.0019714774 0.07110394 -0.007573628
-0.023255993 0.056088366 0.05661172 0.062027846 -0.006380198 -0.005176228 -0.10397062 -0.030051488
0.03488777 -0.08872556 -0.039768863 0.05059055 -0.0991209 -0.060468633 0.044737376 -0.001970589
0.009951809 0.07309482 0.04260233 0.04875601 0.006450608 0.02544143 0.075587384 -0.00392687
0.07226004 0.079612486 0.023879848 0.1117789 0.038035557 0.050429516 0.05862015 0.036868103
0.021417093 -0.011953614 0.013554301 -0.01219491 -0.012584442 0.06183821 0.03827786 -0.023422262
-0.017609648 -0.010344243 -0.02678973 -0.0023822587 -0.020469034 -0.0050935624 0.0034013432 0.0051082373
0.0070579126 -0.010959444 0.015117238 0.018183045 -0.03188689 -0.064309515 0.025250496 0.008967153
-0.040431827 0.055735596 -0.021536715 0.018001227 0.07624835 0.014685169 0.10055513 0.00734495
0.026936987 0.061268587 0.0315069 0.10262287 0.06597328 0.06992067 0.016180225 0.01299305
0.081352435 0.07660706 0.06277008 0.050522882 0.06289327 -0.0075234184 -0.0034737731 0.009669085
0.0008529555 0.023422506 0.0239075 -0.033599555 0.044453595 0.042825438 -0.028218767 0.047147106
0.06178327 0.098227955 0.037653863 0.034392443 0.0777703 0.018136092 0.06729651 0.055530414
0.0019971444 0.0016774073 0.0675606 -0.020944458 -0.024407987 0.0095971245 -0.029267855 0.03535371
0.012439308 0.022161055 0.025887843 -0.0027766498 0.04575861 -0.017387269 -0.0075738933 0.003328163
0.015337354 0.02138896 0.040849242 0.0048083956 0.012780549 0.08498008 0.04153271 -0.0027519634
0.0056152847 0.05046763 -0.0015820579 0.072894044 0.0766462 0.046913844 0.081357084 0.0885717
0.036524154 0.0036441884 0.08460338 -0.0019232763 -0.065176725 -0.012041615 -0.0072774296 -0.021940768
00000000: bc66 8a3c f42f 8f3d 3715 723d 9dbb 903d
00000010: 269e 7e3d 423b fb3c e0c1 093d 5513 a63d
00000020: 4d88 163d 67bd 1ebd cf26 62bd e169 f1bc
00000030: 1010 593c 0faf 11bc af93 8b3c 5cb3 923b
00000040: c646 3abd a2df 403c 5fc9 8cbd a07c e9bc
00000050: 2237 153d fa2a 943b d4b6 bdbc 3477 efbb
00000060: 2cad 93bd b8e9 d3bc ed57 a2bc 5c96 37bc
00000070: 44fc 2ebc d503 b5bc f8b7 953d a248 3a3d
00000080: ea54 8f3b 6998 6ebd 6f57 08bd 81a5 eabc
00000090: 2e50 01bd 54f1 debc d7ac 943c 5df3 55bc
000000a0: 9ea3 403d a268 733c 8100 a63c 78a3 5b3d
000000b0: e840 823c a2b3 6abd 649f 33bd 3d06 3cbc
000000c0: eb49 4cbd 69b3 d1bc 7f54 54bd 0729 42bc
000000d0: 152a d43b 2f51 02bb b803 4b3d 05fb c83b
000000e0: 0ed9 d73c 9a0e 96bc 27ce 91bb 7293 ea3c
000000f0: c260 7f3d 979f 303d 57cf 02bc 4e2e 4abd
00000100: 70bf 7cbd a1ef aabd ed56 68bd 9ae1 25bd
00000110: 902a 0bbd 752b 20bd 68a5 2abd 5355 98bc
00000120: 4ea0 193b 8ce0 243d cfe0 8dbd 7e64 e4b9
00000130: 524b d9bc 2170 2abd 3bdd 133d 821b 163d
00000140: 7883 9ebc 4314 ca3c 417c 903c 2c99 993d
00000150: 7932 af3c 7973 013d 537f ee3c 5ae3 313d
00000160: 4417 603d 5b81 6e3d cb84 22bc b740 77bd
00000170: af98 a4bd a081 0c3b a08c dabb 37c5 3abd
00000180: e824 e43c fa9b ba3c ef4b 07bd 531f 9f3c
00000190: 5607 603d 9def 31bc 2571 213d 36e7 793d
000001a0: 3a0b 443d ad69 42bd 4047 093c e203 8c3c
000001b0: c559 3ebd bef6 be3c 0036 263d 0e4b b2bb
000001c0: da36 00bd 43a3 f83c a568 91bc 9bc5 2bbd
000001d0: ac47 ebbc e733 013b f19e 913d 322c f8bb
000001e0: 5a83 bebc eabc 653d b1e1 673d e910 7e3d
000001f0: fb10 d1bb 599d a9bb 8cee d4bd 8a2e f6bc
00000200: 7ae6 0e3d bfb5 b5bd ade4 22bd 0938 4f3d
00000210: e6ff cabd f5ad 77bd 8a3e 373d ff24 01bb
00000220: ea0c 233c bdb2 953d c87f 2e3d 62b4 473d
00000230: 9f5f d33b 8c6a d03c 8fcd 9a3d f9ac 80bb
00000240: 12fd 933d df0b a33d ac9f c33c 56ec e43d
00000250: 2ccb 1b3d 2e8f 4e3d af1b 703d 0203 173d
00000260: e672 af3c 17d9 43bc dc12 5e3c 29cd 47bc
00000270: fa2e 4ebc 104a 7d3d 3fc9 1c3d 0be0 bfbc
00000280: 1c42 90bc e67a 29bc 2376 dbbc ab1f 1cbb
00000290: adae a7bc e6e7 a6bb 12e9 5e3b 0063 a73b
000002a0: 1046 e73b 3d8f 33bc 4bae 773c 9cf4 943c
000002b0: d49b 02bd b5b4 83bd 21da ce3c f7ea 123c
000002c0: d89b 25bd 024b 643d c46d b0bc 4f77 933c
000002d0: 1828 9c3d 109a 703c d9ef cd3d e8ad f03b
000002e0: f5aa dc3c c5f4 7a3d 610d 013d f02b d23d
000002f0: 001d 873d 9132 8f3d 648c 843c cde0 543c
00000300: 1b9c a63d 2ae4 9c3d 9a8d 803d 15f1 4e3d
00000310: 30ce 803d 0287 f6bb 3ea8 63bb 156b 1e3c
00000320: e098 5f3a 8ee0 bf3c a9d9 c33c b09f 09bd
00000330: f914 363d ba69 2f3d 0b2b e7bc 531d 413d
00000340: 7410 7d3d bd2b c93d f03a 1a3d 17df 0c3d
00000350: 0946 9f3d 2492 943c c1d2 893d dc73 633d
00000360: 86e2 023b 73dc db3a 365d 8a3d b693 abbc
00000370: 42f3 c7bc 423d 1d3c 24c3 efbc 0dcf 103d
00000380: 3dce 4b3c 1a8b b53c be12 d43c 74f8 35bb
00000390: 616d 3b3d bf6f 8ebc 6c2e f8bb 4f1d 5a3b
000003a0: 8649 7b3c e637 af3c 8951 273d bf8f 9d3b
000003b0: 8265 513c 090a ae3d 341e 2a3d 495a 34bb
000003c0: 6c00 b83b 25b7 4e3d 0e5d cfba 7949 953d
000003d0: aff8 9c3d bb28 403d 8b9e a63d 1465 b53d
000003e0: 5a9a 153d 56d3 6e3b 8944 ad3d 7216 fcba
000003f0: 607b 85bd 324a 45bc 8177 eebb 20bd b3bc

branch3.bias f4 [64]
-0.014580006 -0.054096937 0.0530417 0.039386068 -0.051759742 -0.058257293 0.05104241 0.046538334
-0.05717316 -0.0010882348 -0.036083993 -0.04807209 -0.038458344 0.008872071 0.045313828 0.03227466
-0.055841412 0.027626708 0.05491461 0.039331604 0.04955551 -0.03720484 -0.03812907 0.022859432
-0.044843957 -0.019665834 0.040927604 0.01712026 -0.019464979 0.021967689 -0.017210765 -0.020668428
0.018956074 -0.029911648 0.0321649 0.026570598 0.030877106 0.047347553 0.008539288 -0.02229249
-0.045310672 -0.024042066 -0.048808347 0.048990868 0.002234029 -0.030463059 -0.010322825 0.04021113
-0.016237477 0.016942013 0.009047397 -0.0078725135 -0.0059959814 0.02080142 -0.020264631 -0.050081532
0.018623514 -0.03318996 -0.03185014 -0.0020577211 0.011247679 -0.014549962 -0.03409034 0.022198264
00000000: fae0 6ebc c094 5dbd 4142 593d 4953 213d
00000010: 0602 54bd 339f 6ebd d911 513d fb9e 3e3d
00000020: 672e 6abd 1aa3 8eba cfcc 13bd 3de7 44bd
00000030: 7f86 1dbd 2a5c 113c fe9a 393d 6f32 043d
00000040: f7b9 64bd 6851 e23c 24ee 603d 2d1a 213d
00000050: b8fa 4a3d 1a64 18bd 3a2d 1cbd b443 bb3c
00000060: 4cae 37bd 3e1a a1bc b4a3 273d ca3f 8c3c
00000070: 0575 9fbc 95f5 b33c 97fd 8cbc d650 a9bc
00000080: c549 9b3c 4609 f5bc 58bf 033d 95aa d93c
00000090: fcf1 fc3c 82ef 413d 5fe8 0b3c bd9e b6bc
000000a0: af97 39bd def3 c4bc 43eb 47bd a6aa 483d
000000b0: c968 123b aa8d f9bc 1121 29bc 6db4 243d
000000c0: 7504 85bc fac9 8a3c 893b 143c b7fb 00bc
000000d0: f079 c4bb bd67 aa3c 0302 a6bc 4b22 4dbd
000000e0: 5790 983c 32f2 07bd 4b75 02bd d5da 06bb
000000f0: 2f48 383c f762 6ebc 50a2 0bbd 22d9 b53c

branch5.weight f4 [64, 32, 5, 5]
0.013300171 0.03755977 0.03637929 0.024895698 0.011671724 0.028051406 0.0122341225 0.043789115
0.0184241 0.0027640301 0.012861692 0.039052576 0.0013112265 0.026115045 0.00828082 0.00821769
0.051715754 0.036875434 0.03163914 -0.002302149 0.022539612 0.05898721 0.013108121 0.043637753
0.044697713 0.022080641 3.376513e-05 0.038442522 -0.022893826 0.00031640712 -0.001114308 0.028968943
0.039908294 -0.017766505 -0.014202265 0.03229472 0.022287156 0.02525179 -0.028541157 0.023593573
0.011035371 0.0040050824 0.008704243 0.0066460515 0.020497464 0.027388008 0.009857504 0.029699018
-0.017796485 -0.0128457965 0.0068169804 0.03772799 0.0034931374 0.036558684 -0.007050207 -0.013820018
0.032061588 0.020204604 0.0045767073 -0.004370046 0.0057838364 0.02463516 0.035131358 0.020704204
0.00083745207 0.014488315 -0.011627758 0.01642193 -0.002414825 0.009918053 -0.008767545 0.024630278
0.012947724 -0.008245952 0.014444576 -0.008374474 -0.00016472905 -0.019042939 -0.009756745 -0.039145403
-0.003218257 -0.005903086 -0.017550938 -0.028023407 -0.030593738 -0.027998583 -0.000765361 -0.03941112
-0.017398112 -0.030177139 0.014619179 0.056381237 0.038659487 0.008155433 0.004657601 0.04137036
0.049531646 0.015347715 0.011753364 -0.005085516 0.03752707 0.054236196 0.01572533 0.047238518
0.0151399635 0.05726275 0.028873093 0.032567397 0.030873112 -0.0006754432 0.034842134 0.0452053
-0.0031845318 0.015365934 -0.024801394 0.01854736 0.0024390148 -0.011175676 0.011077808 0.009666452
0.03262535 0.03262183 0.007189863 0.025538078 -0.020690974 -0.0466865 -0.031394843 -0.036308587
-0.007795686 -0.009344561 -0.028936077 -0.033957046 -0.03594213 -0.027065923 -0.03163149 -0.03698212
-0.02011751 -0.013610688 -0.007614687 -0.046047032 -0.037504118 -0.061320588 -0.037029125 -0.02428854
-0.034210242 -0.06608217 -0.059787665 -0.03506715 -0.052611444 -0.03779062 0.0045150947 0.023502268
0.009762836 0.037262473 -0.014124335 -0.021018364 -0.01874993 0.00867028 0.00047588343 0.034970034
-0.014875245 2.6833644e-05 0.020944336 -0.014573748 0.02036456 -0.03868655 0.0027008017 -0.015139383
-0.021529112 0.008587013 -0.026243987 -0.013692987 0.0005572301 -0.012655221 -0.026083475 -0.022936063
-0.03132088 -0.009624785 0.0013075884 -0.020753797 -0.028563732 -0.019507915 -0.020790834 6.539107e-05
-0.023102585 -0.0609811 -0.038098585 -0.038560238 -0.025888586 -0.053787053 -0.07936405 -0.079751626
-0.0462639 -0.033538945 -0.064052604 -0.055614233 -0.049523808 -0.045141116 -0.034910813 -0.044068858
0.018084561 0.017331246 -0.020059483 -0.0032242842 0.0066985292 0.015281671 -0.022126075 0.014402836
-0.020643745 -0.021801768 -0.04635533 -0.04066375 -0.0312219 -0.037895385 -0.04997565 -0.012013446
-0.044927813 -0.014296766 -0.059903257 -0.03255257 -0.045617744 -0.039417516 -0.02387482 -0.034214333
-0.04665721 -0.0014412561 0.021466348 0.019040339 0.046259977 0.013716565 -0.0036595385 0.025661493
0.016020395 0.031016732 0.012473423 0.004851045 0.006329009 -0.00016648766 0.034728505 0.019392215
0.0014939941 0.021377472 0.0014335362 0.0028805737 0.008354963 -0.052135162 -0.028461637 -0.048954595
-0.013701073 -0.029729815 -0.0639473 -0.041939232 -0.058768082 -0.06895344 -0.08111273 -0.055668093
00000000: f6e8 593c 46d8 193d 7302 153d 10f2 cb3c
00000010: c23a 3f3c 10cc e53c a171 483c 375c 333d
00000020: 23ee 963c bb24 353b d9b9 523c 98f5 1f3d
00000030: 76dd ab3a 38ef d53c 47ac 073c 7da3 063c
00000040: e6d3 533d b20a 173d 0b98 013d a7df 16bb
00000050: fea4 b83c 939c 713d 72c3 563c 80bd 323d
00000060: f314 373d 76e2 b43c 089f 0d38 e875 1d3d
00000070: d58b bbbc 72e3 a539 f90d 92ba 4750 ed3c
00000080: e176 233d 108b 91bc 9eb0 68bc 7847 043d
00000090: 8e93 b63c d8dc ce3c 25cf e9bc 4f47 c13c
000000a0: b3cd 343c 113d 833b 3e9c 0e3c 1fc7 d93b
000000b0: 4cea a73c d15c e03c 5e81 213c 5b4b f33c
000000c0: efc9 91bc 2d77 52bc fa60 df3b aa88 1a3d
000000d0: 1fed 643b 8fbe 153d 6c05 e7bb 5b6d 62bc
000000e0: 0353 033d 2084 a53c 34f8 953b 9a32 8fbb
000000f0: 5686 bd3b adcf c93c e6e5 0f3d dd9b a93c
00000100: 7588 5b3a 6660 6d3c 5a82 3ebc 4987 863c
00000110: 0a42 1ebb 547f 223c c0a5 0fbc 70c5 c93c
00000120: b122 543c 081a 07bc f1a8 6c3c 1735 09bc
00000130: 1ebb 2cb9 f0ff 9bbc c1da 1fbc ee56 20bd
00000140: 65e9 52bb ad6e c1bb fcc6 8fbc 5891 e5bc
00000150: b89f fabc 495d e5bc 82a2 48ba 8e6d 21bd
00000160: 7c86 8ebc 0c36 f7bc 4885 6f3c 03f0 663d
00000170: 6959 1e3d 5e9e 053c ca9e 983b f773 293d
00000180: b2e1 4a3d fb74 7b3c 2e91 403c 66a4 a6bb
00000190: fcb5 193d c626 5e3d 68d2 803c 2d7d 413d
000001a0: 9c0d 783c 588c 6a3d 4487 ec3c 6465 053d
000001b0: 9ce9 fc3c 3a10 31ba a0b6 0e3d 3129 393d
000001c0: 94b3 50bb 66c1 7b3c 4b2c cbbc a2f0 973c
000001d0: e1d7 1f3b 2f1a 37bc b27f 353c 0a60 1e3c
000001e0: 29a2 053d 789e 053d f198 eb3b 3b35 d13c
000001f0: 1e80 a9bc 583a 3fbd e197 00bd 50b8 14bd
00000200: f472 ffbb ee19 19bc 5a0b edbc 8b16 0bbd
00000210: 0e38 13bd 5bb9 ddbc 0590 01bd 907a 17bd
00000220: 7acd a4bc 5dff 5ebc a084 f9bb d09b 3cbd
00000230: eb9d 19bd 4c2b 7bbd daab 17bd c3f8 c6bc
00000240: 0a20 0cbd 1756 87bd e9e3 74bd 92a2 0fbd
00000250: 197f 57bd 56ca 1abd 5cf3 933b d487 c03c
00000260: 4df4 1f3c 89a0 183d c169 67bc b42e acbc
00000270: 7499 99bc ca0d 0e3c fe7f f939 bd3c 0f3d
00000280: 4db7 73bc d018 e137 7593 ab3c bbc6 6ebc
00000290: 94d3 a63c ca75 1ebd efff 303b 2d0b 78bc
000002a0: d25d b0bc 8bb0 0c3c a1fd d6bc 8d58 60bc
000002b0: 1413 123a d857 4fbc 03ad d5bc 69e4 bbbc
000002c0: 534a 00bd 46b1 1dbc 6363 ab3a de03 aabc
000002d0: 7dfe e9bc 10cf 9fbc 8a51 aabc 9022 8938
000002e0: a241 bdbc 51c7 79bd 430d 1cbd 57f1 1dbd
000002f0: 4d14 d4bc d04f 5cbd 9e89 a2bd d254 a3bd
00000300: 377f 3dbd 2260 09bd 032e 83bd c0cb 63bd
00000310: 7ad9 4abd e4e5 38bd a4fe 0ebd 8c81 34bd
00000320: 1326 943c 42fa 8d3c c953 a4bc 834e 53bb
00000330: 567f db3b f95f 7a3c be41 b5bc dff9 6b3c
00000340: 121d a9bc 9f99 b2bc 16df 3dbd 088f 26bd
00000350: 12c5 ffbc 3138 1bbd 44b3 4cbd 0bd4 44bc
00000360: 3a06 38bd fc3c 6abc 1e5d 75bd d855 05bd
00000370: acd9 3abd 4374 21bd 2095 c3bc 5424 0cbd
00000380: a11b 3fbd 88e8 bcba 32da af3c 7cfa 9b3c
00000390: 1a7b 3d3d 72bb 603c ded4 6fbb 0d38 d23c
000003a0: 343d 833c cd16 fe3c 545d 4c3c 84f5 9e3b
000003b0: 9363 cf3b 3193 2eb9 7a3f 0e3d 6cdc 9e3c
000003c0: 20d2 c33a cf1f af3c 7ee5 bb3a 02c8 3c3b
000003d0: 41e3 083c ae8b 55bd 6128 e9bc 9d84 48bd
000003e0: 777a 60bc f18b f3bc cdf6 82bd 79c8 2bbd
000003f0: cdb6 70bd 7637 8dbd 6e1e a6bd 3a04 64bd

branch5.bias f4 [64]
-0.011811987 -0.012034458 -0.0056837806 -6.9172806e-05 0.0325122 -0.025296643 -0.004603627 0.03134093
0.03275736 0.017039936 0.010290986 0.007910558 -0.03039707 -0.0035546047 -0.025734995 -0.014761173
-0.022114068 0.03716963 0.021722235 0.020231055 0.03067846 0.022049576 0.018259251 0.004372484
-0.0021240138 -0.015614168 0.011649244 0.0077005276 0.022210155 -0.031712525 -0.015827762 -0.01593467
-0.033892408 -0.007306404 0.0011943404 0.0296254 -0.034315806 0.03429718 0.014738949 -0.002842594
-0.025991257 -0.013166041 -0.037391704 0.016581848 0.010828145 -0.024969077 -0.028499026 0.002765068
0.023639381 0.007842166 -0.028592534 -0.0371631 0.013336784 0.013018827 -0.027690027 -0.032296494
0.0066447095 -0.013708742 -0.020554347 -0.0027452454 -0.028672243 0.021327244 0.008816619 0.028744187
00000000: 1087 41bc 2d2c 45bc 023f babb de10 91b8
00000010: 832b 053d e83a cfbc 06da 96bb 595f 003d
00000020: 952c 063d 5697 8b3c 869b 283c 499b 013c
00000030: 4703 f9bc 5ff4 68bb 32d2 d2bc d9d8 71bc
00000040: 9028 b5bc 2f3f 183d d4f2 b13c 99bb a53c
00000050: 6551 fb3c 50a1 b43c 6d94 953c 0e47 8f3b
00000060: 0a33 0bbb 91d2 7fbc 79dc 3e3c b554 fc3b
00000070: 12f2 b53c fee4 01bd 39a9 81bc 6d89 82bc
00000080: c4d2 0abd 8f6a efbb 6a8b 9c3a f8b0 f23c
00000090: bb8e 0cbd 337b 0c3d a27b 713c d04a 3abb
000000a0: 9eeb d4bc 61b6 57bc 0b28 19bd a8d6 873c
000000b0: 8868 313c f38b ccbc ca76 e9bc 2536 353b
000000c0: 60a7 c13c 6e7c 003c e43a eabc 5638 18bd
000000d0: 8782 5a3c eb4c 553c 32d6 e2bc 5449 04bd
000000e0: ddbb d93b a29a 60bc 9761 a8bc 93e9 33bb
000000f0: 0de2 eabc 79b6 ae3c 9573 103c ee78 eb3c

bn_ms.weight f4 [128]
1.1220986 1.0523189 1.059529 1.102723 1.1057003 1.1218004 1.1430622 1.0707121
1.0955609 1.1264772 1.1039267 1.1370078 1.0656053 1.1054268 1.0879872 1.1435697
1.1666104 1.0530766 1.1225215 1.1646068 1.125374 1.1187956 1.1520259 1.124399
1.0562898 1.1150836 1.1296304 1.1070956 1.0982858 1.113612 1.1247648 1.1066613
1.1115313 1.1460235 1.0712785 1.1518153 1.1208316 1.0890167 1.0625159 1.0754882
1.0652543 1.1049695 1.109655 1.086014 1.0431901 1.0794456 1.1354907 1.1370282
1.1394751 1.0926824 1.1414528 1.1102487 1.0904752 1.1042604 1.1174527 1.1242881
1.0491652 1.0594507 1.1047611 1.0543116 1.0740641 1.0708354 1.0748767 1.1064086
1.1536131 1.1769301 1.1783094 1.1868253 1.2181361 1.1378359 1.1903117 1.1506021
1.1190732 1.088703 1.2261733 1.1431304 1.1872915 1.1713514 1.1813407 1.1782726
1.2434145 1.2101064 1.173418 1.2875725 1.1534165 1.1240348 1.2158146 1.1160831
1.2052302 1.1970568 1.126733 1.1704019 1.2002113 1.1482114 1.1956584 1.1218388
1.2792698 1.1686497 1.1334187 1.1197172 1.191954 1.1694256 1.1592625 1.3086152
1.1249137 1.122491 1.1678799 1.1003973 1.1581329 1.1641964 1.1803434 1.1639119
1.1150234 1.1358774 1.1775982 1.2257702 1.1533611 1.1494132 1.1588539 1.1294583
1.1775246 1.1711515 1.1968524 1.096227 1.1851348 1.1279718 1.1530579 1.1787901
00000000: eda0 8f3f 63b2 863f a59e 873f 0726 8d3f
00000010: 9687 8d3f 2897 8f3f dd4f 923f 180d 893f
00000020: 573b 8c3f 6830 903f 784d 8d3f 7989 913f
00000030: c165 883f a07e 8d3f 2a43 8b3f 7e60 923f
00000040: 7d53 953f 37cb 863f c9ae 8f3f d611 953f
00000050: 410c 903f b234 8f3f 9675 933f 4eec 8f3f
00000060: 8134 873f 0fbb 8e3f bb97 903f 4fb5 8d3f
00000070: a194 8c3f d78a 8e3f 4bf8 8f3f 14a7 8d3f
00000080: a846 8e3f e6b0 923f a71f 893f af6e 933f
00000090: 6977 8f3f e664 8b3f 8500 883f 99a9 893f
000000a0: 415a 883f a46f 8d3f 2d09 8e3f 8202 8b3f
000000b0: 4187 853f 462b 8a3f c257 913f 248a 913f
000000c0: 52da 913f 04dd 8b3f 201b 923f a11c 8e3f
000000d0: b194 8b3f 6858 8d3f b108 8f3f ace8 8f3f
000000e0: 0c4b 863f 159c 873f d068 8d3f aff3 863f
000000f0: ef7a 893f 2211 893f 8f95 893f cc9e 8d3f
00000100: 98a9 933f a5a5 963f d8d2 963f e4e9 973f
00000110: e2eb 9b3f 9ba4 913f 225c 983f ee46 933f
00000120: ca3d 8f3f 9f5a 8b3f 3ff3 9c3f 1952 923f
00000130: 2bf9 973f d8ee 953f 2c36 973f a3d1 963f
00000140: 3528 9f3f c4e4 9a3f 9032 963f 2dcf a43f
00000150: 27a3 933f 5fe0 8f3f d09f 9b3f d0db 8e3f
00000160: fc44 9a3f 2839 993f c938 903f bbcf 953f
00000170: 86a0 993f 97f8 923f 560b 993f 6a98 8f3f
00000180: 1dbf a33f 5096 953f dd13 913f e552 8f3f
00000190: f391 983f bdaf 953f b762 943f b480 a73f
000001a0: 2cfd 8f3f c9ad 8f3f 177d 953f d2d9 8c3f
000001b0: b33d 943f 6304 953f 7e15 973f 11fb 943f
000001c0: 16b9 8e3f 6e64 913f 8abb 963f 0ae6 9c3f
000001d0: 56a1 933f f91f 933f 5355 943f 1792 903f
000001e0: 20b9 963f 4be8 953f 7632 993f 2b51 8c3f
000001f0: 7fb2 973f 6161 903f 6797 933f 98e2 963f

bn_ms.bias f4 [128]
-0.009800732 -0.0026340464 0.044941653 0.049326766 -0.026429731 0.036277458 0.075229324 -0.012525749
0.00031406467 -0.06323179 -0.04262939 -0.0031256678 0.010639227 0.08947427 -0.060838066 0.030673534
0.06797657 0.049829807 0.051871687 0.06360229 -0.010271194 0.054834895 0.061213546 -0.09805781
0.0014467051 0.03632972 0.019591067 0.09764979 0.036405858 -0.003401429 0.077416174 0.037846413
0.008690409 0.08902647 0.07656567 0.014595408 0.039997466 0.05753605 0.01816572 -0.00323318
0.00096545334 -0.0009919896 0.052355472 0.036456775 -0.019192629 0.0214677 -0.079040654 -0.08006695
0.08035162 0.050437465 0.060908824 -0.0033283446 0.08386389 0.033083253 -0.11463301 -0.011560946
0.04381219 -0.055950973 -0.056080755 -0.013677627 0.058034215 -0.023841172 0.044218488 -0.075111404
0.07827394 0.08721512 0.107510254 -0.013317391 0.10807546 0.09172289 0.08481963 0.10057448
0.053419884 0.028356694 -0.07197975 0.015723916 0.10458609 0.102039024 0.096670896 0.055040203
-0.047020674 0.029523281 -0.066709965 -0.1055396 0.05846409 0.0281206 0.08812436 0.028670829
0.0824445 0.08318522 0.03355587 -0.010390744 -0.07530872 -0.049118713 0.034070555 0.034756757
-0.057363372 0.07699137 0.06635887 0.03927119 0.019189542 0.058398638 0.073764004 -0.12517494
0.047131598 0.05177074 0.07416804 0.034374088 0.014073078 -0.113487445 0.07842688 0.08640303
0.057090417 0.043226 0.01232816 0.064775296 -0.11162218 0.0630494 0.06942325 0.067786425
0.08512143 -0.09237754 -0.11571822 0.019432418 -0.0010124927 -0.08346474 0.07791395 0.086473785
00000000: 4093 20bc f79f 2cbb bd14 383d dd0a 4a3d
00000010: 2a83 d8bc ac97 143d d511 9a3d cd38 4dbc
00000020: 0ca9 a439 ab7f 81bd 289c 2ebd 01d8 4cbb
00000030: 2750 2e3c 493e b73d 5631 79bd 1047 fb3c
00000040: 4d37 8b3d 571a 4c3d 6877 543d eb41 823d
00000050: 8348 28bc 8e9a 603d 0ebb 7a3d 88d2 c8bd
00000060: 5e9f bd3a 79ce 143d 727d a03c 9dfc c73d
00000070: 4f1e 153d 82ea 5ebb 5f8c 9e3d d704 1b3d
00000080: 3862 0e3c 8353 b63d 76ce 9c3d 9421 6f3c
00000090: 62d4 233d ecaa 6b3d 47d0 943c c2e3 53bb
000000a0: 7a16 7d3a a605 82ba b172 563d b353 153d
000000b0: dc39 9dbc 08dd af3c 11e0 a1bd 24fa a3bd
000000c0: 648f a43d 8497 4e3d 887b 793d 5b20 5abb
000000d0: d5c0 ab3d 4e82 073d b6c4 eabd 1f6a 3dbc
000000e0: 6974 333d d92c 65bd efb4 65bd 2018 60bc
000000f0: 49b5 6d3d 904e c3bc 721e 353d 02d4 99bd
00000100: 164e a03d d79d b23d 562e dc3d 3031 5abc
00000110: ab56 dd3d 36d9 bb3d eab5 ad3d fef9 cd3d
00000120: cfce 5a3d 4c4c e83c 1f6a 93bd 71cf 803c
00000130: 3b31 d63d d6f9 d03d 64fb c53d d671 613d
00000140: c098 40bd cfda f13c 3c9f 88bd 2525 d8bd
00000150: 0b78 6f3d 2c5d e63c 8b7a b43d 16df ea3c
00000160: a9d8 a83d 035d aa3d e171 093d f03d 2abc
00000170: 753b 9abd b430 49bd 918d 0b3d 1a5d 0e3d
00000180: dbf5 6abd a7ad 9d3d 29e7 873d d4da 203d
00000190: 6333 9d3c 6933 6f3d 9511 973d dc2d 00be
000001a0: 100d 413d 8e0d 543d 6ae5 973d d8cb 0c3d
000001b0: c492 663c 1b6c e8bd 469e a03d 12f4 b03d
000001c0: a4d7 693d bf0d 313d 0dfc 493c e9a8 843d
000001d0: 2b9a e4bd 0b20 813d c72d 8e3d 9cd3 8a3d
000001e0: 2554 ae3d 7030 bdbd adfd ecbd bc30 9f3c
000001f0: 9eb5 84ba 90ef aabd 5991 9f3d 2b19 b13d

bn_ms.running_mean f4 [128]
0.43303886 -0.060405873 -0.58170617 0.0941385 0.43135217 0.1783152 0.26406986 -0.25119078
0.2090156 0.6763034 0.6065666 0.36100468 -0.44244877 -0.19803207 0.9618554 0.2682725
0.04394044 0.13591352 0.18166797 0.050056797 0.24348035 -0.07035506 0.04093281 0.6020607
0.0016133351 0.16723242 0.39327383 -0.39478883 -0.29402032 0.30160627 0.025682796 -0.8094459
-0.3894099 -0.045291945 -0.081198566 0.5486416 -0.08009776 -0.28247648 -0.048862632 -0.22814351
-0.22855647 -0.15925823 -0.28283584 0.08377154 -0.2637683 -0.054949 0.7124274 0.8445177
-0.04190727 0.0024415466 0.08611105 0.05183861 -0.46429995 -0.53805333 0.84241205 0.2137747
-0.23527154 -0.2489794 0.9458936 -0.15251318 -0.41976926 -0.23999631 0.007255669 0.9153892
-0.44559103 0.17341508 -0.013257122 0.6664304 0.28961268 -1.8494428 0.06767731 0.12207375
-2.0887387 -0.38424078 0.021889595 0.47233123 0.035801794 -2.327385 0.05064345 0.459376
-0.23446855 0.14344512 0.7751026 -0.09265895 -0.8600542 -0.5516239 0.0153176235 0.40643486
0.47625205 0.2384164 -0.050047062 0.5377051 -0.05805804 1.0289294 0.36261106 0.00018875283
-0.116727434 0.05479216 -0.7095259 -0.8195475 -0.10557363 -0.39395216 -0.6622877 -0.15457419
-0.09355948 -0.72064215 0.3822971 -1.1793463 0.6795514 0.7463749 -0.088982314 -0.18953627
-0.27645755 -0.55938536 0.9774567 0.14995657 1.7399273 -0.38524854 -0.1601942 -0.439881
0.33008432 1.0110486 -0.30323276 0.20249248 0.5252477 1.091722 0.14667495 -0.6348542
00000000: 45b7 dd3e 266c 77bd b2ea 14bf b0cb c03d
00000010: 31da dc3e 4398 363e 2a34 873e 149c 80be
00000020: 2f08 563e 3822 2d3f f347 1b3f 9bd5 b83e
00000030: a588 e2be ebc8 4abe 283c 763f 035b 893e
00000040: e4fa 333d ea2c 0b3e 2b07 3a3e 5b08 4d3d
00000050: ea52 793e 5016 90bd 2aa9 273d a620 1a3f
00000060: 8b76 d33a fa3e 2b3e 305b c93e c321 cabe
00000070: d589 96be 236c 9a3e ba64 d23c d937 4fbf
00000080: bc60 c7be 0c84 39bd 6f4b a6bd c773 0c3f
00000090: 4b0a a4bd c2a0 90be 2f24 48bd 749e 69be
000000a0: b50a 6abe 9714 23be dccf 90be 6a90 ab3d
000000b0: a30c 87be 3412 61bd a461 363f 5032 583f
000000c0: f5a6 2bbd 5b02 203b fd5a b03d b954 543d
000000d0: b9b8 edbe ddbd 09bf 51a8 573f c1e7 5a3e
000000e0: 06eb 70be 75f4 7ebe 1526 723f 6a2c 1cbe
000000f0: ffeb d6be 98c1 75be f7c0 ed3b f256 6a3f
00000100: 8224 e4be b993 313e 6634 59bc 2f9b 2a3f
00000110: 1d48 943e 8bba ecbf 679a 8a3d cd01 fa3d
00000120: e5ad 05c0 35bb c4be cf51 b33c 66d5 f13e
00000130: e7a4 123d e0f3 14c0 826f 4f3d 5533 eb3e
00000140: 8618 70be 47e3 123e 206d 463f fac3 bdbd
00000150: 832c 5cbf 3937 0dbf c5f6 7a3c 3b18 d03e
00000160: 4fd7 f33e 6e23 743e 26fe 4cbd 0ba7 093f
00000170: 44ce 6dbd f5b3 833f 28a8 b93e f4eb 4539
00000180: cb0e efbd be6d 603d 7da3 35bf ddcd 51bf
00000190: fd36 d8bd 19b4 c9be b08b 29bf b248 1ebe
000001a0: 1d9c bfbd 017c 38bf 72bc c33e d2f4 96bf
000001b0: 15f7 2d3f 6d12 3f3f 5c3c b6bd cc15 42be
000001c0: d88b 8dbe e133 0fbf 9a3a 7a3f 378e 193e
000001d0: f0b5 de3f 4c3f c5be f309 24be 1538 e1be
000001e0: d000 a93e 0a6a 813f 5341 9bbe 305a 4f3e
000001f0: a276 063f 8cbd 8b3f f531 163e ce85 22bf

bn_ms.running_var f4 [128]
0.17929262 0.24087724 0.30994728 0.14612219 0.1936241 0.17907305 0.14753187 0.213005
0.17231159 0.28469393 0.1472806 0.26695272 0.19159518 0.2329747 0.3888191 0.16967571
0.12973645 0.14977942 0.16701199 0.15478371 0.16257676 0.14048022 0.13460939 0.15852311
0.23498446 0.12652983 0.109645166 0.39353946 0.14959726 0.13650395 0.14569798 0.25858134
0.27237013 0.12695502 0.14338139 0.17081222 0.0773183 0.31012803 0.15098147 0.18478842
0.14940296 0.10515375 0.14541626 0.122716606 0.18258196 0.22179817 0.29655132 0.33212227
0.11609791 0.12109309 0.14418247 0.112968594 0.27123576 0.36485165 0.31028262 0.19441989
0.17601798 0.26420313 0.48207575 0.18749778 0.1057517 0.2219759 0.22942609 0.43389815
0.71546584 0.4339032 0.49388024 0.39526677 0.3186807 1.0174817 0.36113042 0.35100517
1.3136448 0.41081545 0.6410165 0.35912374 0.37309068 1.7881168 0.33240402 0.52396125
0.5354772 0.26283872 0.41681623 0.82402796 0.8775299 0.47209585 0.4837971 0.7138027
0.4717945 0.34823072 0.307482 0.33514634 0.58696896 0.6698761 0.31701618 0.48213276
0.6389116 0.3523011 0.34300748 1.0125558 0.2706745 0.6304323 0.7719287 0.84481007
0.44156367 0.3982131 0.37663868 1.1734 0.47160965 0.4118265 0.43284804 0.38727275
0.5239315 1.0708343 0.8144338 0.3757627 1.0681614 0.7551311 0.5952002 0.5002355
0.42179954 0.54535306 0.6642119 0.3972058 0.3873501 0.47767457 0.5125 0.35360876
00000000: 7c98 373e 86a8 763e 69b1 9e3e 0ea1 153e
00000010: 6545 463e ed5e 373e 9812 173e fc1d 5a3e
00000020: 7372 303e 67c3 913e bad0 163e 07ae 883e
00000030: 8731 443e eb90 6e3e 4c13 c73e 78bf 2d3e
00000040: a2d9 043e c75f 193e 3105 2b3e 9f7f 1e3e
00000050: 867a 263e 0cda 0f3e 0bd7 093e e253 223e
00000060: c49f 703e 0991 013e a58d e03d 017e c93e
00000070: 0630 193e b1c7 0b3e da31 153e c664 843e
00000080: 1974 8b3e 7f00 023e 92d2 123e 66e9 2e3e
00000090: 0f59 9e3d 1ac9 9e3e e39a 1a3e 2d39 3d3e
000000a0: 17fd 183e d95a d73d 00e8 143e d852 fb3d
000000b0: c4f6 3a3e 0f1f 633e 93d5 973e ee0b aa3e
000000c0: bec4 ed3d a7ff f73d 92a4 133e 145c e73d
000000d0: 6adf 8a3e d6cd ba3e 5ddd 9e3e 0216 473e
000000e0: 0f3e 343e a245 873e a2d2 f63e 6bff 3f3e
000000f0: 5994 d83d a64d 633e acee 6a3e e627 de3e
00000100: c528 373f 8f28 de3e dfdd fc3e 6860 ca3e
00000110: 1e2a a33e d73c 823f 16e6 b83e f3b6 b33e
00000120: 8325 a83f 6756 d23e a819 243f 11df b73e
00000130: be05 bf3e 03e1 e43f dc30 aa3e 5322 063f
00000140: 0915 093f cc92 863e f068 d53e 7ff3 523f
00000150: cda5 603f 8cb6 f13e 41b4 f73e c6bb 363f
00000160: 0c8f f13e 4c4b b23e 486e 9d3e 4d98 ab3e
00000170: 9943 163f 007d 2b3f f24f a23e 1bda f63e
00000180: b68f 233f cf60 b43e ad9e af3e 6e9b 813f
00000190: d995 8a3e 0364 213f 1f9d 453f 7945 583f
000001a0: a214 e23e 96e2 cb3e c9d6 c03e f931 963f
000001b0: d276 f13e ecda d23e 429e dd3e 9d48 c63e
000001c0: 6020 063f 1911 893f bc7e 503f f863 c03e
000001d0: 83b9 883f 4650 413f 0a5f 183f 6f0f 003f
000001e0: 1cf6 d73e 429c 0b3f cb09 2a3f 8f5e cb3e
000001f0: c152 c63e c391 f43e 3333 033f 350c b53e
