checkpoints/best_0.4970.pt (torch, 328019 bytes, 22 tensors)

layer1.0.weight f4 [32, 1, 3, 3]
0	0x3dbbfe53	0.09179368
1	0x3c5c834b	0.013459037
2	0xbe44c944	-0.19217402
3	0x3f06e970	0.5269995
4	0xbe909510	-0.28238726
5	0x3dba2e6a	0.09090884
6	0x3dce555e	0.10074876
7	0x3d8b0249	0.06787545
8	0x3e59d763	0.2127357
9	0xbeb093d1	-0.34487775
10	0x3e4b2087	0.19836627
11	0xbd9749a7	-0.07387095
12	0x3de567d6	0.11201446
13	0x3c9b5a39	0.01896392
14	0x3d24d7bd	0.040244807
15	0xbdecd017	-0.115631275
16	0x3e99e979	0.30060938
17	0x3c91d37f	0.017801045
18	0xbcfc4f10	-0.030799419
19	0x3e2e1ff1	0.17004372
20	0xbd2c0861	-0.04200018
21	0x3d48869c	0.0489565
22	0xbd8ec2af	-0.06970727
23	0x3e9493fa	0.29019147
24	0xbe881c22	-0.26583964
25	0xbe2d07ce	-0.16897509
26	0xbd6517d9	-0.055930946
27	0xbe4ecb56	-0.20194754
28	0x3cc5ab70	0.0241296
29	0xbea1e02c	-0.31616342
30	0x3ea4c989	0.3218501
31	0xbe7b42d1	-0.24537207
32	0x3e90a8c9	0.28253773
33	0x3d916586	0.07099442
34	0xbdb20192	-0.08691706
35	0x3e591bbc	0.21201986
36	0xbda9a4b9	-0.082833715
37	0x3e648cb5	0.223193
38	0xbd68fdf8	-0.05688283
39	0xbe5e1042	-0.2168589
40	0x3d5b13f1	0.053485814
41	0xbe389fee	-0.18029758
42	0x3cc066d0	0.023486525
43	0x3e8d29c3	0.27570924
44	0x3da41c9b	0.080132686
45	0xbd94aa82	-0.07259084
46	0x3e8b8d26	0.27256125
47	0x3dbc6a29	0.09199936
48	0x3e580409	0.2109529
49	0xbe04892d	-0.12942953
50	0xbea041e3	-0.31300268
51	0xbe038a2a	-0.12845674
52	0xbe518544	-0.20460993
53	0x3e8eb988	0.27875924
54	0x3de31103	0.11087229
55	0x3e0a3afc	0.13499063
56	0x3e0bc060	0.13647604
57	0xbd2ab0dd	-0.041672576
58	0x3e42fecc	0.1904251
59	0xbe76f7e6	-0.24118003
60	0xbd26ddb9	-0.040738795
61	0xbe8da284	-0.27663052
62	0x3d73c6d7	0.0595158
63	0xbd81d750	-0.06339896
64	0x3dd29090	0.10281479
65	0xbd3c2f59	-0.04594359
66	0x3e9af90d	0.30268136
67	0xbe5b31f8	-0.2140578
68	0xbe4dd30a	-0.20100036
69	0xbe6c2aa8	-0.23063147
70	0x3e84cc84	0.25937283
71	0x3de89d6e	0.11358152
72	0x3eb9f598	0.36320186
73	0xbe631914	-0.22177535
74	0xbea2d84c	-0.31805646
75	0xbe4e5998	-0.20151365
76	0xbe28d186	-0.16486177
77	0x3e1d88cb	0.15384214
78	0x3e22c2fd	0.15894695
79	0x3ea2e5c0	0.3181591
80	0xbe10b079	-0.14129819
81	0xbe2356b4	-0.15951043
82	0x3e60d3f5	0.21955855
83	0xbdaf845b	-0.08570167
84	0x3e59fab2	0.21287039
85	0xbd3e050b	-0.046391528
86	0x3e57ed16	0.21086535
87	0xbe8b8d0a	-0.27256042
88	0xbe2e7c2d	-0.17039557
89	0x3ddbb7d9	0.107284255
90	0x3d3db656	0.046316467
91	0xbde4ab55	-0.111654915
92	0x3e3de79f	0.18545388
93	0x3e793632	0.2433708
94	0xbe721be6	-0.23643455
95	0xbe25d1a6	-0.16193256
96	0x3e9c75ee	0.30558723
97	0xbe00982b	-0.12558047
98	0xbdfca416	-0.123359844
99	0xbe3a3312	-0.18183544
100	0xbe3d9a64	-0.18515927
101	0x3e8040cc	0.25049436
102	0x3d746871	0.059669916
103	0xbe901acd	-0.28145447
104	0x3e45d421	0.19319202
105	0xbd0909f4	-0.033456758
106	0xbe15c67f	-0.14626502
107	0x3dbbd244	0.09170964
108	0xbe9ce9d5	-0.3064715
109	0xbe3d20b3	-0.18469505
110	0x3ecd7ead	0.40135708
111	0x3cafb517	0.021448655
112	0x3dee75dc	0.11643574
113	0xbe4dfc7c	-0.20115846
114	0xbde9b72f	-0.114118926
115	0xbcbc5bf7	-0.022993071
116	0x3e3511a3	0.17682509
117	0xbe9299dd	-0.28633013
118	0xbe910df2	-0.28330952
119	0xbe8733e2	-0.2640677
120	0x3bc03c28	0.005866546
121	0xbe8b00da	-0.27149087
122	0xbd7c4c0e	-0.06159597
123	0xbd40df41	-0.04708791
124	0xbe1c4100	-0.1525917
125	0xbd8df67a	-0.06931777
126	0xbe11c27a	-0.14234343
127	0xbe89c652	-0.2690912
128	0x3e95c0b4	0.29248583
129	0xbdf53314	-0.11972633
130	0x3e7ab8c6	0.24484548
131	0x3dceab0c	0.10091218
132	0xbe901183	-0.2813836
133	0x3e6d5e20	0.23180437
134	0xbd618315	-0.05505665
135	0xbd0c696c	-0.034280226
136	0xbe95080d	-0.29107705
137	0xbee19374	-0.4405781
138	0x3e4c2579	0.1993617
139	0xbd45c597	-0.04828414
140	0x3e1bb624	0.152062
141	0xbdcdc85b	-0.100479804
142	0x3eacdab3	0.33760604
143	0xbe08550c	-0.13313693
144	0x3dd4ee21	0.10396982
145	0x3db11715	0.08646981
146	0x3e415640	0.18880558
147	0x3e84e2d8	0.25954318
148	0x3e796521	0.24354984
149	0xbe78636a	-0.24256673
150	0x3b3c5b7d	0.0028741055
151	0xbe55b3c4	-0.20869356
152	0xbdb7f7a6	-0.08982782
153	0xbe95a72f	-0.29229113
154	0x3e9403a8	0.2890904
155	0xbe91f08d	-0.28503838
156	0x3ddcee69	0.10787661
157	0x3d998475	0.07495967
158	0x3cc5cc79	0.024145352
159	0xbe470aa8	-0.19437659
160	0x3e975842	0.29559523
161	0xbc1b96c2	-0.009496393
162	0x3dcdbf09	0.10046203
163	0xbe943032	-0.2894302
164	0x3e1dd261	0.15412284
165	0x3cceeafd	0.025258536
166	0xbe098424	-0.13429314
167	0x3e9eaf74	0.30993235
168	0x3e0659ea	0.13120237
169	0xbe188245	-0.14893444
170	0xbdc2cd8a	-0.0951186
171	0x3c5f10f9	0.013614886
172	0x3e641714	0.22274429
173	0xbddadc57	-0.10686558
174	0xbe320085	-0.1738301
175	0xbd8b5383	-0.06803038
176	0xbe638171	-0.22217347
177	0x3e05f020	0.13079882
178	0x3e9b8508	0.30374932
179	0xbe784034	-0.24243242
180	0x3dcb0afc	0.099142045
181	0x3e4b9f2a	0.19884935
182	0x3e15e3f7	0.14637743
183	0xbe176045	-0.14782818
184	0x3d9f538a	0.07779606
185	0x3dbac353	0.091192864
186	0x3c6a7796	0.014310738
187	0xbdff5156	-0.124666855
188	0xbe1c9667	-0.15291749
189	0xbbe1034e	-0.006866849
190	0xbdf3ce2a	-0.11904557
191	0xbe186d19	-0.14885367
192	0x3e607e45	0.21923168
193	0x3e6cb985	0.23117645
194	0xbd41b42b	-0.047290962
195	0xbcd0b6e7	-0.02547784
196	0x3a334d76	0.00068398507
197	0xbcf28308	-0.029603496
198	0x3e170e60	0.14751577
199	0x3dee42c8	0.11633831
200	0xbe7c5b96	-0.24644312
201	0xbd8bab43	-0.06819775
202	0x3e8cdd8a	0.2751277
203	0x3e05d789	0.13070501
204	0x3c1f77c4	0.009733144
205	0xbe699cb0	-0.22813678
206	0xbe7f8531	-0.24953152
207	0xbe8a04b5	-0.26956716
208	0xbdb0230c	-0.08600435
209	0x3e23e2fa	0.16004553
210	0x3e5fee13	0.21868162
211	0x3e23b2eb	0.1598622
212	0xbe838276	-0.2568547
213	0xbe53d62a	-0.20687166
214	0xbd3f963e	-0.04677414
215	0x3eb2a8e6	0.34894484
216	0x3df73c63	0.12072065
217	0x3d166364	0.03671588
218	0x3e4dddac	0.20104092
219	0xbd9bcd89	-0.07607562
220	0xbdd9c7aa	-0.10633786
221	0x3e90efe1	0.28308013
222	0xbdfee77b	-0.12446495
223	0xbc368bd3	-0.011141735
224	0xbe9c3ad7	-0.3051364
225	0x3e248a1c	0.1606831
226	0x3e2b9b54	0.16758472
227	0x3d85fc7f	0.065423004
228	0xbe9250bd	-0.28577223
229	0xbec34e58	-0.3814571
230	0xbea7111f	-0.3263025
231	0x3e5d8da1	0.21636058
232	0x3e05b5f7	0.13057695
233	0x3e6767ec	0.22598237
234	0x3e849e3c	0.25901973
235	0x3e407d4d	0.18797798
236	0x3dc7a8b6	0.09748976
237	0xbe3eefae	-0.18646118
238	0xbe3e45f8	-0.18581378
239	0xbe675a9a	-0.22593156
240	0x3e1b19af	0.15146516
241	0xbde0cb12	-0.109762326
242	0xbd3fa981	-0.04679251
243	0xbd61a1a6	-0.0550858
244	0xbdba3adc	-0.09093258
245	0xbe8e6774	-0.27813303
246	0xbd4ee5dc	-0.05051218
247	0x3df18da6	0.117945954
248	0xbd41fe55	-0.04736169
249	0x3eb311dd	0.34974566
250	0xbd2a9642	-0.041647203
251	0xbde313c4	-0.11087754
252	0xbd1f8844	-0.038948312
253	0xbe3de24f	-0.18543361
254	0xbdb3d69e	-0.08781169
255	0xbe8e3fc9	-0.2778304

layer1.0.bias f4 [32]
0	0x3e8e06b3	0.27739486
1	0xbd3606e6	-0.044440173
2	0xbd1cc157	-0.03827032
3	0xbe0fcfda	-0.14044133
4	0xbea00586	-0.31254214
5	0xbeae5ce5	-0.34055248
6	0x3e0094d0	0.12556767
7	0xbe2fa3b8	-0.17152297
8	0xbe572199	-0.2100891
9	0xbcce39c8	-0.025174037
10	0xbdb3bef1	-0.087766536
11	0xbdda9350	-0.10672629
12	0x3bf011ea	0.0073263543
13	0xbd905ba5	-0.0704873
14	0xbe030cd3	-0.12797861
15	0xbe21cc3c	-0.15800565
16	0xbe8bb695	-0.27287737
17	0x3e905adf	0.2819433
18	0xbde61508	-0.1123448
19	0x3db39f62	0.08770634
20	0xbde6ac64	-0.1126335
21	0x3cb9ef3d	0.022697086
22	0x3e9d4a34	0.30720675
23	0x3e19e335	0.15028079
24	0xbe9469c5	-0.28986946
25	0x3e098f53	0.1343358
26	0x3e9bfe6e	0.30467552
27	0x3db228f8	0.086992204
28	0x3e79fac3	0.24412064
29	0x3eac3543	0.33634385
30	0xbd43db2e	-0.047816448
31	0x3d87c870	0.06630027

layer1.1.weight f4 [32]
0	0x3f6208fd	0.88294965
1	0x3f7811c1	0.9690209
2	0x3f5c6f0c	0.86106944
3	0x3f818f08	1.0121775
4	0x3f765965	0.96230155
5	0x3f6dc809	0.92883354
6	0x3f7d1a6d	0.9886845
7	0x3f912d5b	1.1341966
8	0x3f768295	0.96293
9	0x3f71a259	0.9438835
10	0x3f8f4ae8	1.1194735
11	0x3f4fe649	0.8121076
12	0x3f63bbe8	0.889586
13	0x3f60e4fb	0.87849396
14	0x3f93c4df	1.1544455
15	0x3f6e5493	0.930978
16	0x3f6cb7ab	0.92467755
17	0x3f8a8af9	1.0823661
18	0x3f8691d5	1.0513254
19	0x3f74d85f	0.95642656
20	0x3f60a75c	0.8775537
21	0x3f7d69f5	0.989898
22	0x3f5a8bfc	0.8536985
23	0x3f7d6dce	0.98995674
24	0x3f80b7f5	1.0056139
25	0x3f8ef786	1.1169288
26	0x3f7995eb	0.9749438
27	0x3f6ed091	0.93287
28	0x3f95a25b	1.1690172
29	0x3f8c821b	1.0977205
30	0x3f6763c4	0.90386605
31	0x3f7963f6	0.97418153

layer1.1.bias f4 [32]
0	0xbd59f8b1	-0.053215686
1	0x3daa57c4	0.08317521
2	0xbd6fc733	-0.05853958
3	0xbdf8da9b	-0.12151071
4	0x3d656d02	0.05601216
5	0xbe929304	-0.2862779
6	0x3c8d27f9	0.017230975
7	0xbe46fbc3	-0.19431977
8	0xbe69938c	-0.22810191
9	0xbda1df8a	-0.07903965
10	0x3dd8ca68	0.10585481
11	0xbddbb9b1	-0.10728777
12	0xbe076834	-0.13223344
13	0x3e0c4cd4	0.13701183
14	0xbe8ad1b8	-0.27113128
15	0x3c6b6405	0.014367108
16	0xbc5e5f47	-0.013572521
17	0x3ca0fc6a	0.01965161
18	0xbd277363	-0.040881526
19	0xbde4898d	-0.11159048
20	0x3d25c4a2	0.040470727
21	0x3dff85dc	0.124767035
22	0xbdba646b	-0.091011845
23	0xbe547ea1	-0.2075143
24	0x3bb6fe04	0.0055844802
25	0x3d3231b2	0.043504424
26	0xbdbe6824	-0.09297207
27	0xbb7527fa	-0.003740786
28	0x3c1a9428	0.009434737
29	0x3bab299d	0.0052234665
30	0x3bf11923	0.007357733
31	0xbcb59d7d	-0.022169823

layer1.1.running_mean f4 [32]
0	0xbf342fe1	-0.7038556
1	0xbe993320	-0.29921818
2	0x3e21f368	0.15815508
3	0xbe7ec0a3	-0.24878173
4	0xbeffcda9	-0.49961594
5	0xbeb199cf	-0.3468766
6	0x3daab217	0.08334749
7	0xbe5dfe09	-0.21678938
8	0xbe09da58	-0.13462198
9	0xbd75c765	-0.06000461
10	0xbde80d6e	-0.113306865
11	0x3e844b61	0.2583876
12	0x3e35a264	0.17737728
13	0x40091fe2	2.142571
14	0xbe0fecd7	-0.14055191
15	0x3ec641d2	0.38722092
16	0xbf4bb116	-0.79567087
17	0x3e83da68	0.25752568
18	0xbe3a7be8	-0.18211329
19	0x3ea094a9	0.3136342
20	0xbed2deb6	-0.4118554
21	0xbdd986ba	-0.106214
22	0x3ef53daa	0.47898608
23	0x3ddab262	0.10678555
24	0xbe9edde1	-0.31028655
25	0x3e414316	0.18873248
26	0x3ed27f37	0.41112682
27	0x3ecf9674	0.40544474
28	0x3e46d74b	0.19418065
29	0x3ec48f33	0.38390502
30	0xbea148c4	-0.31500828
31	0x3e9fef58	0.31237292

layer1.1.running_var f4 [32]
0	0x40c9bc81	6.3042607
1	0x3f40d7b4	0.75329137
2	0x3f212d77	0.6296
3	0x3f0ef636	0.5584444
4	0x3f17877a	0.59191096
5	0x3e4ef7ab	0.20211665
6	0x3e9adc94	0.30246413
7	0x3e0e86fc	0.1391868
8	0x3f0d6efb	0.5524747
9	0x3ea92b76	0.3304097
10	0x3f0ed904	0.5579989
11	0x3fad22a6	1.3526199
12	0x3f127619	0.5721145
13	0x41f07e94	30.061806
14	0x3f186e25	0.5954307
15	0x40246de4	2.5692072
16	0x400ce257	2.2013147
17	0x3efa4f21	0.48888496
18	0x3ec8d8ac	0.39227808
19	0x3f4dd3f0	0.80401516
20	0x3f669f43	0.90086764
21	0x3ea5d5f4	0.32389796
22	0x3f149860	0.58045006
23	0x3e869648	0.2628653
24	0x3ef62a02	0.48078924
25	0x3f2ca474	0.67438436
26	0x3f03803f	0.51367563
27	0x3f91f24f	1.1402072
28	0x3f3592ef	0.7092733
29	0x3efedd2b	0.49778113
30	0x3f597763	0.84947795
31	0x3f809860	1.0046501

layer1.3.fc1.weight f4 [4, 32, 1, 1]
0	0xbe182107	-0.14856349
1	0xbd7f055e	-0.062260978
2	0x3e014234	0.1262291
3	0x3da8c037	0.08239787
4	0xbe0bc739	-0.13650216
5	0xbe153f90	-0.14575028
6	0xbe0ba1a1	-0.13635875
7	0xbe3cb510	-0.18428445
8	0xbe145376	-0.14484963
9	0xbd4dd120	-0.050248265
10	0x3dcd3dcf	0.10021555
11	0x3cea22e8	0.028581098
12	0xbe0d3744	-0.13790613
13	0xbe104901	-0.14090349
14	0x3da2c0c3	0.07946923
15	0xbe062b7b	-0.13102524
16	0xbd46325b	-0.048387866
17	0x3d84cad4	0.06483999
18	0xbdbc4d9e	-0.09194492
19	0xbcc94264	-0.02456779
20	0xbd2ec94d	-0.042672444
21	0xbd8cddd4	-0.06878248
22	0xbdc2a00d	-0.095031835
23	0xbe289d78	-0.1646632
24	0xbe168c4d	-0.14701958
25	0xbdf19fe2	-0.11798073
26	0x3e24e319	0.16102256
27	0xbdbb99bc	-0.09160182
28	0xbe0af1f4	-0.1356886
29	0x3cbdd344	0.023172028
30	0x3cae3c9d	0.021269137
31	0x3dc0ff8e	0.09423743
32	0x3e051c85	0.1299916
33	0x3e0f68f1	0.14004876
34	0xbde1fbee	-0.1103438
35	0x3e016488	0.12636006
36	0x3e23544c	0.15950125
37	0xbc0ca75d	-0.008584824
38	0xbdc52357	-0.09625881
39	0x3e572cf3	0.2101324
40	0xbc5fedc8	-0.013667531
41	0xbd8c598f	-0.068530194
42	0xbdbd816f	-0.09253203
43	0x3d5fc205	0.05462839
44	0x3e0266ce	0.1273453
45	0x3da29189	0.07937915
46	0x3d925135	0.07144395
47	0xbda10dec	-0.078639835
48	0xbe336b5d	-0.17521425
49	0x3dfadedd	0.12249539
50	0x3e8c149f	0.27359483
51	0x3e3f0d8e	0.18657514
52	0xbde557df	-0.11198401
53	0xbca4529b	-0.02005892
54	0xbd8062a8	-0.06268817
55	0xbcb89fe9	-0.022537189
56	0x3d725dd4	0.059171513
57	0x3e22d6a2	0.15902188
58	0x3e4ddedb	0.20104544
59	0xbdb319f0	-0.087451816
60	0x3e592e79	0.21209134
61	0xbd3eb802	-0.046562202
62	0x3d9b8195	0.07593075
63	0x3e69873d	0.22805496
64	0x3c8683f4	0.016420342
65	0x3e359e6a	0.17736211
66	0xbe8242a6	-0.25441474
67	0xbd9ac7db	-0.07557651
68	0x3de2c489	0.11072642
69	0xbd8b1968	-0.06791955
70	0xbc18a03f	-0.009315549
71	0xbd989689	-0.07450587
72	0x3d1f82d3	0.038943123
73	0x3d782c3f	0.06058907
74	0x3da0f6d0	0.07859576
75	0xbebd3acc	-0.3695892
76	0xbe855d94	-0.26047957
77	0xbe3f4889	-0.18680014
78	0x3d8453c8	0.064612925
79	0xbe87b755	-0.2650706
80	0xbcf6c1ca	-0.030121703
81	0x3e0fcd51	0.14043166
82	0x3d12c9a4	0.03583683
83	0xbe2b5c15	-0.16734345
84	0xbc99614c	-0.018723153
85	0xbe00f14f	-0.12592052
86	0xbe7785ff	-0.24172209
87	0xbdf8e7e7	-0.12153607
88	0xbe0361c8	-0.1283027
89	0x3d8b6eae	0.0680822
90	0xbe0526fa	-0.1300315
91	0xbe7e8f1b	-0.24859278
92	0x3de843c5	0.11341051
93	0x3dc1a068	0.09454423
94	0x3e12e1be	0.14343926
95	0xbe8a8efc	-0.27062213
96	0xbe5b891a	-0.21439019
97	0x3d04107c	0.032242283
98	0x3d583f8c	0.052794978
99	0xbd444ec1	-0.047926668
100	0xbcee89dd	-0.029118473
101	0x3d3a04d4	0.04541476
102	0xbdb32cba	-0.08748765
103	0x3e34428e	0.17603514
104	0x3ea0d19c	0.3140992
105	0x3e068b39	0.13139047
106	0x3d9ad27f	0.0755968
107	0x3c2aff33	0.010436821
108	0x3dd4a095	0.10382191
109	0x3e695347	0.22785674
110	0x3e6808cb	0.22659604
111	0x3e26c603	0.16286473
112	0xbe3dd4c6	-0.18538198
113	0x3e53b80c	0.20675677
114	0xbd91ce18	-0.071193874
115	0x3e963602	0.2933808
116	0xbe248606	-0.16066751
117	0xbc2a44ee	-0.010392411
118	0x3e0830fb	0.13299935
119	0x3e0405fa	0.12892905
120	0x3d5f3cfd	0.054501522
121	0x3e66d7ec	0.22543305
122	0x3e1a8ba1	0.15092327
123	0x3ea7374d	0.3265938
124	0x3e87ae87	0.2650034
125	0x3d432fbd	0.04765295
126	0xbe676146	-0.225957
127	0x3ea71a67	0.3263733

layer1.3.fc1.bias f4 [4]
0	0x3de113af	0.109900825
1	0xbe04b564	-0.1295982
2	0x3da43b96	0.080191776
3	0xbdb59c30	-0.08867681

layer1.3.fc2.weight f4 [32, 4, 1, 1]
0	0xbec2a98b	-0.38019976
1	0x3ca55e73	0.020186638
2	0xbd5b7fed	-0.053588796
3	0x3f1e6784	0.618767
4	0xbddc4e98	-0.10757178
5	0x3f11b7d4	0.56921124
6	0xbe14bd44	-0.14525324
7	0xbded3475	-0.11582271
8	0xbcdb488e	-0.026767995
9	0x3cfd4ec6	0.030921351
10	0x3ddd8c0f	0.1081773
11	0xbf0c5835	-0.54822093
12	0x3e3e4300	0.18580246
13	0xbe8c6250	-0.27418756
14	0xbe956c6e	-0.29184288
15	0xbeae0bc0	-0.3399334
16	0x3f018685	0.50595886
17	0x3eeb2001	0.45922855
18	0x3ea293ff	0.31753537
19	0x3ef9cf00	0.4879074
20	0x3ec4b644	0.38420308
21	0xbd6b69ef	-0.057474073
22	0xbeb74d33	-0.35801086
23	0x3e61090c	0.21976107
24	0xbe805e50	-0.25071955
25	0xbeaea3cb	-0.3410934
26	0xbe25b721	-0.1618314
27	0x3ddd7e1d	0.1081507
28	0x3e6f5448	0.23371994
29	0xbe8f2f27	-0.27965662
30	0xbe17d187	-0.14826022
31	0xba585b16	-0.0008253319
32	0xbe8d8a8d	-0.27644768
33	0xbe9ea162	-0.309825
34	0x3d3d2262	0.046175368
35	0xbdb63f74	-0.088988215
36	0x3eef0e58	0.4669063
37	0x3ed267cb	0.41094813
38	0x3d4c4ad9	0.049876068
39	0x3d82de85	0.063900985
40	0x3dbe7aa2	0.09300734
41	0xbe3259d2	-0.17417076
42	0x3e38f9c0	0.18064022
43	0xbc740220	-0.014893085
44	0x3e43df12	0.19128063
45	0x3e915293	0.28383312
46	0xbce912c0	-0.028451324
47	0xbf033dc5	-0.5126613
48	0xbdf1236e	-0.11774336
49	0xbeb02f42	-0.34411055
50	0x3d743e8a	0.059629954
51	0x3e617275	0.22016318
52	0x3ec71315	0.38881746
53	0x3d4d10d6	0.050064884
54	0xbe929203	-0.28627023
55	0xbf098fc7	-0.5373501
56	0xbde58504	-0.11207011
57	0xbe2cb277	-0.16864954
58	0x3d9352ed	0.07193551
59	0xbedf0e9d	-0.43565837
60	0x3e1f82a8	0.15577185
61	0xbee39e46	-0.4445669
62	0xbea645c0	-0.3247509
63	0xbf10318d	-0.5632561
64	0x3ee1f02a	0.44128543
65	0xbf20a742	-0.62755215
66	0x3ed13209	0.40858486
67	0x3ebc2ad6	0.3675143
68	0xbd32b78b	-0.04363207
69	0x3e497585	0.19673736
70	0x3c4f4669	0.012651064
71	0x3ea37e9e	0.3193254
72	0x3eabcf14	0.33556426
73	0xbf2d8b6c	-0.67790866
74	0x3ecf8f2a	0.40538913
75	0x3dccf628	0.10007888
76	0x3dccd88b	0.1000224
77	0x3d591abf	0.053004023
78	0x3d52655a	0.051366188
79	0xbeb60dd5	-0.35557428
80	0xbd26f7aa	-0.040763535
81	0x3e989184	0.2979852
82	0x3e8ff00e	0.28112835
83	0x3eb1354f	0.34610984
84	0xbedefd81	-0.43552783
85	0x3e15ff17	0.1464809
86	0xbf171c88	-0.5902791
87	0x3efc75ba	0.49308568
88	0xbe95b72a	-0.29241306
89	0xbd59268a	-0.05301527
90	0xbe346166	-0.1761528
91	0xbd6fbbd6	-0.058528744
92	0x3ef1dfaa	0.47240955
93	0x394cd2cb	0.00019533483
94	0x3e077057	0.13226448
95	0x3ebf2b54	0.37337744
96	0x3ed4c3b0	0.41555548
97	0xbe42620a	-0.18982711
98	0xbe093eab	-0.13402812
99	0x3e1164fa	0.14198676
100	0xbdd29e4e	-0.102841005
101	0x3ea7ebac	0.3279699
102	0xbe739841	-0.23788549
103	0xbeeb2daa	-0.45933276
104	0x3e65720f	0.22406791
105	0x3dc32e3d	0.095303036
106	0x3db1576a	0.08659251
107	0x3ec54d45	0.38535514
108	0x3eaef5ad	0.3417181
109	0x3ed76376	0.4206807
110	0xbcf295f4	-0.029612519
111	0xbf1a36c0	-0.6023979
112	0xbea94c9b	-0.33066258
113	0xbe9ddffe	-0.30834955
114	0xbf0af4d5	-0.54279834
115	0xbed0648e	-0.40701717
116	0xbefa28a9	-0.48859146
117	0xbf1a47cc	-0.60265803
118	0x3878be74	5.930518e-05
119	0xbf01a4a4	-0.50641847
120	0xbe92af5d	-0.28649417
121	0x3d527900	0.051384926
122	0x3ee1d133	0.4410492
123	0x3e287793	0.16451864
124	0xbe117015	-0.14202912
125	0x3e518911	0.20462443
126	0xbeb99580	-0.36246872
127	0xbec0989c	-0.37616432

layer1.3.fc2.bias f4 [32]
0	0x3e214848	0.1575023
1	0xbeef3f6c	-0.46728075
2	0xbd992ac7	-0.07478862
3	0x3eee1416	0.464997
4	0x3cefb78e	0.02926233
5	0x3e03d17f	0.12872885
6	0xbe92a8e6	-0.28644484
7	0x3e21f6cd	0.15816803
8	0x3bc636da	0.0060490193
9	0x3dbbe2ba	0.09174104
10	0x3ea61fef	0.32446238
11	0x3e723c67	0.23655854
12	0xbef9b1ed	-0.4876856
13	0xbe0c882f	-0.13723825
14	0xbd610cf8	-0.05494401
15	0xbef8bc14	-0.48580992
16	0xbe0836e7	-0.13302194
17	0xbeb24a8d	-0.34822503
18	0x3eb5b826	0.35492057
19	0xbcb05cc9	-0.021528618
20	0xbec73764	-0.38909447
21	0x3e760d11	0.24028422
22	0xbf1e77c6	-0.6190151
23	0xbe1db969	-0.1540276
24	0xbd9a0484	-0.075203925
25	0xbea72a13	-0.32649288
26	0xbea837c8	-0.32855058
27	0xbe5b1408	-0.2139436
28	0x3efc6acf	0.49300238
29	0x3f136380	0.575737
30	0x3e40ecc6	0.18840322
31	0xbec4fcfb	-0.3847426

branch3.weight f4 [64, 32, 3, 3]
0	0x3c32b145	0.010906522
1	0x3d935172	0.07193269
2	0x3d65249d	0.05594312
3	0x3d7a4ed4	0.061110333
4	0x3d62c3ac	0.05536239
5	0x3c81f14a	0.015862126
6	0x3ce6775b	0.028133085
7	0x3da62d7b	0.081141435
8	0x3ce432e1	0.027856292
9	0xbcad0a72	-0.021123145
10	0xbd206b98	-0.03916511
11	0xbc7764b7	-0.015099696
12	0x3c9923d1	0.018693836
13	0xbb864264	-0.00409727
14	0x3cca95db	0.02472966
15	0x3c68ad12	0.014201419
16	0xbd1e8e6d	-0.038710047
17	0x3ccaccb5	0.024755815
18	0xbd5c89e4	-0.05384244
19	0xbcbe50fd	-0.023231978
20	0x3d03617c	0.03207539
21	0x3cbc60db	0.022995403
22	0xbc916ce1	-0.017752113
23	0xbc3be06b	-0.01146708
24	0xbd626885	-0.05527546
25	0xbcb70b28	-0.022344187
26	0xbcd81aed	-0.026380027
27	0x3bb29d59	0.005450886
28	0x3c583840	0.013197005
29	0xbbeae75f	-0.007168695
30	0x3db6710f	0.08908283
31	0x3d837c8a	0.06420238
32	0x3c1fc353	0.009751159
33	0xbd0059d3	-0.031335663
34	0x381be914	3.717195e-05
35	0xbb2235d0	-0.0024751313
36	0xbc9eedeb	-0.019400558
37	0xbc937b0b	-0.018003007
38	0x3d1b789b	0.037956815
39	0xbc557ba5	-0.013029967
40	0x3d6a28ee	0.05716794
41	0x3cbd5a81	0.023114445
42	0x3ca08f18	0.019599482
43	0x3d67efa4	0.056625023
44	0x3c6f1946	0.014593428
45	0xbd49521a	-0.049150564
46	0xbcdf5c8a	-0.027265806
47	0x3c12db13	0.008963364
48	0xbd2cae4b	-0.042158406
49	0xbc5fa74f	-0.013650729
50	0xbd40dd94	-0.047086313
51	0x3bb06cda	0.00538407
52	0x3c6d30eb	0.014476995
53	0x3bf0c4ec	0.0073476937
54	0x3d7afc0c	0.061275527
55	0x3cc569f9	0.024098383
56	0x3d46dd30	0.048550785
57	0xbbc28a29	-0.00593688
58	0x3c492092	0.012275832
59	0x3d4cc967	0.04999676
60	0x3dacb005	0.084320106
61	0x3d7203cd	0.059085656
62	0x3b906278	0.0044062696
63	0xbceeab66	-0.029134464
64	0xbd44cd03	-0.048047077
65	0xbd80d876	-0.06291287
66	0xbd311bc1	-0.04323936
67	0xbcde88c9	-0.027164834
68	0xbc8faf7c	-0.017539732
69	0xbd03a734	-0.03214188
70	0xbd201290	-0.039080203
71	0xbc8b9211	-0.017037423
72	0xbcb64c01	-0.022253038
73	0x3cf0794c	0.029354714
74	0xbd907d9d	-0.07055209
75	0xbcb19694	-0.021678247
76	0xbd2bedf7	-0.041974988
77	0xbd357cc7	-0.04430845
78	0x3c7111e4	0.014713738
79	0x3cfa038f	0.030519275
80	0xbcbe303e	-0.023216363
81	0x3c933b21	0.01797253
82	0x3c807659	0.015681433
83	0x3d7000b7	0.05859443
84	0x3c7b7ab8	0.015349083
85	0x3cec9c11	0.028883012
86	0x3bbccdff	0.0057618613
87	0x3d158e2a	0.03651253
88	0x3d23ccb1	0.03999013
89	0x3ce29aa5	0.02766163
90	0xbd1c2c69	-0.03812829
91	0xbdb64efc	-0.08901784
92	0xbdaf97f7	-0.08573907
93	0xbd0c552e	-0.03426092
94	0xbcb10daa	-0.02161296
95	0xbd607c74	-0.054806188
96	0xbcd61252	-0.026131783
97	0xbc1c95b6	-0.009557178
98	0xbd5ea008	-0.054351836
99	0x3cd608ab	0.02612718
100	0x3d3efdd3	0.046628784
101	0xbcebac1c	-0.028768592
102	0x3d3d534b	0.046222012
103	0x3d6263f8	0.05527112
104	0x3d157c7a	0.036495663
105	0xbd3831b6	-0.044969283
106	0xbb2e0b26	-0.0026556938
107	0x3b4e9616	0.0031522564
108	0xbd2e3851	-0.042534176
109	0x3c9a1e23	0.018813198
110	0x3ca38e36	0.019965272
111	0x3b40f75d	0.0029444315
112	0xbd0b9868	-0.034080893
113	0x3c7dcfae	0.015491409
114	0xbc7a28ff	-0.015268563
115	0xbd47f343	-0.048815977
116	0xbd4847f2	-0.048896737
117	0xbc0809e8	-0.008303143
118	0x3d7706b2	0.06030912
119	0xbcab7df7	-0.020934088
120	0xbd027045	-0.03184535
121	0x3d430aee	0.047617845
122	0x3d47f8fa	0.048821427
123	0x3d67fbb9	0.056636546
124	0xbc98c34e	-0.018647816
125	0xbc841030	-0.016121
126	0xbdcf5bba	-0.10124917
127	0xbd179082	-0.037003048
128	0x3b6c6936	0.0036073453
129	0xbdc73b31	-0.09728087
130	0xbd5974bc	-0.053089842
131	0x3cc5eed0	0.024161726
132	0xbdeef9da	-0.11668749
133	0xbda1dece	-0.07903825
134	0x3c55c576	0.013047567
135	0xbc44c0a5	-0.012008821
136	0x39d21d72	0.0004007626
137	0x3d8fc782	0.07020475
138	0x3d1a1dd4	0.037626103
139	0x3d301023	0.04298414
140	0x3b0c9eb8	0.0021456908
141	0x3ca2f0c2	0.019890193
142	0x3d9440c4	0.072389156
143	0xbc00d746	-0.007863825
144	0x3d764508	0.060124427
145	0x3d8f3f3a	0.069944814
146	0x3c20e57c	0.009820338
147	0x3dd8ced8	0.10586327
148	0x3ccac90f	0.024754075
149	0x3d101036	0.03517171
150	0x3d3a7c29	0.045528565
151	0x3c99b704	0.018764026
152	0xb9009a78	-0.00012264575
153	0xbc45c04a	-0.012069771
154	0x3c4982c3	0.012299242
155	0xbcd01628	-0.02540119
156	0xbcc70c10	-0.024297744
157	0x3d6bf9d9	0.05761132
158	0x3cf3a2e3	0.029740756
159	0xbca4ca8c	-0.020116113
160	0xbcd76e2c	-0.026297651
161	0xbcc8ef04	-0.024528034
162	0xbcba98e9	-0.022777991
163	0xbc2de06e	-0.01061259
164	0xbcd7a8fe	-0.026325699
165	0xbc2096b5	-0.009801556
166	0x3ab179ea	0.0013540362
167	0x3b4d6772	0.0031342176
168	0x39484b7b	0.00019101605
169	0xbc9b6034	-0.018966772
170	0x3c94958e	0.01813772
171	0x3c820135	0.015869716
172	0xbce84165	-0.028351495
173	0xbd668cf1	-0.056286756
174	0x3cc02f93	0.023460185
175	0x3c6957c6	0.014242118
176	0xbcf86fa7	-0.030326677
177	0x3d53d96e	0.05172103
178	0xbc9e96ad	-0.019358957
179	0x3cff570b	0.031169435
180	0x3d92dd11	0.07171071
181	0x3c0689f1	0.008211599
182	0x3dc4e2a6	0.09613542
183	0xbaae445c	-0.0013295519
184	0x3ca23c69	0.019804196
185	0x3d65f447	0.056141164
186	0x3c9d992a	0.019238073
187	0x3dc22fb1	0.09481753
188	0x3d5cfc97	0.053951826
189	0x3d826cf9	0.06368441
190	0xba022b60	-0.000496557
191	0x3c474a7e	0.012163756
192	0x3d9579c1	0.07298613
193	0x3d41b4c4	0.047291532
194	0x3d15405a	0.036438324
195	0x3d6e1a31	0.058130447
196	0x3d8e3037	0.0694279
197	0xbcaaa011	-0.020828279
198	0xbc8f4716	-0.017489951
199	0x3c3029c0	0.0107521415
200	0x3c37bc8d	0.011214388
201	0x3c8bc007	0.01705934
202	0x3cd7c708	0.026340023
203	0xbcb9a520	-0.022661746
204	0x3d228552	0.039677925
205	0x3d39b3dd	0.045337547
206	0xbc9139c1	-0.017727735
207	0x3c486b3e	0.0122326
208	0x3cff00f2	0.03112838
209	0x3d86c299	0.06580085
210	0xbc4919af	-0.01227419
211	0xbbc3b388	-0.0059723295
212	0x3d0abc07	0.033870723
213	0xbc9bde98	-0.01902704
214	0x3d123dc2	0.035703428
215	0x3c035b40	0.008017361
216	0x3c8f72fa	0.01751088
217	0x3be2adda	0.0069176974
218	0x3d8b470f	0.06800663
219	0xbc0eaaa0	-0.008707672
220	0xbc8f5c70	-0.017500132
221	0x3c5457fc	0.01296043
222	0xbcabb5d9	-0.020960735
223	0x3d3c408f	0.045960005
224	0x3c775e89	0.0150982225
225	0x3cc9e78a	0.02464654
226	0x3cf7e3c3	0.030259972
227	0xbb244d44	-0.0025070468
228	0x3d57235c	0.052523956
229	0xbc481d98	-0.012214087
230	0xba9201eb	-0.0011139488
231	0xba2b1f02	-0.0006527753
232	0x3c98366f	0.018580643
233	0x3cd2be0e	0.02572539
234	0x3cb37d1c	0.021910243
235	0xbbb12e0f	-0.005407102
236	0x3c511192	0.012760537
237	0x3d86c0a6	0.065797135
238	0x3cf66d23	0.030081337
239	0xbc2db309	-0.010601767
240	0xbc9969ea	-0.018727262
241	0x3d19c5a6	0.037542008
242	0xbc268ed2	-0.010165887
243	0x3d5d2366	0.053988837
244	0x3d7e3fc4	0.06207253
245	0x3d2a65ef	0.041601118
246	0x3d8a8bdd	0.06764958
247	0x3d9c1c41	0.076225765
248	0x3d029786	0.031882785
249	0xbc985a69	-0.018597798
250	0x3d911758	0.070845306
251	0xbbf3a0fd	-0.007434963
252	0xbd33ac3f	-0.04386544
253	0x3c274b63	0.010210845
254	0x3c65327f	0.01398909
255	0x3b9a00c5	0.0046997988

branch3.bias f4 [64]
0	0xbc2f3a83	-0.010695103
1	0xbd4dd4a7	-0.05025163
2	0x3d594958	0.05304846
3	0x3d25a028	0.04043594
4	0xbd437416	-0.04771813
5	0xbd7ef903	-0.062249195
6	0x3d5afcd5	0.053463776
7	0x3d4add18	0.049527258
8	0xbd67dae4	-0.056605235
9	0x3b46c6bd	0.003033086
10	0xbd1635ea	-0.03667251
11	0xbd37dd9a	-0.04488907
12	0xbd398690	-0.045294344
13	0x3bb27b0a	0.0054467963
14	0x3d537051	0.051620785
15	0x3cd03a05	0.02541829
16	0xbd6097e3	-0.05483235
17	0x3ce17936	0.027523618
18	0x3d6c7582	0.05772925
19	0x3d283fd8	0.04107651
20	0x3d53c445	0.05170085
21	0xbd139e14	-0.036039427
22	0xbd14eff9	-0.03636167
23	0x3cd3cfe1	0.02585596
24	0xbd412b46	-0.04716041
25	0xbc88c736	-0.016696554
26	0x3d2074ff	0.039174076
27	0x3c98935d	0.018624956
28	0xbc9544af	-0.018221227
29	0x3cede0fc	0.029037945
30	0xbcaa3c41	-0.020780684
31	0xbcbf7dac	-0.023375355
32	0x3c92efce	0.017936613
33	0xbcd0e478	-0.025499567
34	0x3d24f899	0.040276144
35	0x3cd935ee	0.026514973
36	0x3d163026	0.03666701
37	0x3d398269	0.045290384
38	0x3c21e40a	0.009881029
39	0xbca4c035	-0.020111183
40	0xbd431421	-0.04762662
41	0xbcb65d71	-0.022261353
42	0xbd3b9535	-0.04579659
43	0x3d22412b	0.03961293
44	0x3b884660	0.00415878
45	0xbccef43c	-0.025262944
46	0xbc0ad12c	-0.008472722
47	0x3d1bf93b	0.03807948
48	0xbc9a3cfc	-0.018827908
49	0x3c9866e5	0.018603751
50	0x3bde2fa5	0.006780582
51	0xbc1178b2	-0.008878874
52	0xbbc32511	-0.0059553464
53	0x3ca1f87b	0.019771805
54	0xbcaeecc2	-0.02135313
55	0xbd4b4d3e	-0.04963421
56	0x3c53744c	0.012906145
57	0xbd0f9fd6	-0.03506454
58	0xbcfd33d0	-0.030908495
59	0x3a96fe50	0.0011519883
60	0x3ce162ac	0.02751287
61	0xbc93d7c4	-0.018047221
62	0xbd11e211	-0.035615984
63	0x3ccde033	0.02513132

branch5.weight f4 [64, 32, 5, 5]
0	0x3b8db6e4	0.004324781
1	0x3cedd2dc	0.02903121
2	0x3ce47097	0.027885718
3	0x3c8e2432	0.017351244
4	0x3bb76e27	0.005597848
5	0x3ca3f486	0.020014059
6	0x3b94af59	0.0045375046
7	0x3d185df8	0.03719899
8	0x3c5128b4	0.012766052
9	0xbaa23ef7	-0.0012378384
10	0x3bbac4f7	0.0056997496
11	0x3d07d5e7	0.033162978
12	0xbba467a3	-0.0050172373
13	0x3cb6bb82	0.022306208
14	0x3bd2ac2b	0.0064292154
15	0xb95a7edd	-0.0002083736
16	0x3d37bb3c	0.044856295
17	0x3cf82198	0.030289456
18	0x3cdf9fdb	0.027297905
19	0xbb9b9d9c	-0.004749013
20	0x3c409f7e	0.011756776
21	0x3d4b5fb2	0.04965181
22	0x3b8cea61	0.004300401
23	0x3d1c8cae	0.0382201
24	0x3d2c867f	0.042120453
25	0x3cb25263	0.0217678
26	0xbb3b743e	-0.0028603221
27	0x3d22bcf2	0.039730974
28	0xbcac175c	-0.021007232
29	0x3abe63c0	0.0014525577
30	0xb92faad8	-0.00016752945
31	0x3cf0e8c5	0.029407868
32	0x3d30016b	0.042970102
33	0xbc62da88	-0.013846047
34	0xbc3715bb	-0.011174615
35	0x3d1ece78	0.038771123
36	0x3ccfe6df	0.025378643
37	0x3cf92dc3	0.030417329
38	0xbcb8efec	-0.022575341
39	0x3cfb23a4	0.030656643
40	0x3c56ead2	0.013117509
41	0x3b87d71f	0.0041455175
42	0x3c2c88cd	0.010530663
43	0x3c3824ef	0.011239274
44	0x3cd3f72d	0.025874699
45	0x3cdafb0a	0.026731033
46	0x3c124096	0.008926531
47	0x3d020a1b	0.03174792
48	0xbc6cadad	-0.014445704
49	0xbc12d954	-0.008962948
50	0x3c23707e	0.009975551
51	0x3d201fa3	0.03909267
52	0x3b33660f	0.0027374064
53	0x3d0ea1ed	0.034822393
54	0xbb9e92e1	-0.0048392867
55	0xbc1efb29	-0.009703436
56	0x3d0d1e05	0.034452457
57	0x3ca99e7d	0.020705456
58	0x3b33af79	0.0027417822
59	0xbb2944a7	-0.0025828274
60	0x3c159ae2	0.009131165
61	0x3cd79d86	0.02632023
62	0x3d11c8a7	0.035591748
63	0x3c95513b	0.01822721
64	0x3adbd622	0.001677219
65	0x3c9a7a02	0.018857006
66	0xbc27ef59	-0.010249936
67	0x3c88ec21	0.016714158
68	0xbb9bc9c7	-0.0047542783
69	0x3c467968	0.012113906
70	0xbb2e294f	-0.0026574915
71	0x3ce3eaee	0.027821984
72	0x3c69ca1f	0.014269381
73	0xbc109ebf	-0.0088269105
74	0x3c9e0eb3	0.019294119
75	0xbc50028d	-0.012695921
76	0xbb311ae1	-0.0027024078
77	0xbcb80290	-0.02246216
78	0xbc3b8eba	-0.011447603
79	0xbd2471c9	-0.040147576
80	0xbbffee97	-0.0078104245
81	0xbbfc1cf7	-0.0076938826
82	0xbca217c5	-0.019786725
83	0xbcec6d1f	-0.028860627
84	0xbcee8b0c	-0.029119037
85	0xbcf1156c	-0.02942916
86	0x398b36e1	0.00026553034
87	0xbd28ead2	-0.041239567
88	0xbc7eb0ca	-0.0155450795
89	0xbcc59e38	-0.024123296
90	0x3b4eb0cf	0.0031538492
91	0x3d460300	0.048342705
92	0x3cf0fdee	0.029417958
93	0x3a25bfeb	0.00063228485
94	0x3b1b889e	0.0023732553
95	0x3cfe8152	0.031067524
96	0x3d28691a	0.041115858
97	0x3bd1fc27	0.0064082327
98	0x3be5a2c3	0.007007928
99	0xbbb69ac4	-0.0055726487
100	0x3ceab0ba	0.028648723
101	0x3d37f843	0.044914495
102	0x3bf540f9	0.007484552
103	0x3d376a6c	0.044779226
104	0x3c3dc878	0.01158344
105	0x3d587d50	0.052853882
106	0x3cabad0e	0.020956542
107	0x3cd8de76	0.026473265
108	0x3ce6a6e6	0.028155755
109	0xbb5c65ad	-0.003362994
110	0x3d14f794	0.03636892
111	0x3d388964	0.0450529
112	0xbb906aa4	-0.004407244
113	0x3c9f21b9	0.01942526
114	0xbcacd174	-0.021095969
115	0x3ca6b3d7	0.020349426
116	0x3b23ce14	0.0024994658
117	0xbc209124	-0.009800229
118	0x3c8dd6fd	0.017314428
119	0x3c9890cc	0.018623732
120	0x3d062ec3	0.03275944
121	0x3d089ea2	0.03335441
122	0x3c04af0d	0.008098376
123	0x3d006162	0.03134287
124	0xbc70cefd	-0.014697787
125	0xbcfd93e3	-0.030954307
126	0xbc961e5a	-0.01832502
127	0xbccf3c07	-0.025297178
128	0x3bacbbcd	0.005271411
129	0x3bae8efe	0.0053271046
130	0xbc1e14d3	-0.00964852
131	0xbca3d99c	-0.020001225
132	0xbcc67a96	-0.024228375
133	0xbc8e4b02	-0.01736975
134	0xbca0f500	-0.019648075
135	0xbccdc5fa	-0.025118817
136	0xbc062db0	-0.008189604
137	0xbafffab0	-0.0019529667
138	0x3aff5c58	0.0019482477
139	0xbd1a637d	-0.037692536
140	0xbc98f2c3	-0.018670445
141	0xbd4866f0	-0.048926294
142	0xbccd80c7	-0.02508582
143	0xbc5cdc9e	-0.013480334
144	0xbcc0454d	-0.023470545
145	0xbd3a91ab	-0.045549076
146	0xbd2f2315	-0.042758066
147	0xbc8ba7b7	-0.017047746
148	0xbd2093d9	-0.0392035
149	0xbcc34515	-0.023836652
150	0x3c09da78	0.008413903
151	0x3cc86a7d	0.02446484
152	0x3bfd7513	0.0077349036
153	0x3d153bb0	0.036433876
154	0xbc8f9ba8	-0.017530277
155	0xbc886316	-0.01664881
156	0xbc9aac7e	-0.018881079
157	0x3beee80b	0.0072908453
158	0xbb54beac	-0.0032462282
159	0x3d07bfe8	0.033142
160	0xbc70127f	-0.014652847
161	0xb746f040	-1.1857657e-05
162	0x3ca849f6	0.02054308
163	0xbca72568	-0.020403579
164	0x3c87fe19	0.016600655
165	0xbd135397	-0.03596839
166	0x3ba2a850	0.004963912
167	0xbc776c92	-0.015101569
168	0xbcc7ee9b	-0.024405768
169	0x3ba78579	0.0051123467
170	0xbc7fac04	-0.015604977
171	0xbbdc925c	-0.0067313146
172	0x3bbe9aac	0.005816778
173	0xbc3b0e80	-0.011417031
174	0xbcd3ec55	-0.025869528
175	0xbcd5ffb3	-0.026122903
176	0xbd1e3107	-0.038620975
177	0xbc95273a	-0.018207181
178	0xbc2ce9d9	-0.0105538005
179	0xbd196df1	-0.037458364
180	0xbd039c56	-0.032131515
181	0xbcc59998	-0.02412109
182	0xbceb1578	-0.02869676
183	0xbc1aca8c	-0.009447705
184	0xbd0b6502	-0.034031875
185	0xbd811938	-0.06303638
186	0xbd207a42	-0.039179094
187	0xbd29f5ef	-0.041494306
188	0xbcf62830	-0.03004846
189	0xbd764340	-0.06012273
190	0xbda1dd7b	-0.07903572
191	0xbda6ccdc	-0.081445426
192	0xbd49bee7	-0.049254324
193	0xbd198d2c	-0.037488148
194	0xbd8eeec6	-0.06979136
195	0xbd67e125	-0.0566112
196	0xbd4d34ed	-0.050099302
197	0xbd409fed	-0.047027517
198	0xbd198293	-0.03747804
199	0xbd3a32fc	-0.04545878
200	0x3ce055a3	0.027384585
201	0x3cf0d552	0.029398594
202	0xbc320c87	-0.010867245
203	0x3c01be5b	0.007918919
204	0x3c840f78	0.016120657
205	0x3cdf0393	0.027223384
206	0xbc292333	-0.010323334
207	0x3cd3960e	0.025828388
208	0xbc131019	-0.008976006
209	0xbc465cc1	-0.012107075
210	0xbce4feaf	-0.027953474
211	0xbcb35841	-0.021892669
212	0xbc68ceb6	-0.01420944
213	0xbca119e0	-0.019665658
214	0xbd082996	-0.033242784
215	0x3b6c017b	0.0036011625
216	0xbcea2553	-0.02858225
217	0x3b49ea74	0.003080991
218	0xbd308613	-0.043096613
219	0xbc75adf1	-0.014995084
220	0xbcff6e10	-0.031180412
221	0xbcc0244a	-0.023454804
222	0xbbfb7e59	-0.007674974
223	0xbc7aba2e	-0.015303178
224	0xbceee750	-0.029163033
225	0xbbc5c21e	-0.0060351035
226	0x3c68fd45	0.01422054
227	0x3c4dd01c	0.012561824
228	0x3d196d02	0.037457474
229	0x3c25c966	0.010118818
230	0xbc0f3ee7	-0.008743024
231	0x3ca93f0d	0.020659948
232	0x3c3cf29a	0.01153245
233	0x3cc0b65a	0.023524452
234	0x3c0d5a92	0.008627551
235	0xb9aaca0b	-0.0003257546
236	0x3af37840	0.0018575266
237	0xbb68a438	-0.0035498273
238	0x3ced63b9	0.028978216
239	0x3c941398	0.01807575
240	0x3b24728f	0.0025092696
241	0x3caefb46	0.02136005
242	0x39d5cc18	0.00040778588
243	0xbb140a94	-0.0022589313
244	0x3c4ca5ec	0.012490731
245	0xbd3a28bc	-0.045449004
246	0xbcbc1e8c	-0.022963785
247	0xbd37a547	-0.044835355
248	0xbc2cf52a	-0.010556499
249	0xbc9e1b71	-0.019300194
250	0xbd75a7a6	-0.059974335
251	0xbd0afb1a	-0.033930875
252	0xbd66adc0	-0.056318045
253	0xbd6b8ab9	-0.057505343
254	0xbd987a48	-0.07445198
255	0xbd4fd3c5	-0.05073907

branch5.bias f4 [64]
0	0xbc27b450	-0.010235861
1	0xbcaaa59a	-0.020830918
2	0xbc28a010	-0.010292068
3	0x3b23d7ef	0.0025000533
4	0x3d02fbd2	0.031978436
5	0xbcc29794	-0.023753919
6	0xbb9981b8	-0.004684653
7	0x3cd48cc0	0.025946021
8	0x3d0c4de0	0.034253955
9	0x3c9b21ba	0.01893698
10	0x3c567efa	0.013091797
11	0x3bea4c29	0.0071501923
12	0xbcf9f0e2	-0.03051037
13	0xbb93b1d1	-0.0045072814
14	0xbcf1f791	-0.029536994
15	0xbcae0261	-0.021241369
16	0xbca710fd	-0.020393843
17	0x3cd403f8	0.025880799
18	0x3cbeedff	0.023306845
19	0x3c93e1e9	0.018052058
20	0x3d033e81	0.03204203
21	0x3caa32e0	0.020776212
22	0x3cc237c2	0.023708228
23	0x3bbbd3fb	0.005732057
24	0x3b0af8e3	0.0021205477
25	0xbc8089fc	-0.015690796
26	0x3c521e0f	0.012824549
27	0x3bc0e95d	0.005887194
28	0x3cc38339	0.023866283
29	0xbcf58fe5	-0.02997584
30	0xbc956405	-0.01823617
31	0xbc86e03a	-0.016464341
32	0xbd02a8dd	-0.03189932
33	0xbbf01e16	-0.0073278053
34	0xbba86a21	-0.0051396047
35	0x3cec674d	0.028857851
36	0xbce86abf	-0.028371213
37	0x3d0f6920	0.035012364
38	0x3c35e5be	0.011102138
39	0xb9d67e42	-0.0004091133
40	0xbcca4770	-0.024692267
41	0xbc74e220	-0.0149464905
42	0xbd0919de	-0.033471934
43	0x3c60b489	0.013714918
44	0x3c50e948	0.012750931
45	0xbccf89f9	-0.025334345
46	0xbcd87730	-0.02642402
47	0x3ab19237	0.0013547604
48	0x3ccb027b	0.024781456
49	0x3c019a96	0.007910391
50	0xbcfa88e7	-0.030582858
51	0xbd0cc3b3	-0.03436632
52	0x3c881679	0.016612278
53	0x3c7dc551	0.015488938
54	0xbcce7815	-0.025203744
55	0xbce4defc	-0.027938358
56	0x3bbc4e01	0.0057466035
57	0xbbc3f03b	-0.0059795654
58	0xbcb33576	-0.021876078
59	0xbb3e63a8	-0.00290511
60	0xbcb9d795	-0.022685805
61	0x3cbd7623	0.023127621
62	0x3bcdd8b0	0.0062819347
63	0x3cd4ddba	0.025984634

bn_ms.weight f4 [128]
0	0x3f8bd5df	1.0924643
1	0x3f85d5e1	1.0455896
2	0x3f8756ee	1.0573404
3	0x3f8cc7ec	1.0998511
4	0x3f8bb7c0	1.0915451
5	0x3f8db944	1.1072164
6	0x3f909fa7	1.1298722
7	0x3f874bd2	1.0570014
8	0x3f8adef2	1.0849288
9	0x3f8cf85f	1.1013297
10	0x3f8b9029	1.0903369
11	0x3f8f8a4d	1.1214081
12	0x3f8818f2	1.0632613
13	0x3f8bf387	1.0933694
14	0x3f89b051	1.0756932
15	0x3f91a1cb	1.13775
16	0x3f90c507	1.1310128
17	0x3f85d872	1.0456679
18	0x3f8d3fbe	1.1035078
19	0x3f92b163	1.1460384
20	0x3f8dc61e	1.1076086
21	0x3f8baa79	1.0911399
22	0x3f926c3f	1.1439284
23	0x3f8d0627	1.1017503
24	0x3f861e7f	1.0478057
25	0x3f8d41fe	1.1035764
26	0x3f8cf276	1.1011493
27	0x3f8dff82	1.10936
28	0x3f8a07c4	1.078362
29	0x3f8d0c48	1.1019373
30	0x3f8e3341	1.1109391
31	0x3f8ccfa5	1.1000868
32	0x3f8af1ec	1.0855079
33	0x3f905ead	1.1278893
34	0x3f8858d7	1.0652112
35	0x3f9029e1	1.126278
36	0x3f8d9c9e	1.1063421
37	0x3f8b8342	1.0899432
38	0x3f87f44b	1.0621427
39	0x3f8830e6	1.0639923
40	0x3f881a4c	1.0633025
41	0x3f8be2d7	1.0928601
42	0x3f8d0902	1.1018374
43	0x3f898aaa	1.0745442
44	0x3f857721	1.042698
45	0x3f8a052c	1.0782828
46	0x3f8e25c6	1.1105278
47	0x3f8e3820	1.1110878
48	0x3f8f0e7a	1.1176293
49	0x3f8b4367	1.0879945
50	0x3f91759a	1.1364014
51	0x3f8c8906	1.0979316
52	0x3f8aed3c	1.0853648
53	0x3f8c1daf	1.0946559
54	0x3f8b78a0	1.0896187
55	0x3f8e3e88	1.1112833
56	0x3f85fec5	1.0468374
57	0x3f86f188	1.054246
58	0x3f8af8fc	1.0857234
59	0x3f86599a	1.0496094
60	0x3f877b5f	1.0584525
61	0x3f88caae	1.0686853
62	0x3f88a234	1.06745
63	0x3f8b562a	1.088567
64	0x3f929aff	1.1453551
65	0x3f949101	1.1606752
66	0x3f93b488	1.1539469
67	0x3f94a4f4	1.161284
68	0x3f99674f	1.1984652
69	0x3f90d6e9	1.1315585
70	0x3f933d3b	1.1503061
71	0x3f90aca5	1.1302687
72	0x3f8bbbb5	1.0916659
73	0x3f88a621	1.0675699
74	0x3f96e66e	1.1789072
75	0x3f906da9	1.1283466
76	0x3f949bb2	1.1610014
77	0x3f930673	1.1486343
78	0x3f9419ff	1.1570433
79	0x3f946044	1.1591878
80	0x3f9a7358	1.206645
81	0x3f9668ce	1.1750734
82	0x3f9024ce	1.1261232
83	0x3f9e5e79	1.2372581
84	0x3f91976b	1.1374334
85	0x3f8d07fe	1.1018064
86	0x3f997c95	1.1991144
87	0x3f8d29e1	1.1028405
88	0x3f980d5f	1.187908
89	0x3f93f353	1.1558632
90	0x3f8d040d	1.1016861
91	0x3f917919	1.1365081
92	0x3f94923b	1.1607126
93	0x3f8ea2a3	1.1143383
94	0x3f961866	1.1726196
95	0x3f8b604d	1.0888764
96	0x3f9d8a19	1.2307769
97	0x3f935ae4	1.1512113
98	0x3f8e89ad	1.1135765
99	0x3f8edd19	1.1161224
100	0x3f94e715	1.1633021
101	0x3f9240d3	1.1426033
102	0x3f92904b	1.1450285
103	0x3f9f9a7a	1.2469018
104	0x3f8d19a3	1.1023449
105	0x3f8dbcf4	1.1073289
106	0x3f92ffac	1.1484275
107	0x3f8a1186	1.0786598
108	0x3f8ff62e	1.1247003
109	0x3f917187	1.1362771
110	0x3f959d9f	1.1688727
111	0x3f91d165	1.1392027
112	0x3f8bbf97	1.0917844
113	0x3f90c1cc	1.1309142
114	0x3f930722	1.1486552
115	0x3f9a1c3c	1.2039866
116	0x3f8ef619	1.1168853
117	0x3f91db80	1.1395111
118	0x3f91f030	1.1401424
119	0x3f8e7e7e	1.1132352
120	0x3f94ce4f	1.162546
121	0x3f90f0bf	1.132347
122	0x3f93574c	1.1511016
123	0x3f8a43c9	1.0801936
124	0x3f92b832	1.1462462
125	0x3f8d5355	1.1041056
126	0x3f91e854	1.1399026
127	0x3f942c3d	1.1576

bn_ms.bias f4 [128]
0	0xbb99ec5d	-0.004697366
1	0x3c4668de	0.012109963
2	0x3d39883f	0.04529595
3	0x3d57ea9a	0.052713968
4	0xbc1e1351	-0.00964816
5	0x3d2465d9	0.040136192
6	0x3d984c15	0.074363865
7	0xbb8d547a	-0.004313049
8	0x3c7fb9cd	0.015608263
9	0xbd131bc0	-0.035915136
10	0xba0f2db0	-0.0005461825
11	0x3c24af3f	0.010051548
12	0x3cb25598	0.02176933
13	0x3da4b503	0.08042338
14	0xbcbe1ea3	-0.023207968
15	0x3d157ce0	0.036496043
16	0x3d6be50b	0.05759148
17	0x3d60b647	0.054861333
18	0x3d58a15c	0.05288826
19	0x3d6ee731	0.05832595
20	0x3bb99cb7	0.005664434
21	0x3d3ebd6e	0.046567373
22	0x3d885637	0.06657069
23	0xbd8eea91	-0.06978334
24	0x3bffe1d6	0.007808904
25	0x3d3c5ecb	0.04598884
26	0x3cd926be	0.026507732
27	0x3db85315	0.09000222
28	0x3d0248af	0.031807598
29	0x3c3beb1d	0.01146963
30	0x3d975f4c	0.07391223
31	0x3d2ec352	0.04266674
32	0x3c20e6c6	0.009820646
33	0x3da6a6ee	0.08137308
34	0x3d984baa	0.07436307
35	0x3ccd8b3c	0.025090806
36	0x3d5af812	0.053459235
37	0x3d5c7cac	0.053829834
38	0x3c9a083e	0.018802758
39	0x3c7175f5	0.014737596
40	0x3c9c2d7d	0.01906466
41	0x3c8de31c	0.017320208
42	0x3d6debf9	0.05808637
43	0x3d20b130	0.03923148
44	0xbb49263c	-0.0030692955
45	0x3cb32350	0.021867424
46	0xbd37edb8	-0.04490444
47	0xbd10b572	-0.03532929
48	0x3d996244	0.07489446
49	0x3d5a2698	0.053259462
50	0x3d93c74b	0.072157465
51	0x3c2aab1e	0.010416774
52	0x3d93234b	0.07184466
53	0x3d0d1bf1	0.034450475
54	0xbd809236	-0.062778875
55	0x3b726cdc	0.0036991155
56	0x3d2c1f3e	0.042021982
57	0xbce1d9ea	-0.02756973
58	0xbcc6595f	-0.024212537
59	0x3b0c0512	0.0021365327
60	0x3d744f91	0.059646193
61	0xbad7e618	-0.0016471772
62	0x3d3ec904	0.046578422
63	0xbd25a01f	-0.040435906
64	0x3d8894eb	0.06669029
65	0x3dbcb551	0.09214271
66	0x3dc3c6dc	0.09559414
67	0x3c57b4f1	0.013165698
68	0x3dd71ccb	0.10503539
69	0x3dc4998b	0.095995985
70	0x3da27802	0.07933046
71	0x3dc1c566	0.09461479
72	0x3d44c8f0	0.04804319
73	0x3cd21426	0.025644373
74	0xbd191a7e	-0.03737878
75	0x3d19defe	0.037566178
76	0x3dc5c844	0.09657338
77	0x3dd1a363	0.10236242
78	0x3db0dd00	0.086359024
79	0x3d8919ac	0.0669435
80	0xbc6dba10	-0.014509693
81	0x3d3d1332	0.046160884
82	0xbd0187e9	-0.031623755
83	0xbd84953a	-0.06473775
84	0x3d4ebe59	0.0504745
85	0x3d058ef1	0.032607023
86	0x3dc2a1d1	0.0950352
87	0x3d297891	0.041374747
88	0x3dc0ee69	0.09420473
89	0x3da4c049	0.08044488
90	0x3d3e978f	0.046531256
91	0x3c16868e	0.009187354
92	0xbcf71520	-0.03016144
93	0xbae0ab95	-0.0017140979
94	0x3d4be838	0.049782008
95	0x3d1c3ceb	0.038144033
96	0xbcc617b1	-0.024181219
97	0x3d9e7ed1	0.07739032
98	0x3d807c61	0.062737234
99	0x3d271789	0.04079393
100	0x3d156636	0.03647443
101	0x3d8721f2	0.065982714
102	0x3d824022	0.063598886
103	0xbdb10699	-0.086438365
104	0x3d352b56	0.04423078
105	0x3d52f9c5	0.05150773
106	0x3daf6283	0.085637115
107	0x3ce30a00	0.02771473
108	0x3cb3e46f	0.021959512
109	0xbd9a2808	-0.075271666
110	0x3da906e8	0.082532704
111	0x3da854cb	0.08219298
112	0x3d61cd5c	0.055127487
113	0x3d218c69	0.039440546
114	0x3cf2e6ea	0.029651124
115	0x3d94e3be	0.07270001
116	0xbd84066d	-0.06446538
117	0x3d6b5b1d	0.05745994
118	0x3d9b90eb	0.07596
119	0x3d7b4af5	0.06135078
120	0x3dbdd4b6	0.09269087
121	0xbd5de64e	-0.054174714
122	0xbd95c6c6	-0.07313304
123	0x3d142ade	0.036173694
124	0x3c12e5fe	0.008965967
125	0xbd198c53	-0.03748734
126	0x3da8f693	0.08250155
127	0x3da2b0f3	0.07943907

bn_ms.running_mean f4 [128]
0	0x3eb836fc	0.3597945
1	0xbdf33492	-0.11875261
2	0xbf0e2e28	-0.5553918
3	0x3e2a8d4c	0.16655463
4	0x3ecc4fde	0.39904684
5	0x3e1b5784	0.15170103
6	0x3e834804	0.2564088
7	0xbe836f9c	-0.2567109
8	0x3e45d4f4	0.19319516
9	0x3f1dc7b0	0.61632824
10	0x3f07a1ec	0.5298145
11	0x3eb2e03c	0.34936702
12	0xbef4382f	-0.47699115
13	0xbd20817c	-0.039185986
14	0x3f68e388	0.90972185
15	0x3e9d607a	0.30737668
16	0xbc838250	-0.016053349
17	0xbd7b9e0c	-0.061430022
18	0x3e122765	0.1427284
19	0x3dcbe7ee	0.099563465
20	0x3ea9f0b9	0.3319147
21	0x3e1bebbb	0.15226643
22	0x3d72a702	0.059241302
23	0x3f07a549	0.5298658
24	0x3dd1c2fa	0.10242267
25	0x3e1c1822	0.15243581
26	0x3f186e10	0.5954294
27	0xbf08252d	-0.53181726
28	0xbea94219	-0.3305824
29	0x3e89046c	0.26761186
30	0x3ca66055	0.020309607
31	0xbf56411c	-0.836931
32	0x3d175309	0.036944423
33	0xbbe021da	-0.006839973
34	0xbe65cd1e	-0.22441527
35	0x3f1261a8	0.5718026
36	0x3d0056e4	0.031332865
37	0xbecf02d8	-0.40431857
38	0x3df6a671	0.12043465
39	0xbe78d4e9	-0.24299969
40	0xbe9fbc97	-0.3119857
41	0xbe04ce49	-0.12969317
42	0xbec06ee9	-0.37584618
43	0xbb3bff8d	-0.0028686256
44	0xbe89cd8e	-0.26914638
45	0xbdec4cd5	-0.11538092
46	0x3f3ee672	0.7457038
47	0x3f77df30	0.9682493
48	0xbb2c8842	-0.0026326333
49	0x3e18f6b8	0.14937866
50	0x3e068f49	0.13140596
51	0x3d11b79a	0.035575487
52	0xbeb094bc	-0.34488475
53	0xbea90dcd	-0.33018342
54	0x3f49d1ff	0.78836054
55	0x3e43fb7c	0.19138902
56	0xbdf38e29	-0.11892349
57	0xbdd40179	-0.103518434
58	0x3f533902	0.8250886
59	0xbe324107	-0.17407618
60	0xbec471fd	-0.38368216
61	0xbea63831	-0.32464746
62	0x3d228b19	0.039683435
63	0x3f3dee07	0.74191326
64	0xbea399d2	-0.31953293
65	0x3eda7243	0.426653
66	0x3d897026	0.06710844
67	0x3f56abdb	0.8385598
68	0x3e223fee	0.158447
69	0xbfd44d87	-1.658616
70	0x3c60b88a	0.013715873
71	0xbe5685d2	-0.20949486
72	0xbfc48026	-1.5351608
73	0xbee8d1c3	-0.45472535
74	0xbe577239	-0.21039666
75	0x3f0bdd25	0.54634315
76	0x3da1cc8f	0.079003446
77	0xbfec1a90	-1.8445606
78	0x3e17b8c0	0.1481657
79	0x3e8ff8d3	0.28119525
80	0xbd2d621b	-0.04232989
81	0x3d8c3e7c	0.068478554
82	0x3f468d58	0.77559423
83	0xbe9d6d66	-0.30747527
84	0xbf00e9f9	-0.50357014
85	0xbf173498	-0.59064627
86	0x3e2187f5	0.1577452
87	0x3f00cd9f	0.5031375
88	0x3ef48655	0.47758737
89	0x3e3ba935	0.18326266
90	0xbd9d1ca0	-0.076714754
91	0x3efab086	0.48962802
92	0xbe30bc19	-0.17259254
93	0x3f861087	1.0473794
94	0x3f28f001	0.65991217
95	0x3dfe255b	0.12409469
96	0xbe7ca148	-0.24670899
97	0x3de0ffb1	0.10986269
98	0xbdd1d6fc	-0.10246083
99	0xbfa88fb0	-1.316885
100	0x3bd9ed88	0.0066506304
101	0xbe6122af	-0.21985887
102	0xbee8d1ff	-0.45472714
103	0xbe91097b	-0.28327546
104	0xbe142ef0	-0.1447103
105	0xbdf0997c	-0.11748025
106	0x3eb5dab4	0.3551842
107	0xbf7644f6	-0.96198976
108	0x3eff3051	0.4984155
109	0x3f9cf54d	1.226236
110	0xbc81c23b	-0.015839687
111	0xbf019d02	-0.506302
112	0xbf12adc3	-0.5729639
113	0xbf04ee6a	-0.5192629
114	0x3f2cff67	0.67577213
115	0x3e0fc126	0.14038524
116	0x3feb74e9	1.8395053
117	0xbeb6c6ae	-0.35698456
118	0xbea2d6f6	-0.31804627
119	0x3c1f8e8e	0.0097385775
120	0x3ebed8d7	0.3727481
121	0x3f8be104	1.0928044
122	0xbe0d9826	-0.13827571
123	0xbe1c72db	-0.15278189
124	0x3f34987f	0.7054519
125	0x3f99d1ce	1.2017152
126	0xbe5959d4	-0.21225673
127	0x3cce27de	0.025165495

bn_ms.running_var f4 [128]
0	0x3e0e3e0d	0.13890858
1	0x3e4aa129	0.1978804
2	0x3e683083	0.22674756
3	0x3e00a68a	0.1256353
4	0x3e2c39d6	0.16818938
5	0x3e09e9c5	0.13468082
6	0x3de33f9d	0.11096118
7	0x3e0dd876	0.13852105
8	0x3e16366a	0.14669195
9	0x3e5acfad	0.21368285
10	0x3dd53c6d	0.10411916
11	0x3e55ee54	0.20891696
12	0x3e2a406c	0.16626137
13	0x3df7df2c	0.121031135
14	0x3e9ff8f7	0.31244633
15	0x3e1df4c6	0.15425405
16	0x3dd21301	0.10257531
17	0x3e0e641b	0.13905375
18	0x3e0879fb	0.13327782
19	0x3dee2197	0.116275005
20	0x3e173e0a	0.1476976
21	0x3de73377	0.11289113
22	0x3dcf775c	0.10130188
23	0x3df38f76	0.118925974
24	0x3e340c31	0.17582776
25	0x3dcd4424	0.100227624
26	0x3e19d19e	0.15021369
27	0x3e896da0	0.2684145
28	0x3dce841a	0.1008379
29	0x3dc3c6a4	0.09559372
30	0x3df376e1	0.11887909
31	0x3e863bda	0.26217538
32	0x3df65d25	0.12029485
33	0x3dc77e2d	0.09740863
34	0x3e284b5f	0.16435002
35	0x3e105e49	0.14098467
36	0x3d81dab7	0.06340545
37	0x3e557258	0.208444
38	0x3dd9ea2d	0.106403686
39	0x3de4aabc	0.111653775
40	0x3de64eac	0.11245474
41	0x3d9f9d1e	0.077936396
42	0x3dfb8f9b	0.1228325
43	0x3db378e3	0.08763292
44	0x3dfadecb	0.12249526
45	0x3e151372	0.14558199
46	0x3e8e12c6	0.27748698
47	0x3eaf3054	0.3421656
48	0x3db21534	0.086954504
49	0x3de6bf2d	0.11266933
50	0x3dd16be3	0.10225656
51	0x3da05708	0.078291
52	0x3e1058e6	0.14096412
53	0x3e51c3ea	0.20484892
54	0x3e6c0182	0.2304745
55	0x3e1a261a	0.15053597
56	0x3dd9f2f1	0.106420405
57	0x3e2b62a8	0.16736853
58	0x3eb7cffd	0.3590087
59	0x3e0f407c	0.13989443
60	0x3db866a3	0.090039514
61	0x3e263ad9	0.16233386
62	0x3e1e0b02	0.15433887
63	0x3e88abfb	0.2669371
64	0x3eb7d259	0.3590267
65	0x3ec39d76	0.3820607
66	0x3e8898c5	0.26679054
67	0x3f027f0e	0.5097512
68	0x3e60fb9c	0.21970981
69	0x3f366306	0.7124485
70	0x3e896971	0.26838258
71	0x3e7a426a	0.24439397
72	0x3f1c2b0f	0.610032
73	0x3e9afd0c	0.30271184
74	0x3ed3503a	0.41272146
75	0x3eb086ee	0.34477943
76	0x3e8b47a4	0.27203095
77	0x3f6e1804	0.93005395
78	0x3e7b38ef	0.24533437
79	0x3e9cbe41	0.30613902
80	0x3ec9d28e	0.39418453
81	0x3e288a62	0.16459039
82	0x3eb0e94f	0.34553
83	0x3f160a39	0.5860935
84	0x3ece2534	0.4026276
85	0x3eae75f6	0.34074372
86	0x3eb78a11	0.35847524
87	0x3ee728ac	0.45148218
88	0x3e9b4041	0.3032246
89	0x3e5d4a6b	0.2161042
90	0x3e6699d7	0.22519623
91	0x3ebfcf58	0.37462878
92	0x3ec412b6	0.38295525
93	0x3eec2715	0.46123567
94	0x3e9e4653	0.30913028
95	0x3e8e916e	0.2784533
96	0x3ee8326f	0.45350978
97	0x3ea4efc6	0.32214183
98	0x3e34cb65	0.17655714
99	0x3f446e2a	0.76730597
100	0x3e3646f1	0.178005
101	0x3ed85ce4	0.4225837
102	0x3ec5bd89	0.38621166
103	0x3f133b99	0.57512814
104	0x3ebdd4aa	0.37076312
105	0x3e796168	0.24353564
106	0x3e908126	0.28223532
107	0x3f296593	0.66170615
108	0x3ee8a796	0.45440358
109	0x3f2c3f91	0.67284495
110	0x3e9775fc	0.29582202
111	0x3eae02ce	0.33986515
112	0x3ef0d3fa	0.47036725
113	0x3f082a0e	0.5318917
114	0x3ede16a2	0.43376642
115	0x3e591b20	0.21201754
116	0x3f612648	0.8794904
117	0x3edec1c3	0.43507203
118	0x3ecc09f4	0.39851344
119	0x3e6b4607	0.22975932
120	0x3e9ff645	0.31242576
121	0x3ef9e58a	0.48807937
122	0x3f0813d6	0.5315527
123	0x3eabb912	0.33539635
124	0x3eb3b4a6	0.3509876
125	0x3ec5b512	0.38614708
126	0x3ec80119	0.39063337
127	0x3e4091f7	0.18805681
