checkpoints/best_0.2366.pt (torch, 328019 bytes, 22 tensors)

layer1.0.weight f4 [32, 1, 3, 3]
0.24146247 0.25780696 -0.07642995 0.30669287 -0.08283618 0.08094127 -0.14246988 0.20936674
0.31326687 -0.24053624 0.29055774 0.06317654 0.2432703 0.03688145 0.14962259 -0.038147137
0.27513784 0.05959387 -0.14538258 0.087087505 -0.15165672 -0.029033644 -0.13642408 0.22055508
-0.26599717 -0.16473928 -0.09875335 -0.19672213 0.03597245 -0.3261945 0.3059776 -0.27572247
0.26167685 0.061907377 -0.09960382 0.21185216 0.05384467 0.28432706 0.045727592 -0.10422558
0.10391262 -0.08210026 0.13133803 0.288878 0.18581939 -0.14040993 0.19817658 0.06481513
0.17253016 -0.19916166 -0.32575315 -0.12635492 -0.2518425 0.2762658 0.10726521 0.1499065
0.1177531 0.0046405946 0.27177343 -0.22465187 0.032535914 -0.21490487 0.1149133 -0.11524454
0.099192105 -0.07123145 0.2763494 -0.19979319 -0.2002575 -0.19941422 0.2975442 0.11021351
0.32397878 -0.27074996 -0.3301214 -0.25702164 -0.21839558 0.136746 0.12079021 0.28006908
-0.1720732 -0.22116007 0.17796957 -0.1330585 0.20380595 -0.07947406 0.189801 -0.26262265
-0.17371361 0.097755075 0.06444466 -0.09148998 0.19333978 0.22070706 -0.2479378 -0.18257795
0.2978971 -0.12043122 -0.124517724 -0.32803783 -0.19745429 0.08302179 -0.04654746 -0.24078992
0.009827956 -0.22596432 -0.27456886 -0.17864455 -0.29453772 -0.21835323 0.33162376 0.058372617
0.096095905 -0.30995384 -0.21397087 -0.118881844 0.05073654 -0.30340168 -0.1528271 -0.19372094
-0.008623911 -0.13199793 -0.01657541 -0.22433984 -0.22289237 -0.18269172 -0.10799559 -0.2547807
0.2860949 -0.06055724 0.29353493 0.110043675 -0.2754215 0.23859026 -0.083818644 -0.121722214
-0.29291952 -0.32996708 0.09507199 -0.08476472 0.13174677 -0.27235004 0.24080394 -0.24344319
-0.04365722 0.0853268 0.18736844 0.27895668 0.31867653 -0.24856935 0.09746254 -0.12826326
-0.020471549 -0.23834886 0.31461176 -0.2363808 0.18802314 0.12773196 0.11335566 -0.1676259
0.31529555 0.0792375 0.03819163 -0.29842845 0.13620357 -0.05376894 -0.15685782 0.28250018
0.07208622 -0.18629466 -0.17131722 -0.019156056 0.18107639 -0.09236254 -0.18972388 -0.11750574
-0.25321734 0.11931515 0.25442487 -0.317336 0.08816301 0.1590477 0.06855319 -0.10489996
0.16948889 0.18679695 0.13979767 -0.047763567 -0.07290437 0.044828348 -0.049658086 -0.08929736
0.22365275 0.29567128 -0.021804875 -0.06151223 0.017623225 -0.008197055 0.07359231 0.08317295
-0.31235236 -0.12942283 0.27089268 0.120816834 -0.020945983 -0.21040265 -0.2127442 -0.2936508
-0.10448677 0.12031111 0.21485086 0.15614198 -0.28811207 -0.19798829 -0.04983944 0.32800314
0.050437562 -0.07460039 0.14525989 -0.1313856 -0.20193368 0.2492702 -0.1607565 -0.05393989
-0.3258225 0.23149052 0.25919032 0.12863412 -0.22186941 -0.31905168 -0.26122135 0.26005334
0.17136033 0.29081914 0.173801 0.087183096 -0.0014526327 -0.25686187 -0.28072098 -0.3123893
0.13156804 -0.16476451 -0.07219942 -0.18107997 -0.073145375 -0.2385523 -0.20612313 0.102479346
-0.10769866 0.21383202 -0.11194835 -0.24328353 -0.048486356 -0.15467666 -0.09345838 -0.30566102
00000000: f041 773e 46ff 833e 4e87 9cbd d906 9d3e
00000010: 04a6 a9bd 89c4 a53d a0e3 11be 3c64 563e
00000020: 8464 a03e 224f 76be fcc3 943e b462 813d
00000030: d91b 793e 0111 173d aa36 193e 2c40 1cbd
00000040: dede 8c3e b418 743d 2cdf 14be ef5a b23d
00000050: e64b 1bbe f7d7 edbc c1b2 0bbe 31d9 613e
00000060: c830 88be 6ab1 28be 323f cabd 8771 49be
00000070: d957 133d f702 a7be 19a9 9c3e 7f2b 8dbe
00000080: 82fa 853e 9792 7d3d 16fd cbbd c6ef 583e
00000090: 3b8c 5c3d 5193 913e db4c 3b3d 3974 d5bd
000000a0: 24d0 d43d 2e24 a8bd 7a7d 063e d1e7 933e
000000b0: 7047 3e3e 9fc7 0fbe cdee 4a3e cbbd 843d
000000c0: bfab 303e 09f1 4bbe 1ec9 a6be 2f63 01be
000000d0: 80f1 80be b672 8d3e ddad db3d 1781 193e
000000e0: 8a28 f13d 2110 983b e325 8b3e 240b 66be
000000f0: 6144 053d 0610 5cbe aa57 eb3d 5405 ecbd
00000100: 3b25 cb3d cbe1 91bd ab7d 8d3e 9696 4cbe
00000110: 4d10 4dbe 3e33 4cbe b757 983e 9fb7 e13d
00000120: 8ce0 a53e bd9f 8abe ac05 a9be 5798 83be
00000130: 17a3 5fbe 2507 0c3e dc60 f73d 3765 8f3e
00000140: f533 30be c977 62be a83d 363e 7d40 08be
00000150: 82b2 503e 4cc3 a2bd 315b 423e 7a76 86be
00000160: fbe1 31be d033 c83d 90fb 833d 195f bbbd
00000170: ddfa 453e 0801 623e 68e3 7dbe b7f5 3abe
00000180: f885 983e a5a4 f6bd 2603 ffbd 93f4 a7be
00000190: 7531 4abe 5407 aa3d 8da8 3ebd a291 76be
000001a0: 6f05 213c 3163 67be 4a94 8cbe 99ee 36be
000001b0: a6cd 96be fd97 5fbe 97ca a93e 2018 6f3d
000001c0: eecd c43d 45b2 9ebe 2e1b 5bbe 5378 f3bd
000001d0: 1ed1 4f3d 7757 9bbe b57e 1cbe c85e 46be
000001e0: 4e4b 0dbc 772a 07be 27c9 87bc 58b9 65be
000001f0: e63d 64be 8a13 3bbe cb2c ddbd 9e72 82be
00000200: 087b 923e de0a 78bd 364a 963e 945e e13d
00000210: 0c04 8dbe 0151 743e 1ca9 abbd 7f49 f9bd
00000220: 8cf9 95be 72f1 a8be 1ab5 c23d 2099 adbd
00000230: a0e8 063e 7771 8bbe 4f95 763e 2c49 79be
00000240: ead1 32bd d1bf ae3d 83dd 3f3e 69d3 8e3e
00000250: 9229 a33e f788 7ebe 719a c73d 7257 03be
00000260: f3b3 a7bc b911 74be cb14 a13e cf0d 72be
00000270: 2389 403e 2bcc 023e 0327 e83d 20a6 2bbe
00000280: 6b6e a13e 4547 a23d d46e 1c3d 9dcb 98be
00000290: f378 0b3e d23c 5cbd 569f 20be dda3 903e
000002a0: f1a1 933d 07c4 3ebe c86d 2fbe 29ed 9cbc
000002b0: 176c 393e 9228 bdbd fa46 42be d9a6 f0bd
000002c0: b4a5 81be 805b f43d fa43 823e dd79 a2be
000002d0: cf8e b43d 66dd 223e 9d65 8c3d cad5 d6bd
000002e0: 7f8e 2d3e b347 3f3e 1f27 0f3e bba3 43bd
000002f0: e34e 95bd ee9d 373d 4766 4bbd 89e1 b6bd
00000300: 3a05 653e 3a62 973e 23a0 b2bc 40f4 7bbd
00000310: 955e 903c f14c 06bc 91b7 963d 9456 aa3d
00000320: a6ec 9fbe 6b87 04be 72b2 8a3e d16e f73d
00000330: e996 abbc cb73 57be 9ed9 59be 6659 96be
00000340: 29fd d5bd ac65 f63d dd01 5c3e afe3 1f3e
00000350: 6d83 93be 71bd 4abe 7124 4cbd 07f0 a73e
00000360: 9e97 4e3d 17c8 98bd 02bf 143e f289 06be
00000370: b4c7 4ebe b040 7f3e 5a9d 24be 13f0 5cbd
00000380: 35d2 a6be da0b 6d3e 98b4 843e aab8 033e
00000390: bc31 63be be5a a3be cebe 85be b625 853e
000003a0: 1579 2f3e 3fe6 943e e4f8 313e 0d8d b23d
000003b0: 4466 beba 6683 83be a9ba 8fbe 7ef1 9fbe
000003c0: c6b9 063e 07b8 28be 4add 93bd 076d 39be
000003d0: 3ecd 95bd 0e47 74be f111 53be b1e0 d13d
000003e0: 1d91 dcbd c8f6 5a3e 2d45 e5bd 511f 79be
000003f0: a199 46bd 8f63 1ebe 1b67 bfbd 9a7f 9cbe

layer1.0.bias f4 [32]
0.27940318 -0.052262496 -0.037936997 -0.13597372 -0.30091006 -0.32426608 0.12383856 -0.18297642
-0.21423762 -0.025991501 -0.110972784 -0.10781623 0.010710358 -0.07066419 -0.114681564 -0.15956093
-0.2711762 0.27944303 -0.13334863 0.08829995 -0.11560771 0.027132884 0.31068558 0.15349853
-0.2887609 0.13227913 0.3163411 0.08768294 0.2234519 0.32849985 -0.051083498 0.06916144
00000000: ef0d 8f3e 3311 56bd d363 1bbd b23c 0bbe
00000010: e210 9abe 3406 a6be 129f fd3d 2c5e 3bbe
00000020: 1b61 5bbe 21ec d4bc b345 e3bd c1ce dcbd
00000030: 7f7a 2f3c 63b8 90bd 2bde eabd f163 23be
00000040: 9bd7 8abe 2813 8f3e 8b8c 08be 9bd6 b43d
00000050: bcc3 ecbd c845 de3c 2e12 9f3e b82e 1d3e
00000060: 78d8 93be 2e74 073e 76f7 a13e 1d93 b33d
00000070: 93d0 643e 2231 a83e ee3c 51bd 83a4 8d3d

layer1.1.weight f4 [32]
1.0030318 1.0064288 0.99519247 0.99888283 1.0105067 0.9968183 1.0069014 1.0182923
0.9914814 0.99489826 1.0157918 0.99033743 0.9940644 0.9964927 1.0113746 1.0017579
1.0061862 1.0084713 0.9949927 0.9927347 1.0014305 1.0047592 0.99650115 0.9977762
0.99748623 1.0023026 1.0013133 0.99488896 1.0050901 0.9875798 1.006105 0.99900943
00000000: 5963 803f a9d2 803f efc4 7e3f c9b6 7f3f
00000010: 4958 813f 7c2f 7f3f 25e2 803f 6757 823f
00000020: bad1 7d3f a7b1 7e3f 7705 823f c186 7d3f
00000030: 017b 7e3f 251a 7f3f b974 813f 9a39 803f
00000040: b6ca 803f 9615 813f d7b7 7e3f dc23 7e3f
00000050: e02e 803f f39b 803f b31a 7f3f 436e 7f3f
00000060: 425b 7f3f 744b 803f 092b 803f 0bb1 7e3f
00000070: cba6 803f 08d2 7c3f 0cc8 803f 15bf 7f3f

layer1.1.bias f4 [32]
0.009258878 0.01129434 0.007188438 0.00026716548 0.015354339 -0.0010223634 0.0048502167 -0.00690658
-0.005651094 0.00061245036 -0.010416805 -0.0069529754 -0.0046696863 0.013789684 0.005094854 0.007468872
0.012368123 0.013595193 0.00024656105 -0.006538421 0.016065277 0.016122151 0.00048745912 -0.0003745775
0.0070261704 0.010483536 0.010242857 0.008318776 0.013713985 -0.005952314 0.010720044 0.002882716
00000000: 8db2 173c e50b 393c fd8c eb3b 5812 8c39
00000010: c490 7b3c d300 86ba 91ee 9e3b 9850 e2bb
00000020: d02c b9bb d98c 203a 3fab 2abc c9d5 e3bb
00000030: 2b04 99bb 20ee 613c bcf2 a63b 70bd f43b
00000040: aba3 4a3c 5fbe 5e3c dd44 8139 4040 d6bb
00000050: 549b 833c 9a12 843c a891 ff39 f162 c4b9
00000060: ca3b e63b 23c3 2b3c a8d1 273c 7a4b 083c
00000070: 9fb0 603c a10b c3bb 20a3 2f3c f3eb 3c3b

layer1.1.running_mean f4 [32]
-1.5592102 -1.4565003 1.0996311 -0.11308443 -1.8092655 0.23754601 -0.4658576 -0.18399888
0.42403004 0.30379316 -0.116442576 2.221711 1.041805 2.3106337 -0.36294195 1.2790334
-1.1479787 -0.56392986 0.43461078 0.809921 -1.0867352 -0.5678628 0.86288774 0.33743787
0.55982774 -0.7444042 1.4910446 1.4806472 0.28307506 0.5287554 -1.080508 1.8740339
00000000: 3394 c7bf 9a6e babf b6c0 8c3f cf98 e7bd
00000010: 0396 e7bf 433f 733e e384 eebe 346a 3cbe
00000020: 771a d93e c78a 9b3e 7279 eebd 8330 0e40
00000030: de59 853f 6ce1 1340 87d3 b9be 5eb7 a33f
00000040: f7f0 92bf b55d 10bf 4e85 de3e fc56 4f3f
00000050: 241a 8bbf 755f 11bf 36e6 5c3f a8c4 ac3e
00000060: df50 0f3f 4691 3ebf 8dda be3f d985 bd3f
00000070: 37ef 903e 845c 073f 164e 8abf 58e0 ef3f

layer1.1.running_var f4 [32]
14.021932 8.369496 5.468607 0.5035894 9.527676 1.510739 1.6590947 0.17950067
2.242303 0.6805774 0.5329838 22.500883 4.561002 23.306639 0.7695673 8.808865
3.4871812 3.4247186 1.644006 2.6307096 4.03664 1.6823022 1.497839 0.39036834
3.3204823 3.6381326 6.2221847 8.251024 0.73506796 0.61850893 4.630542 13.82736
00000000: d559 6041 75e9 0541 d4fe ae40 3ceb 003f
00000010: 5c71 1841 e55f c13f 375d d43f 06cf 373e
00000020: e481 0f40 523a 2e3f a071 083f cf01 b441
00000030: baf3 9140 ff73 ba41 5d02 453f 1cf1 0c41
00000040: fa2d 5f40 972e 5b40 ca6e d23f 8c5d 2840
00000050: 282c 8140 ae55 d73f 30b9 bf3f 5cde c73e
00000060: c882 5440 2ad7 6840 231c c740 3204 0441
00000070: 6a2d 3c3f 9a56 1e3f 662d 9440 de3c 5d41

layer1.3.fc1.weight f4 [4, 32, 1, 1]
-0.12532091 -0.03890709 0.13041857 0.088890664 -0.114335164 -0.14234327 -0.12328626 -0.17664425
-0.13715066 -0.044461437 0.11797368 0.029143468 -0.13489313 -0.14224726 0.085524626 -0.1320023
-0.024273057 0.08228815 -0.08247168 -0.020201623 -0.017888565 -0.044346645 -0.09051486 -0.1585567
-0.14340228 -0.09715369 0.17010625 -0.08593424 -0.12047583 0.041251577 0.046212815 0.09637372
0.13206437 0.09615749 -0.1747935 0.01300723 0.104787804 -0.01617207 -0.10646139 0.16599758
-0.06617533 -0.10241667 -0.16240676 0.008449245 0.078829795 0.039770264 0.032501567 -0.1330248
-0.1673318 0.00086809555 0.15950467 0.10144827 -0.105182625 -0.02520471 -0.13145821 -0.08736697
0.03188727 0.093939155 0.14668857 -0.16130903 0.116045535 -0.12832582 0.0639149 0.1503382
0.014631166 0.1730031 -0.15864879 -0.0567072 0.11530019 -0.045935486 -0.024242721 -0.06279423
0.115438625 0.08148288 0.068231665 -0.107365794 -0.15111558 0.010882043 0.06491787 -0.08913389
-0.037401114 0.13209866 0.014856399 0.006118375 -0.031402584 -0.14791447 -0.17044006 -0.08679586
-0.09799331 0.066871054 -0.059834182 -0.076577775 0.1720805 0.07112878 0.13821214 -0.09335979
-0.07218793 0.06495474 -0.11775038 -0.115529954 -0.008535982 -0.06464012 -0.13248637 0.10482835
0.14211886 0.028669884 -0.030770827 -0.16369839 -0.06437107 0.04499288 0.08333313 -0.022341708
-0.06987058 0.098477975 -0.1407465 0.11169636 -0.06856318 0.0027049023 -0.03492459 0.02142649
-0.053407278 0.12850341 -0.0045944746 0.13795462 0.16992216 -0.08610047 -0.12892452 0.1417899
00000000: 2054 00be 0a5d 1fbd 728c 053e 4f0c b63d
00000010: 8e28 eabd 6fc2 11be 827d fcbd 3be2 34be
00000020: 3971 0cbe 321d 36bd 2f9c f13d 48be ee3c
00000030: 6d21 0abe 44a9 11be 8927 af3d 9c2b 07be
00000040: 4ad8 c6bc b186 a83d eae6 a8bd e07d a5bc
00000050: 0a8b 92bc d4a4 35bd db5f b9bd b05c 22be
00000060: 0cd8 12be 84f8 c6bd 5530 2e3e 4afe afbd
00000070: 08bc f6bd 6af7 283d a649 3d3d 965f c53d
00000080: e23b 073e 38ee c43d 11fd 32be 471c 553c
00000090: fd9a d63d 4a7b 84bc 6e08 dabd 45fb 293e
000000a0: ee86 87bd d5bf d1bd f54d 26be b46e 0a3c
000000b0: 8471 a13d 25e6 223d 5d20 053d a737 08be
000000c0: 0759 2bbe e890 633a 3155 233e 1cc4 cf3d
000000d0: fd69 d7bd 1c7a cebc fb9c 06be 74ed b2bd
000000e0: 3a9c 023d 2c63 c03d 8735 163e 322e 25be
000000f0: 48a9 ed3d d867 03be d1e5 823d 42f2 193e
00000100: 8fb7 6f3c ba27 313e d474 22be cf45 68bd
00000110: 8222 ec3d d926 3cbd ac98 c6bc 439a 80bd
00000120: 166b ec3d 7fe0 a63d 0bbd 8b3d 99e2 dbbd
00000130: 0bbe 1abe 994a 323c a9f3 843d d48b b6bd
00000140: e931 19bd df44 073e 4168 733c a67c c83b
00000150: ff9f 00bd e476 17be d787 2ebe 07c2 b1bd
00000160: b7b0 c8bd b1f3 883d b014 75bd cfd4 9cbd
00000170: df35 303e f7ab 913d 7c87 0d3e 6b33 bfbd
00000180: 44d7 93bd fe06 853d 1c27 f1bd f89a ecbd
00000190: 81da 0bbc 0a62 84bd 82aa 07be 3fb0 d63d
000001a0: 9b87 113e 1bdd ea3c 1a13 fcbc 8da0 27be
000001b0: fbd4 83bd 744a 383d 8faa aa3d f505 b7bc
000001c0: 4f18 8fbd d2ae c93d da1f 10be 10c1 e43d
000001d0: da6a 8cbd bb44 313b 160d 0fbd 9b86 af3c
000001e0: 97c1 5abd 6696 033e 3f8d 96bb fa43 0d3e
000001f0: 1300 2e3e 7155 b0bd ca04 04be 5f31 113e

layer1.3.fc1.bias f4 [4]
0.13596341 -0.1364141 -0.0020372812 -0.17427705
00000000: fe39 0b3e 23b0 0bbe e883 05bb af75 32be

layer1.3.fc2.weight f4 [32, 4, 1, 1]
-0.40714312 0.09399671 0.14006463 0.1059622 -0.13647325 0.46042362 0.08555878 -0.29496446
-0.029315306 0.11869461 0.16058049 -0.35344625 0.18642385 -0.26167235 -0.41015494 -0.27303094
0.48294926 0.43105885 0.46333146 0.29342768 0.37719852 -0.07132296 -0.28695554 0.24976155
-0.25771457 -0.33772713 -0.14709747 0.1049013 0.2550015 -0.19101956 -0.2880827 0.06742864
-0.29624775 -0.32578322 0.25622162 -0.08396976 0.45690474 0.48893633 0.13355266 0.17203176
0.1140074 0.009084992 -0.022168605 0.006870223 0.1878405 0.46551192 -0.12850387 -0.21130124
-0.12309019 -0.24142109 0.0855057 0.3731258 0.3897095 0.22920118 -0.37669265 -0.26828083
-0.11010771 -0.09226945 0.053661767 -0.458867 0.15608114 -0.3823411 -0.32553852 -0.41557983
0.4347903 -0.47060913 0.39162895 -0.016803978 -0.05634316 0.308782 -0.036996536 0.3134945
0.3604877 -0.43104956 0.1755729 0.094364464 0.10682779 0.076529115 0.12554501 -0.24046677
-0.062230274 0.46913213 0.33939525 -0.01877927 -0.46874633 0.015081226 -0.3380691 0.4064845
-0.3028968 -0.035581693 -0.1286696 0.08895307 0.47041473 0.04531379 0.27853367 0.38800934
0.40373567 -0.16930325 -0.12251464 0.24090225 -0.13383187 0.232674 -0.10132967 -0.339036
0.20138334 0.07979432 0.21441817 0.49660957 0.34059 0.47396925 0.02066871 -0.42999142
-0.35312688 -0.31588626 -0.44874322 -0.2505524 -0.46102658 -0.46790162 -0.31357577 -0.4927835
-0.30372235 0.19452758 0.43455422 -0.14869177 -0.14525293 0.26609477 -0.25568882 -0.23635226
00000000: 1075 d0be 5981 c03d 1a6d 0f3e b602 d93d
00000010: a5bf 0bbe a5bc eb3e 7139 af3d 9505 97be
00000020: a726 f0bc 2916 f33d 366f 243e e8f6 b4be
00000030: e5e5 3e3e ebf9 85be d4ff d1be b6ca 8bbe
00000040: 2045 f73e bfb3 dc3e c839 ed3e 273c 963e
00000050: 2a20 c13e c611 92bd d6eb 92be 7ec1 7f3e
00000060: 2af3 83be 92ea acbe b8a0 16be 7ed6 d63d
00000070: 8e8f 823e a29a 43be 937f 93be 0718 8a3d
00000080: c9ad 97be 0fcd a6be 7b2f 833e 56f8 abbd
00000090: 6bef e93e dd55 fa3e 07c2 083e 1829 303e
000000a0: b67c e93d 38d9 143c ef9a b5bc 9c1f e13b
000000b0: 4359 403e 9457 ee3e 8596 03be 5a5f 58be
000000c0: b616 fcbd 1737 77be 9d1d af3d 580a bf3e
000000d0: 0188 c73e b7b3 6a3e dcdd c0be 1b5c 89be
000000e0: 2780 e1bd c4f7 bcbd 71cc 5b3d 9ef0 eabe
000000f0: bcd3 1f3e 36c2 c3be fcac a6be e1c6 d4be
00000100: d69c de3e aef3 f0be 9783 c83e 7fa8 89bc
00000110: 16c8 66bd ad18 9e3e ae89 17bd 5a82 a03e
00000120: d891 b83e 87b2 dcbe 62c9 333e 2842 c13d
00000130: 87c8 da3d 4cbb 9c3d df8e 003e ec3c 76be
00000140: 2ce5 7ebd 1632 f03e 37c5 ad3e fcd6 99bc
00000150: 85ff efbe 3f17 773c 6517 adbe bd1e d03e
00000160: 4a15 9bbe 1cbe 11bd f7c1 03be 072d b63d
00000170: 33da f03e f49a 393d f79b 8e3e 29a9 c63e
00000180: 71b6 ce3e d55d 2dbe f5e8 fabd 14af 763e
00000190: 390b 09be 1842 6e3e ee85 cfbd 2096 adbe
000001a0: 6f37 4e3e 346b a33d 7090 5b3e 9c43 fe3e
000001b0: d061 ae3e 19ac f23e 6d51 a93c d627 dcbe
000001c0: 0ccd b4be d8bb a1be acc1 e5be 6748 80be
000001d0: ad0b ecbe cd90 efbe 018d a0be 1e4e fcbe
000001e0: 7f81 9bbe 3d32 473e e47d de3e a842 18be
000001f0: 2fbd 14be 933d 883e a5e9 82be 5406 72be

layer1.3.fc2.bias f4 [32]
0.31125146 -0.43055138 0.056512974 0.44106942 0.09550289 0.13295949 -0.2835882 0.012106475
0.019363966 0.11797012 0.20978689 0.42490152 -0.38738364 0.011814918 -0.2389186 -0.39345402
-0.03422588 -0.43281052 0.34420228 0.05093193 -0.2673273 0.2675598 -0.47649607 -0.19527574
-0.09971687 -0.42277882 -0.31626925 -0.086477764 0.38441312 0.47035065 0.3216991 -0.29930556
00000000: 5a5c 9f3e 3b71 dcbe 267a 673d dad3 e13e
00000010: 0597 c33d 8826 083e 7932 91be 3d5a 463c
00000020: 2ea1 9e3c 519a f13d 60d2 563e b18c d93e
00000030: 2657 c6be 5c93 413c 14a7 74be ce72 c9be
00000040: 7030 0cbd 5799 ddbe 483b b03e 009e 503d
00000050: 20df 88be 99fd 883e 4bf7 f3be 5df6 47be
00000060: 5c38 ccbd 7776 d8be 0bee a1be 411b b1bd
00000070: ccd1 c43e cdd1 f03e bfb5 a43e 943e 99be

branch3.weight f4 [64, 32, 3, 3]
-0.03050364 0.05868495 0.027997857 0.009261921 0.015261763 -0.04019443 -0.012439146 0.063283
-0.008008507 0.004568742 -0.041711908 -0.025949229 0.006063462 -0.02964281 -0.00052781013 0.030477468
-0.051368814 0.023601534 -0.044618014 -0.03322079 0.01941892 0.041213736 -0.020477083 -0.027249977
-0.058617588 -0.0345476 -0.054417316 -0.017626246 0.009430932 -0.056024417 0.0478524 0.035100367
-0.05803564 -0.031966407 0.016864117 -0.012515093 0.001296277 -0.019243142 0.054230906 -0.025252754
0.055843383 0.010740113 0.018809961 0.052468408 -0.0032106752 -0.038952347 -0.013571581 0.04478293
-0.048778143 0.009500511 -0.060496077 0.02574444 0.017900486 -0.0003038021 0.033911623 0.008292244
0.040259868 -0.037898775 -0.0007113662 0.033557925 0.0667786 0.037631184 -0.035406288 0.048396744
-0.012863846 -0.010427614 -0.048950262 -0.0070314035 0.044509187 0.012367269 -0.03330553 0.021226518
-0.023505531 0.04997705 -0.054413337 -0.022726435 -0.05958801 -0.02592886 0.01481452 0.05386339
0.0070922584 0.04993794 0.0050383233 0.02952663 0.0395618 0.042828232 -0.0373019 0.046656467
0.029478937 -0.031543236 -0.021609904 -0.041053645 0.020278508 -0.041145533 0.032596674 0.024081308
-0.044432722 0.02362743 0.0005309777 0.021423256 0.029549591 -0.06149148 0.048673708 0.045311972
0.020507371 -0.05893818 -0.024885943 -0.019784968 -0.021254087 0.028262423 0.017793464 0.04067653
-0.026802631 0.016419444 0.015034346 -0.053620562 -0.060232382 -0.035589177 0.036374222 -0.05827168
-0.05607496 0.029262181 0.028983865 0.043707248 -0.047908902 -0.04563409 0.029405557 0.04938461
0.038033884 0.0074214656 0.017575584 0.05838259 -0.041737914 -0.02969649 0.043078598 -0.045152962
-0.03633016 0.03984151 0.013958277 0.015435207 -0.02776372 -0.0051408326 0.050634343 -0.037830386
0.0091321785 0.03608952 -0.032925032 0.065369606 -0.021508597 -0.006745957 -0.008050286 -0.030998606
-0.050716355 0.040013805 0.021837307 -0.048873797 -0.031180348 0.06419033 0.028549433 0.02938171
-0.030380659 -0.020516772 -0.015014618 -0.015190115 -0.0432336 -0.0012323936 0.0015125645 -0.010206366
0.0022541864 -0.02737237 0.012754732 0.018712696 -0.033766825 -0.061124545 0.02766288 0.011637088
-0.03243441 0.053645797 -0.029077528 0.037020348 0.03805191 -0.041391123 0.04553412 -0.045932982
-0.024908612 -0.0023263267 -0.031985488 0.06462613 -0.004744011 0.03145146 -0.044936366 0.040751845
-0.010370149 -0.03762989 0.015166783 0.035301615 0.056967624 -0.03021474 -0.032289766 0.008767624
0.013636069 0.019278212 0.0296434 -0.015902579 0.029664183 0.04096672 -0.017802538 0.03294366
0.020928225 0.04590985 -0.04186781 -0.036477704 -0.022476774 -0.0055069304 0.028072394 -0.038505808
0.023878992 -0.025279889 0.03254043 -0.008346098 -0.055723622 -0.03534046 -0.048005827 0.025060086
-0.042329382 0.0022398594 0.019522764 -0.025765384 0.024185512 -0.05051114 -0.03559586 -0.045982387
-0.010946421 -0.014937686 0.0040488066 -0.014026994 0.025028167 0.049878262 0.01826012 -0.025562653
-0.059055593 0.018428167 -0.031677876 0.025569044 0.035874374 0.019745182 0.051070895 0.052737344
0.009820914 -0.046771236 0.049636647 -0.030386733 -0.034885935 0.042200603 0.039214715 0.011267116
00000000: c5e2 f9bc a15f 703d c35b e53c 50bf 173c
00000010: 790c 7a3c eaa2 24bd 8fcd 4bbc 849a 813d
00000020: 1d36 03bc 63b5 953b 1bda 2abd 7a93 d4bc
00000030: 01b0 c63b 7ad5 f2bc bd5c 0aba e2ab f93c
00000040: 1b68 52bd 0158 c13c 61c1 36bd 8612 08bd
00000050: 6d14 9f3c bccf 283d 8ebf a7bc 583b dfbc
00000060: ff18 70bd c981 0dbd b1e4 5ebd eb64 90bc
00000070: 3284 1a3c dc79 65bd e100 443d 67c5 0f3d
00000080: c7b6 6dbd 35ef 02bd 9e26 8a3c 1b0c 4dbc
00000090: d7e7 a93a cba3 9dbc 3a21 5e3d ddde cebc
000000a0: 08bc 643d 4df7 2f3c 5917 9a3c 1de9 563d
000000b0: 316a 52bb 7f8c 1fbd 565b 5ebc 4e6e 373d
000000c0: 97cb 47bd 08a8 1b3c bcca 77bd 01e6 d23c
000000d0: 0aa4 923c a147 9fb9 eae6 0a3d 31dc 073c
000000e0: 88e7 243d bf3b 1bbd fa7a 3aba 0974 093d
000000f0: 38c3 883d 2823 1a3d 2f06 11bd aa3b 463d
00000100: e1c2 52bc 95d8 2abc 1280 48bd b067 e6bb
00000110: 444f 363d 16a0 4a3c 616b 08bd 3ce3 ad3c
00000120: ac8e c0bc bcb4 4c3d 85e0 5ebd ca2c babc
00000130: 8f12 74bd c368 d4bc 9ab8 723c dc9f 5c3d
00000140: 2d66 e83b ba8b 4c3d 8518 a53b d5e1 f13c
00000150: 8e0b 223d a86c 2f3d e1c9 18bd da1a 3f3d
00000160: d07d f13c 7b33 01bd 4107 b1bc de27 28bd
00000170: 1d1f a63c 3888 28bd 1784 053d 2a46 c53c
00000180: 16ff 35bd 508e c13c 4f31 0b3a d37f af3c
00000190: fc11 f23c 7dde 7bbd 155e 473d 0c99 393d
000001a0: 13ff a73c 2969 71bd 9bdd cbbc 1614 a2bc
000001b0: 0d1d aebc 9986 e73c 99c3 913c 6f9c 263d
000001c0: 3191 dbbc 1282 863c 9e52 763c 3ca1 5bbd
000001d0: 3bb6 76bd f5c5 11bd 23fd 143d 49ae 6ebd
000001e0: dbae 65bd 3eb7 ef3c 926f ed3c 5f06 333d
000001f0: 203c 44bd d0ea 3abd ece3 f03c 8447 4a3d
00000200: 6bc9 1b3d c42f f33b acfa 8f3c 9522 6f3d
00000210: 60f5 2abd 0e46 f3bc 2f73 303d 50f2 38bd
00000220: efce 14bd da30 233d 42b1 643c f3e3 7c3c
00000230: be70 e3bc 6e74 a8bb f565 4f3d 09f4 1abd
00000240: 229f 153c 9bd2 133d 66dc 06bd 80e0 853d
00000250: cc32 b0bc 300d ddbb 59e5 03bc caf0 fdbc
00000260: f4bb 4fbd 84e5 233d 27e4 b23c e42f 48bd
00000270: ee6d ffbc 3876 833d 80e0 e93c e9b1 f03c
00000280: dce0 f8bc ca12 a8bc dfff 75bc f6df 78bc
00000290: b715 31bd 4488 a1ba 3e41 c63a 9a38 27bc
000002a0: f9ba 133b 053c e0bc 39f9 503c 5e4b 993c
000002b0: 154f 0abd bb5d 7abd 449d e23c 7ca9 3e3c
000002c0: f2d9 04bd b2bb 5b3d ff33 eebc a6a2 173d
000002d0: 52dc 1b3d bd89 29bd fc81 3a3d 3924 3cbd
000002e0: 250d ccbc 4975 18bb 3703 03bd b45a 843d
000002f0: a673 9bbb 3fd3 003d 320f 38bd 68eb 263d
00000300: 8fe7 29bc cd21 1abd 197e 783c 6d98 103d
00000310: e256 693d e784 f7bc 4642 04bd 15a6 0f3c
00000320: d269 5f3c 57ed 9d3c b7d6 f23c 2046 82bc
00000330: 4d02 f33c b8cc 273d a1d6 91bc eeef 063d
00000340: ab71 ab3c f80b 3c3d 957d 2bbd a569 15bd
00000350: 3621 b8bc 7b73 b4bb 14f8 e53c 44b8 1dbd
00000360: e09d c33c c517 cfbc 1d49 053d 12be 08bc
00000370: 743e 64bd 28c1 10bd c2a1 44bd cf4a cd3c
00000380: 9361 2dbd 9bca 123b 34ee 9f3c ed11 d3bc
00000390: b220 c63c c5e4 4ebd f7cc 11bd 0758 3cbd
000003a0: 9e58 33bc 32bd 74bc daab 843b 7ad1 65bc
000003b0: df07 cd3c 264d 4c3d 3f96 953c c568 d1bc
000003c0: 47e4 71bd abf6 963c a9c0 01bd 2c76 d13c
000003d0: 02f1 123d a6c0 a13c b72f 513d 1d03 583d
000003e0: e6e7 203c 3293 3fbd cc4f 4b3d 99ed f8bc
000003f0: 8ee4 0ebd 8ada 2c3d 9c9f 203d b699 383c

branch3.bias f4 [64]
-0.010407214 -0.052663527 0.054963175 0.042451628 -0.043203104 -0.056216124 0.05130754 0.04872006
-0.052862603 0.012406035 -0.037363335 -0.043378048 -0.0409747 0.0019625926 0.054295048 0.027487818
-0.054488577 0.031894602 0.05354806 0.041415006 0.0544167 -0.03413292 -0.029635143 0.032497354
-0.046633277 -0.016496925 0.0423757 0.018405907 -0.015628396 0.0235853 -0.027369805 -0.029874038
0.01761857 -0.028068237 0.041095752 0.026238121 0.036117963 0.04263919 0.0073593785 -0.021712132
-0.049438786 -0.017015459 -0.04942189 0.035984606 0.004539964 -0.025182981 -0.0020389296 0.042492054
-0.025536977 0.011614538 0.00780305 -0.008023457 -0.013561445 0.022092363 -0.019088054 -0.04852935
0.013605366 -0.034292363 -0.030274054 0.0017365766 0.028420387 -0.017108042 -0.034951232 0.027153289
00000000: 0583 2abc b6b5 57bd 1121 613d c2e1 2d3d
00000010: bdf5 30bd e142 66bd db27 523d b08e 473d
00000020: 7586 58bd af42 4b3c 4c0a 19bd 2ead 31bd
00000030: 16d5 27bd d79e 003b 7c64 5e3d 222e e13c
00000040: 6a2f 5fbd eaa3 023d 3655 5b3d c8a2 293d
00000050: 0ce4 5e3d f6ce 0bbd 66c5 f2bc f21b 053d
00000060: 8902 3fbd 8f24 87bc 2492 2d3d fcc7 963c
00000070: 1f07 80bc f635 c13c a436 e0bc 66ba f4bc
00000080: d254 903c 5cef e5bc 0554 283d 54f1 d63c
00000090: 6ef0 133d 6ea6 2e3d f126 f13b a4dd b1bc
000000a0: 5380 4abd 0164 8bbc 9c6e 4abd 9864 133d
000000b0: fac3 943b 8a4c cebc 909f 05bb 260c 2e3d
000000c0: ec32 d1bc e74a 3e3c bab0 ff3b d174 03bc
000000d0: d330 5ebc 0bfb b43c 8d5e 9cbc b6c6 46bd
000000e0: 0be9 5e3c 2676 0cbd 4b01 f8bc d79d e33a
000000f0: dfd1 e83c 2a26 8cbc 0629 0fbd 9370 de3c

branch5.weight f4 [64, 32, 5, 5]
-0.018640887 0.0099578565 0.012510568 0.00204055 -0.005565258 -0.0015830476 -0.017393613 0.025325123
-0.0004783615 -0.011295728 -0.01563658 0.018344888 -0.019163998 0.017007224 0.0034973123 -0.028275432
0.025933405 0.016726838 0.017878257 -0.012157553 -0.025607895 0.020909473 -0.023249416 0.020609153
0.034134876 -0.0018073324 -0.026306879 0.028473482 -0.03054695 -0.0083186 -0.023335509 0.016757505
0.03407584 -0.019247057 -0.016978057 0.031513613 0.019672517 0.027340012 -0.021872027 0.036166932
-0.009096511 -0.01609303 -0.008216535 0.0058872174 0.02385551 -0.0045245457 -0.019382669 0.010074589
-0.029604312 -0.02402252 0.0075300615 0.033300705 -0.013534869 0.023058658 -0.017800324 -0.011638651
0.035104442 0.013879488 -0.011164956 -0.012600762 0.007165261 0.022568803 0.029625192 0.004899917
-0.013376283 0.016365457 -0.026738927 0.0019837096 -0.028546473 -0.003941975 -0.0032991557 0.025130756
0.006408252 -0.024517536 0.014269957 -0.0151667865 -0.03495807 -0.043184604 -0.009159709 -0.034674767
-0.025635643 -0.026963424 -0.03680255 -0.036757883 -0.017697722 -0.013796225 0.014453929 -0.040833235
0.0150105255 0.018897885 -0.046237443 0.01219357 0.014035157 -0.039478723 0.0042263246 0.0022989684
0.006703203 -0.025343614 -0.029810568 -0.013608503 -0.0074875695 0.018175177 -0.023565622 0.033022135
-0.0075686886 0.023451373 -0.008692234 -0.0027559125 0.008674941 -0.027278947 0.019925402 0.03481507
-0.023200816 0.016898362 -0.028326327 0.0028486594 -0.012192286 -0.026580283 0.01921268 0.02566533
0.009705028 0.016517313 -0.014616121 0.02765205 -0.023507984 -0.009980737 -0.006775402 -0.011588792
0.027543247 0.027327934 0.015691403 -0.010478506 -0.019073335 -0.011067601 -0.012512038 0.00056142366
0.017442307 0.029041352 0.022459418 -0.025987646 0.02563148 -0.031581737 0.0012836353 0.005347924
-0.005309205 -0.014229672 -0.017603157 0.016715653 -0.02399905 0.0029612111 0.014700786 0.028139634
0.0014560301 0.03164953 -0.03203221 -0.017565671 -0.02945456 -0.001091156 -0.020565806 0.025291054
-0.015037936 0.0032658288 0.028607652 -0.033308305 0.015929142 -0.02812638 0.017104648 -0.009324435
-0.028822418 0.0068008727 0.0045250133 0.01287513 0.02201715 -0.0029681786 -0.01558913 0.017768195
-0.02611598 0.012181542 0.0070021884 -0.050989702 -0.022896158 -0.012774257 -0.04370758 -0.00927113
-0.031895522 -0.0320799 0.010365596 -0.0019701654 0.01787463 -0.024568906 -0.025535611 -0.03800236
-0.012615119 0.011512066 -0.021234106 -0.024749761 0.0069426894 -0.012358753 -0.007911324 0.015541478
0.03322703 0.034058023 -0.028681472 0.0060239336 0.025670217 0.03272438 -0.023823814 0.025402514
-0.015398799 -0.018182272 -0.017614327 -0.015351603 -0.0060621644 -0.0035214152 -0.017883046 0.021315247
-0.017613193 0.027669445 -0.032228574 0.01077765 -0.020391151 -0.016373394 0.0065242774 -0.0029824236
-0.019805232 -0.01063397 -0.027150601 -0.01826411 0.016868487 -0.00047153654 -0.017011844 0.021314252
0.0047227996 0.020292124 0.0105376225 -0.005021993 -0.017492685 -0.016534101 0.02415767 0.004939681
0.02140881 0.0144364275 -0.0074386797 -0.03559333 0.008058536 -0.016417509 -0.00228253 -0.021120034
0.017231436 0.022888783 -0.030453939 -0.015746297 -0.04070985 -0.0011321743 -0.04025384 -0.03763547
00000000: c6b4 98bc 4726 233c 20f9 4c3c c0ba 053b
00000010: c55c b6bb 437e cfba 0d7d 8ebc a276 cf3c
00000020: 98cc fab9 b811 39bc 4918 80bc 0548 963c
00000030: d1fd 9cbc bc52 8b3c 2a33 653b e1a1 e7bc
00000040: 4b72 d43c b906 893c 6c75 923c 7930 47bc
00000050: a6c7 d1bc 584a ab3c 8f75 bebc 87d4 a83c
00000060: 03d1 0b3d 03e4 ecba 8681 d7bc 3841 e93c
00000070: 993d fabc bd4a 08bc 1c2a bfbc 0947 893c
00000080: 1c93 0b3d 01ac 9dbc 9115 8bbc 6b14 013d
00000090: 4228 a13c 29f8 df3c f72c b3bc c723 143d
000000a0: 8809 15bc 88d5 83bc a59e 06bc 8fe9 c03b
000000b0: a16c c33c a442 94bb 67c8 9ebc e40f 253c
000000c0: be84 f2bc e0ca c4bc bcbe f63b 5266 083d
000000d0: 5bc1 5dbc 83e5 bc3c fcd1 91bc 0ab0 3ebc
000000e0: adc9 0f3d cb66 633c 38ed 36bc 6d73 4ebc
000000f0: 91ca ea3b 36e2 b83c 88b0 f23c 7c8f a03b
00000100: 3328 5bbc da10 863c 980b dbbc 2001 023b
00000110: 4bda e9bc af2b 81bb a636 58bb 04df cd3c
00000120: 50fc d13b 00d9 c8bc 8acc 693c 1d7e 78bc
00000130: 3130 0fbd 57e2 30bd 9b12 16bc 2107 0ebd
00000140: d701 d2bc 66e2 dcbc 45be 16bd 6f8f 16bd
00000150: d0fa 90bc 9009 62bc 2cd0 6c3c c040 27bd
00000160: b5ee 753c bdcf 9a3c 7963 3dbd 8ac7 473c
00000170: b7f3 653c 71b4 21bd fb7c 8a3b 4aaa 163b
00000180: 8ba6 db3b 699d cfbc 4b35 f4bc 33f6 5ebc
00000190: 495a f5bb 1ce4 943c b10c c1bc 3842 073d
000001a0: c302 f8bb 181d c03c df69 0ebc 8a9c 34bb
000001b0: 5721 0e3c 1978 dfbc 993a a33c 3f9a 0e3d
000001c0: a30f bebc 6f6e 8a3c 9d0c e8bc 93b0 3a3b
000001d0: 27c2 47bc e5be d9bc e963 9d3c 1940 d23c
000001e0: d601 1f3c 514f 873c 7478 6fbc 8d86 e23c
000001f0: d193 c0bc 3f86 23bc 3104 debb ebde 3dbc
00000200: 60a2 e13c d5de df3c 428b 803c 0aae 2bbc
00000210: af3f 9cbc e254 35bc 4bff 4cbc 812c 133a
00000220: 2be3 8e3c 21e8 ed3c d0fc b73c 0be4 d4bc
00000230: 1cf9 d13c da5b 01bd a73f a83a a33d af3b
00000240: d7f8 adbb 9223 69bc 7f34 90bc 44ef 883c
00000250: a899 c4bc e110 423b 91db 703c 1785 e63c
00000260: 43d8 be3a f0a2 013d 3534 03bd e2e5 8fbc
00000270: b04a f1bc 1f05 8fba 9f79 a8bc 2f2f cf3c
00000280: ad61 76bc 8407 563b 985a ea3c 4a6e 08bd
00000290: d57d 823c 4b69 e6bc 0c1f 8c3c 84c5 18bc
000002a0: fe1c ecbc dbd9 de3b 9046 943b 36f2 523c
000002b0: 4f5d b43c c685 42bb 8d69 7fbc 9b8e 913c
000002c0: 2ef1 d5bc 1795 473c 9d72 e53b 94da 50bd
000002d0: b990 bbbc 1e4b 51bc b806 33bd f0e5 17bc
000002e0: e1a4 02bd 3766 03bd 76d4 293c e41d 01bb
000002f0: d16d 923c bb44 c9bc 0f30 d1bc 5da8 1bbd
00000300: a5af 4ebc 1b9d 3c3c 26f3 adbc 03c0 cabc
00000310: 807f e33b 5e7c 4abc 7f9e 01bc afa1 7e3c
00000320: 1119 083d 6d80 0b3d 68f5 eabc 6b64 c53b
00000330: 594a d23c 000a 063d 292a c3bc ef18 d03c
00000340: 3f4b 7cbc fdf2 94bc ec4b 90bc 4a85 7bbc
00000350: 1fa5 c6bb 8bc7 66bb 777f 92bc 509d ae3c
00000360: 8b49 90bc 08ab e23c 1c02 04bd be94 303c
00000370: 580b a7bc 7f21 86bc 9bc9 d53b c474 43bb
00000380: 953e a2bc 1a3a 2ebc f06a debc 9d9e 95bc
00000390: c82f 8a3c 9038 f7b9 6c5c 8bbc 3a9b ae3c
000003a0: b7c1 9a3b ab3b a63c fea5 2c3c 888f a4bb
000003b0: d24c 8fbc 8672 87bc 4ee6 c53c 0cdd a13b
000003c0: 8761 af3c c486 6c3c 2bc0 f3bb 50ca 11bd
000003d0: f307 043c 037e 86bc 8096 15bb ec03 adbc
000003e0: f128 8d3c 4281 bb3c 8a7a f9bc 61fe 80bc
000003f0: 5fbf 26bd 7765 94ba 36e1 24bd a727 1abd

branch5.bias f4 [64]
-0.010554407 -0.029646177 -0.012767433 0.004735646 0.02931645 -0.030584132 -0.005625195 0.026101805
0.033165466 0.018181197 0.014691735 0.005684929 -0.032498922 -0.009050967 -0.03390005 -0.020546231
-0.021221302 0.027628329 0.025784433 0.020362709 0.02905473 0.013173608 0.019436363 0.008143065
-0.0016901132 -0.013293882 0.012016758 0.006011178 0.02725856 -0.026353661 -0.015567422 -0.015622327
-0.03159262 -0.0114584705 -0.0056427014 0.027749766 -0.033896357 0.030165784 0.008184055 -0.0023697715
-0.025553418 -0.017005613 -0.029923707 0.016248453 0.01543921 -0.021859754 -0.030712485 -0.0024911438
0.023590017 0.0069133714 -0.026842235 -0.03384757 0.021427901 0.014637479 -0.03140859 -0.029220305
0.006380754 8.123592e-05 -0.01913388 0.00059360074 -0.023685636 0.025016222 0.007444706 0.022597792
00000000: 64ec 2cbc 8adc f2bc 7f2e 51bc 7a2d 9b3b
00000010: 0d29 f03c 938b fabc 8e53 b8bb 74d3 d53c
00000020: 83d8 073d bcf0 943c 9ab5 703c a448 ba3b
00000030: 971d 05bd 824a 14bc c7da 0abd 9250 a8bc
00000040: 4cd8 adbc ce54 e23c e039 d33c b2cf a63c
00000050: 2f04 ee3c 1ed6 573c 0239 9f3c 7d6a 053c
00000060: ca86 ddba 95ce 59bc f0e1 443c 6af9 c43b
00000070: 584d df3c a2e3 d7bc 800e 7fbc caf4 7fbc
00000080: 4367 01bd 4fbc 3bbc 69e6 b8bb 7a53 e33c
00000090: e8d6 0abd 3c1e f73c 6a16 063c 2b4e 1bbb
000000a0: 6755 d1bc 5b4f 8bbc 9022 f5bc 7a1b 853c
000000b0: bef4 7c3c 3a13 b3bc c098 fbbc 7542 23bb
000000c0: da3f c13c 9089 e23b 3fe4 dbbc c0a3 0abd
000000d0: 9189 af3c 09d2 6f3c 4ba6 00bd 6c5f efbc
000000e0: a515 d13b 345d aa38 a8be 9cbc df9b 1b3a
000000f0: 6108 c2bc d2ee cc3c b8f2 f33b 011f b93c

bn_ms.weight f4 [128]
0.9968165 0.99705476 1.0032758 1.0035579 0.99886626 1.0072979 1.0046122 0.9972684
1.0045723 1.001846 1.010529 1.0051181 1.0017973 1.01116 1.0095441 1.0053502
1.0068125 1.0095495 1.0029119 1.0013031 1.0082613 1.0125252 1.0110615 0.99693793
0.9942584 1.0062343 1.0040438 1.0110427 1.0131559 1.0057431 1.0116546 1.0042387
1.0025178 1.0081139 1.0037699 1.0009047 1.0094862 1.0097463 1.0081304 1.0014968
1.0102162 1.008328 1.0112846 1.002691 0.99879557 0.9989656 1.0114045 1.0133574
1.008871 1.0138149 1.0122923 1.0009259 1.0063944 1.0062394 1.0027907 0.99609864
1.0053878 1.0071294 0.9998068 1.0105078 1.00272 1.004025 1.014649 1.0022207
1.0125494 1.0127935 1.0041595 1.0101017 1.0037758 1.0034912 1.0057262 1.0185009
1.0079169 0.9963477 1.0011605 0.9985243 1.0065401 1.0076119 1.0066105 1.0062398
1.0061575 1.011156 1.0052552 1.009441 1.0093526 1.0047084 1.0030234 0.9996288
1.0124512 1.0163709 1.0079057 1.0053471 1.0092995 1.009428 1.0117729 1.013498
1.0092195 1.0137472 1.005622 1.0035374 1.0088195 1.0118355 1.0120854 1.0009094
1.0069082 1.0023369 1.0023364 0.9997723 1.002152 1.006096 1.0021491 1.0101072
1.0082656 1.0101509 1.0016471 1.0050614 1.007322 1.0056189 1.0112109 1.0056359
1.014578 1.0046849 1.0041008 1.0090529 1.0112488 1.0027117 1.0114987 1.0042075
00000000: 5e2f 7f3f fb3e 7f3f 576b 803f 9674 803f
00000010: b3b5 7f3f 23ef 803f 2297 803f fb4c 7f3f
00000020: d395 803f 7d3c 803f 0459 813f b6a7 803f
00000030: e53a 803f b16d 813f be38 813f 51af 803f
00000040: 3bdf 803f eb38 813f 6b5f 803f b32a 803f
00000050: b50e 813f 6d9a 813f 776a 813f 5337 7f3f
00000060: b887 7e3f 49cc 803f 8284 803f d969 813f
00000070: 18af 813f 31bc 803f e67d 813f e58a 803f
00000080: 8152 803f e009 813f 887b 803f a51d 803f
00000090: d836 813f 5e3f 813f 6b0a 813f 0c31 803f
000000a0: c44e 813f e410 813f c671 813f 2e58 803f
000000b0: 11b1 7f3f 36bc 7f3f b475 813f b2b5 813f
000000c0: af22 813f b0c4 813f cb92 813f 571e 803f
000000d0: 88d1 803f 74cc 803f 725b 803f 5200 7f3f
000000e0: 8cb0 803f 9ee9 803f 57f3 7f3f 5258 813f
000000f0: 2159 803f e483 803f 05e0 813f c548 803f
00000100: 389b 813f 38a3 813f 4c88 803f 034b 813f
00000110: ba7b 803f 6672 803f a3bb 803f 3d5e 823f
00000120: 6c03 813f a510 7f3f 0726 803f 4a9f 7f3f
00000130: 4ed6 803f 6df9 803f 9dd8 803f 77cc 803f
00000140: c5c9 803f 8f6d 813f 34ac 803f 5d35 813f
00000150: 7732 813f 499a 803f 1263 803f ace7 7f3f
00000160: 0098 813f 7118 823f 0e03 813f 37af 803f
00000170: ba30 813f f034 813f c681 813f 4dba 813f
00000180: 1b2e 813f 78c2 813f 39b8 803f ea73 803f
00000190: ff20 813f d383 813f 048c 813f cd1d 803f
000001a0: 5ee2 803f 934c 803f 8f4c 803f 14f1 7f3f
000001b0: 8446 803f c1c7 803f 6c46 803f 314b 813f
000001c0: d90e 813f a04c 813f f935 803f daa5 803f
000001d0: edef 803f 1fb8 803f 5c6f 813f adb8 803f
000001e0: b1dd 813f 8499 803f 6086 803f a528 813f
000001f0: 9a70 813f db58 803f ca78 813f df89 803f

bn_ms.bias f4 [128]
-0.0033571825 -0.004213619 0.0033324915 0.00027681937 -0.005341932 0.00453724 0.001836996 -0.0028098281
0.00424609 -0.001644382 0.0070963767 0.0047193742 0.001752573 0.0114580225 0.0068039047 0.0027615784
0.0035142025 0.012798068 0.005203544 -0.0020898317 0.009034536 0.011180367 0.009889225 -0.007930852
-0.0058636535 0.004573343 0.0026784034 0.011282282 0.01416123 0.0059460243 0.012257708 0.0044765435
-0.00044630983 0.0068408833 0.002009654 1.5837972e-05 0.01025599 0.011097353 0.007865523 0.0025178834
0.0070154727 0.0074509196 0.014180348 0.003241205 -0.0011206709 -6.785309e-05 0.0048747226 0.010527048
0.008044352 0.012046007 0.013490905 -0.0027056744 0.0055209007 0.00853504 0.00078043994 -0.0041206833
0.006720146 0.005768595 -0.0035493814 0.011607007 0.004433672 0.0014210693 0.013595946 -0.0011310524
0.008615983 0.009691186 0.003976247 0.009375166 0.00184764 0.0036979963 0.002213313 0.0206531
0.008875271 -0.0036167884 -0.0038782174 -0.0025765193 0.006034123 0.009725514 0.0074024224 0.006417309
0.002888391 0.011927548 0.0036008637 0.00843699 0.010242192 0.003946323 0.002509657 -0.0014841486
0.015225213 0.0125671765 0.009685073 0.005542054 0.0035441283 0.00832366 0.007828428 0.014522969
0.005448501 0.007261751 0.006698905 0.0004378002 0.009919088 0.010993764 0.011944322 0.0011159598
0.008450884 0.0003941623 0.0020240326 0.0016579598 0.00059834786 -0.00178281 0.0026259029 0.01260233
0.010886388 0.008680509 0.0010704405 0.0018439216 0.0059680473 0.0040070415 0.012119472 0.007481851
0.013879309 3.1005475e-05 0.0027365189 0.009502088 0.0072130994 -0.0009808269 0.010078338 0.0035403138
00000000: 2d04 5cbb 6612 8abb ee65 5a3b 1122 9139
00000010: 600b afbb 21ad 943b 5bc7 f03a 1825 38bb
00000020: c922 8b3b 4e88 d7ba b988 e83b fba4 9a3b
00000030: 97b6 e53a 6eba 3b3c 4af3 de3b 99fb 343b
00000040: 894e 663b fdae 513c 7e82 aa3b 8ff5 08bb
00000050: 9705 143c dc2d 373c 6a06 223c 67f0 01bc
00000060: e423 c0bb fbdb 953b 2788 2f3b 52d9 383c
00000070: 8104 683c ded6 c23b 8ed4 483c f8af 923b
00000080: b1fe e9b9 7d29 e03b 66b4 033b c9db 8437
00000090: bd08 283c acd1 353c 65de 003c 1303 253b
000000a0: 0de2 e53b d826 f43b b154 683c 656a 543b
000000b0: 7ae3 92ba 5a4c 8eb8 23bc 9f3b a479 2c3c
000000c0: 75cc 033c 9e5c 453c f508 5d3c af51 31bb
000000d0: ace8 b43b 8dd6 0b3c 7096 4c3a cc06 87bb
000000e0: ac34 dc3b 7b06 bd3b bd9c 68bb 512b 3e3c
000000f0: 5648 913b 2c43 ba3a 88c1 5e3c d23f 94ba
00000100: 0d2a 0d3c c8c7 1e3c 2d4b 823b 4c9a 193c
00000110: 832c f23a 155a 723b 3b0d 113b b130 a93c
00000120: 9669 113c a407 6dbb b129 7ebb d2da 28bb
00000130: e4b9 c53b c357 1f3c 0590 f23b 4a48 d23b
00000140: 294b 3d3b c36b 433c 78fc 6b3b 4d3b 0a3c
00000150: dece 273c 2850 813b 0f79 243b c387 c2ba
00000160: 2c73 793c 8fe6 4d3c 24ae 1e3c 1e9a b53b
00000170: 9b44 683b f65f 083c cf42 003c bff1 6d3c
00000180: 5789 b23b fcf3 ed3b 7d82 db3b 8c88 e539
00000190: ac83 223c 301f 343c 1eb2 433c 6645 923a
000001a0: 9475 0a3c 92a7 ce39 a2a5 043b e64f d93a
000001b0: 72da 1c3a 2dad e9ba 5717 2c3b 017a 4e3c
000001c0: d25c 323c b238 0e3c 064e 8c3a beaf f13a
000001d0: 9c8f c33b 804d 833b c090 463c 512a f53b
000001e0: 0b66 633c e00b 0238 2b57 333b a5ae 1b3c
000001f0: dd5b ec3b 178f 80ba 9d1f 253c 9c04 683b

bn_ms.running_mean f4 [128]
0.03416705 0.018751064 0.13199139 0.25955686 0.19131449 0.053845212 0.06174582 -0.02620012
0.0489661 0.15354568 0.20962147 0.12600781 -0.10485769 -0.21102452 0.3955824 0.36227918
0.07774545 0.12154271 -0.18218352 -0.0067385715 0.2494227 0.17047259 -0.016503807 0.2775936
-0.23847212 0.0036276593 0.24656743 -0.15864515 -0.17446344 0.22799796 -0.04762283 -0.29370907
0.078957014 -0.2388522 0.007776259 0.07523309 0.0140772015 -0.13760386 0.0009899783 -0.0067316876
-0.017506786 -0.03468946 -0.095409945 -0.060253307 -0.13499945 -0.22524561 0.2970905 0.3409988
-0.10918379 0.1699968 0.033564094 0.14829789 -0.32137513 0.17369735 0.14129898 -0.08517804
-0.02402288 0.27753857 -0.016518617 -0.038504075 0.054780237 -0.04221408 -0.0145799555 0.13881248
-0.24844588 0.252797 -0.28688046 0.5548951 -0.023742124 -0.5713281 0.44095075 0.14439565
-0.1346635 -0.05079591 0.3244246 0.10394102 0.066448085 -0.34389848 -0.046477437 0.051262204
0.3377626 0.075255774 0.4754351 0.40418547 -0.19954003 -0.29975078 0.035363846 0.10904009
0.04502085 0.3997005 0.10755812 0.3066236 0.45100957 0.31245077 0.15846859 0.13102482
0.35923073 0.49487782 -0.021177143 -0.45593062 0.01338462 -0.33473447 -0.1541982 -0.06114197
-0.36977965 -0.20085174 -0.20544979 -0.0018048625 0.27086073 0.5110384 -0.38523403 -0.4052441
-0.22005181 -0.286648 0.051364325 0.029882755 0.6133642 -0.3535872 -0.15635261 -0.11180089
0.15057375 0.5574884 0.26121843 -0.005394947 0.30700737 0.5139482 0.38530514 -0.031390116
00000000: c0f2 0b3d d59b 993c c028 073e a3e4 843e
00000010: f2e7 433e cc8c 5c3d 2fe9 7c3d a2a1 d6bc
00000020: ad90 483d 143b 1d3e 03a7 563e 3108 013e
00000030: a1bf d6bd d016 58be c789 ca3e a87c b93e
00000040: 0239 9f3d 62eb f83d 518e 3abe 3ccf dcbb
00000050: aa68 7f3e 5e90 2e3e fe32 87bc c020 8e3e
00000060: 0932 74be 06be 6d3b 2c7c 7c3e e073 22be
00000070: 8ba6 32be 4c78 693e 2810 43bd 0961 96be
00000080: 37b4 a13d ac95 74be fdcf fe3b ce13 9a3d
00000090: 10a4 663c 07e8 0cbe 29c2 813a 7d95 dcbb
000000a0: 646a 8fbc 8916 0ebd 4a66 c3bd 2ccc 76bd
000000b0: 4c3d 0abe c9a6 66be 3f1c 983e 6597 ae3e
000000c0: c09b dfbd a413 2e3e 817a 093d 67db 173e
000000d0: 488b a4be b8dd 313e aeb0 103e d371 aebd
000000e0: a1cb c4bc 8919 8e3e 0d52 87bc 73b6 1dbd
000000f0: 3e61 603d ace8 2cbd c4e0 6ebc dc24 0e3e
00000100: 9968 7ebe 9c6e 813e ffe1 92be 9b0d 0e3f
00000110: d87e c2bc 8f42 12bf 4cc4 e13e 74dc 133e
00000120: 3be5 09be 5f0f 50bd fb1a a63e 08df d43d
00000130: ef15 883d 7613 b0be 205f 3ebd 51f8 513d
00000140: 38ef ac3e b31f 9a3d 3b6c f33e 66f1 ce3e
00000150: 3954 4cbe ef78 99be aed9 103d 6950 df3d
00000160: c867 383d 8ba5 cc3e 6e47 dc3d c5fd 9c3e
00000170: baea e63e 8cf9 9f3e 9745 223e 5f2b 063e
00000180: 17ed b73e a060 fd3e b07b adbc bd6f e9be
00000190: 2a4b 5b3c 5162 abbe 22e6 1dbe 0170 7abd
000001a0: c253 bdbe 14ac 4dbe 6e61 52be 2391 ecba
000001b0: 42ae 8a3e 6ad3 023f 653d c5be 287c cfbe
000001c0: 4355 61be 87c3 92be 6663 523d aecc f43c
000001d0: 7005 1d3f 6209 b5be e61a 20be ddf7 e4bd
000001e0: 0130 1a3e 8fb7 0e3f 6cbe 853e 18c8 b0bb
000001f0: 1230 9d3e 1c92 033f b746 c53e ec92 00bd

bn_ms.running_var f4 [128]
0.07629905 0.048058175 0.051013313 0.08660149 0.037055165 0.0729556 0.036766585 0.067096606
0.066332646 0.041507456 0.04454544 0.09775569 0.050501816 0.198809 0.09581716 0.08032643
0.07208164 0.078675374 0.09815069 0.04603222 0.06059225 0.11773779 0.061428957 0.040474176
0.09897854 0.038885012 0.11314997 0.083123885 0.124116234 0.043467335 0.047561653 0.09599882
0.09629916 0.052463505 0.11609882 0.0586877 0.035873212 0.099120975 0.079267494 0.07240823
0.10089725 0.13444324 0.100018546 0.026322708 0.10959039 0.07113152 0.11889589 0.1783283
0.030264597 0.08662871 0.05757809 0.08198951 0.13511918 0.15457122 0.055325575 0.049464367
0.07833292 0.18498404 0.11127944 0.12648813 0.07050542 0.10142433 0.13493101 0.040792555
0.10869508 0.17771377 0.1377939 0.20296574 0.06310557 0.103384756 0.16086902 0.2937223
0.16569073 0.026421618 0.09049468 0.046719067 0.10034201 0.05881624 0.05784225 0.041593716
0.0769691 0.12801553 0.35072464 0.16671753 0.17224257 0.12546277 0.05928773 0.16012357
0.050916873 0.15961657 0.13218054 0.08611128 0.09312083 0.22460173 0.056260385 0.26776823
0.14811042 0.19404992 0.03848482 0.10608276 0.1738928 0.24591763 0.27661407 0.12398552
0.22714034 0.13190801 0.05450079 0.17990646 0.08077838 0.14369582 0.17333122 0.13905895
0.14581712 0.094839945 0.20937009 0.042092636 0.44551426 0.095805526 0.11361396 0.10224307
0.09926986 0.10874412 0.17424148 0.3297804 0.1005494 0.14061463 0.2220407 0.044093996
00000000: ad42 9c3d a6d8 443d 56f3 503d 1f5c b13d
00000010: 28c7 173d bf69 953d 8f98 163d f269 893d
00000020: 69d9 873d b903 2a3d 4775 363d 2334 c83d
00000030: feda 4e3d 9694 4b3e ca3b c43d 2f82 a43d
00000040: 8a9f 933d 8e20 a13d 3b03 c93d 488c 3c3d
00000050: 942f 783d 8320 f13d ee9c 7b3d 40c8 253d
00000060: 43b5 ca3d e445 1f3d 2cbb e73d db3c aa3d
00000070: a730 fe3d ce0a 323d 02d0 423d 089b c43d
00000080: 7e38 c53d f9e3 563d 38c5 ed3d 8462 703d
00000090: caef 123d f0ff ca3d ff56 a23d c44a 943d
000000a0: 38a3 ce3d 7dab 093e 86d6 cc3d b8a2 d73c
000000b0: ed70 e03d 67ad 913d b07f f33d b29b 363e
000000c0: 76ed f73c 656a b13d 01d7 6b3d 1eea a73d
000000d0: af5c 0a3e eb47 1e3e 129d 623d 269b 4a3d
000000e0: 036d a03d 756c 3d3e 7ae6 e33d 1b86 013e
000000f0: 2565 903d 8fb7 cf3d 5b2b 0a3e 1816 273d
00000100: 879b de3d 99fa 353e d819 0d3e 40d6 4f3e
00000110: 7e3d 813d 63bb d33d d9ba 243e c562 963e
00000120: d5aa 293e 2672 d83c 4655 b93d 7e5c 3f3d
00000130: 1d80 cd3d 4ce9 703d ffeb 6c3d 2c5e 2a3d
00000140: faa1 9d3d 8116 033e 2e92 b33e 00b8 2a3e
00000150: 5b60 303e 5079 003e b1d7 723d 6ff7 233e
00000160: 368e 503d 8772 233e 565a 073e 1c5b b03d
00000170: 22b6 be3d fffd 653e 4a71 663d eb18 893e
00000180: 42aa 173e 06b5 463e 42a2 1d3d eb41 d93d
00000190: f410 323e d5d1 7b3e 5ca0 8d3e 1fec fd3d
000001a0: 7a97 683e e512 073e 383c 5f3d 6639 383e
000001b0: 236f a53d ff24 133e bd7d 313e 7865 0e3e
000001c0: 1551 153e 723b c23d 1d65 563e 5469 2c3d
000001d0: 721a e43e b035 c43d 70ae e83d d164 d13d
000001e0: ff4d cb3d 3db5 de3d 5c6c 323e fad8 a83e
000001f0: d8ec cd3d 48fd 0f3e a35e 633e e89b 343d
