checkpoints/best_0.3620.pt (torch, 328019 bytes, 22 tensors)

layer1.0.weight f4 [32, 1, 3, 3]
0.17768854 0.16463342 -0.089280255 0.32866883 -0.14928475 0.124607414 -0.057692584 0.23358135
0.3796699 -0.31310582 0.23957998 -0.031040588 0.14622268 0.024183473 0.056185413 -0.09777603
0.30635926 0.017094143 -0.09923657 0.106432326 -0.10635791 0.00499007 -0.12871836 0.25683504
-0.28240976 -0.18924561 -0.07232734 -0.2003911 0.03688547 -0.32343775 0.31032422 -0.25925955
0.27112994 0.06541387 -0.08513712 0.21945734 -0.04684506 0.25421304 -0.021331027 -0.1959542
0.084430754 -0.14831154 0.03802784 0.28320774 0.10905979 -0.097140335 0.24786259 0.097714104
0.19571811 -0.15097493 -0.31025562 -0.13124406 -0.22113064 0.2771184 0.10971692 0.1301056
0.126618 -0.033711802 0.20990068 -0.247216 -0.012634709 -0.2560754 0.07260414 -0.10349583
0.1019775 -0.059608825 0.28328598 -0.20415714 -0.19723281 -0.20401418 0.29150763 0.11491396
0.36561382 -0.21983321 -0.31344566 -0.204848 -0.17023109 0.15313868 0.16414917 0.31353283
-0.14919166 -0.17914595 0.20825578 -0.09638265 0.22164617 -0.05109042 0.21163544 -0.26027152
-0.16367729 0.10799007 0.05976201 -0.10645487 0.19352561 0.23300257 -0.24437658 -0.16271567
0.30059677 -0.12710369 -0.114381336 -0.37476307 -0.2601861 0.09127443 -0.049032412 -0.27750406
0.047193028 -0.15965213 -0.22121637 -0.100116104 -0.31730172 -0.21396382 0.36932778 0.024828823
0.100048944 -0.24465784 -0.1466726 -0.06672942 0.12868762 -0.3232671 -0.22635406 -0.21468323
0.008777451 -0.18136978 -0.006926926 -0.14567459 -0.19721971 -0.12839343 -0.13062763 -0.26533538
0.28378183 -0.09441671 0.2636666 0.0974388 -0.28923294 0.22739641 -0.07560961 -0.060163315
-0.3333539 -0.3648288 0.14321408 -0.116032206 0.12940055 -0.22892591 0.23351422 -0.2340911
0.00034239562 0.10094634 0.21362597 0.30449414 0.32905105 -0.21680416 0.11355244 -0.11506621
0.0017797999 -0.28663844 0.2841898 -0.279894 0.122496605 0.078743234 0.044690885 -0.20590943
0.28827298 0.012178481 0.07425022 -0.28689575 0.16278963 -0.0067363717 -0.13278005 0.31562787
0.124990635 -0.13910656 -0.10578751 -0.011917719 0.1920321 -0.110972404 -0.17275362 -0.09379279
-0.23874669 0.13314039 0.27622703 -0.28826892 0.09017859 0.17222916 0.1056614 -0.09845078
0.16610464 0.1969074 0.14026643 -0.031411298 -0.052278794 0.0055669528 -0.103574894 -0.13353257
0.21529375 0.24078605 -0.047585066 -0.051307656 -0.0077467877 -0.034455337 0.09890281 0.07802231
-0.3073748 -0.10563371 0.26049104 0.11321406 0.007290507 -0.22840929 -0.2338891 -0.2766266
-0.09078031 0.1475734 0.22194707 0.16278729 -0.26482996 -0.19510652 -0.04279874 0.34549773
0.109971225 0.016630035 0.19774319 -0.08380324 -0.11756169 0.28844288 -0.1282734 -0.0024830173
-0.2971142 0.1879407 0.20077904 0.081550054 -0.26373675 -0.36209196 -0.30820936 0.22399792
0.13646488 0.24192117 0.2526959 0.17529194 0.075875066 -0.18430334 -0.18632883 -0.23692715
0.1785219 -0.09594373 -0.034267396 -0.09080629 -0.108609475 -0.27525008 -0.11207195 0.0697207
-0.12646016 0.2885475 -0.11242034 -0.20822015 -0.038956307 -0.17413338 -0.08962935 -0.28585812
00000000: fcf3 353e aa95 283e 91d8 b6bd 4847 a83e
00000010: 1ade 18be 2c32 ff3d 0f4f 6cbd f32f 6f3e
00000020: 1864 c23e 684f a0be 7454 753e d548 febc
00000030: 66bb 153e 6b1c c63c ad22 663d cd3e c8bd
00000040: 1fdb 9c3e 0409 8c3c 8b3c cbbd 31f9 d93d
00000050: 2dd2 d9bd be83 a33b bfce 03be e27f 833e
00000060: 0398 90be 9ac9 41be 5b20 94bd 5333 4dbe
00000070: 3815 173d a299 a5be d1e2 9e3e abbd 84be
00000080: 8bd1 8a3e b5f7 853d 5f5c aebd 6db9 603e
00000090: 9be0 3fbd 3628 823e 68be aebc 38a8 48be
000000a0: 08ea ac3d fbde 17be 15c3 1b3d 9b00 913e
000000b0: bd5a df3d 83f1 c6bd b1cf 7d3e 551e c83d
000000c0: 546a 483e 2c99 1abe d3d9 9ebe d864 06be
000000d0: 1270 62be 77e2 8d3e 44b3 e03d 673a 053e
000000e0: 26a8 013e 6315 0abd 34f0 563e 3126 7dbe
000000f0: cf01 4fbc 511c 83be 7bb1 943d 9ff5 d3bd
00000100: 94d9 d03d 6228 74bd dc0a 913e 920e 51be
00000110: 66f7 49be 18e9 50be 7d40 953e 0358 eb3d
00000120: bc31 bb3e f51b 61be f37b a0be adc3 51be
00000130: 0f51 2ebe 63d0 1c3e b816 283e 6087 a03e
00000140: b3c5 18be 0972 37be 0141 553e 4464 c5bd
00000150: 37f7 623e 3044 51bd f6b6 583e 4f42 85be
00000160: 059b 27be e629 dd3d 02c9 743d 0305 dabd
00000170: 942b 463e 3a98 6e3e db3d 7abe f09e 26be
00000180: d2e7 993e 7827 02be c340 eabd f2e0 bfbe
00000190: 1d37 85be 17ee ba3d 36d6 48bd 0315 8ebe
000001a0: 7a4d 413d d97b 23be 8b86 62be ac09 cdbd
000001b0: 5f75 a2be 5519 5bbe 8818 bd3e d165 cb3c
000001c0: 76e6 cc3d 9687 7abe 5831 16be 6fa9 88bd
000001d0: b0c6 033e 4483 a5be 5cc9 67be ecd5 5bbe
000001e0: 4ccf 0f3c 00b9 39be 44fb e2bb b82b 15be
000001f0: f7f3 49be 9179 03be 40c3 05be 0ada 87be
00000200: da4b 913e 8c5d c1bd 4fff 863e fe8d c73d
00000210: 5716 94be 9bda 683e 36d9 9abd cf6d 76bd
00000220: 5dad aabe d7ca babe b6a6 123e 4ba2 edbd
00000230: 9481 043e 8e6b 6abe 5a1e 6f3e 94b5 6fbe
00000240: 9083 b339 f4bc ce3d c4c0 5a3e a8e6 9b3e
00000250: 6179 a83e e901 5ebe 2f8e e83d d5a7 ebbd
00000260: 2d48 e93a 46c2 92be 5381 913e 444e 8fbe
00000270: 80df fa3d 2244 a13d ca0d 373d ecd9 52be
00000280: 8498 933e 4088 473c 8010 983d 00e4 92be
00000290: 53b2 263e c8bc dcbb 7ef7 07be fa99 a13e
000002a0: 17fb ff3d f371 0ebe 1fa7 d8bd 8942 43bc
000002b0: 10a4 443e 8045 e3bd 53e6 30be 6f16 c0bd
000002c0: 037a 74be f455 083e a16d 8d3e fc97 93be
000002d0: 8daf b83d d75c 303e 0165 d83d 90a0 c9bd
000002e0: 5617 2a3e 18a2 493e 01a2 0f3e 22a9 00bd
000002f0: 4a22 56bd fc6a b63b 131f d4bd c3bc 08be
00000300: f775 5c3e 9e90 763e 8fe8 42bd fa27 52bd
00000310: c4d8 fdbb 0a21 0dbd 8e8d ca3d 29ca 9f3d
00000320: 3b60 9dbe 7d56 d8bd 155f 853e c6dc e73d
00000330: 35e5 ee3b 20e4 69be a080 6fbe 00a2 8dbe
00000340: 07eb b9bd 7b1d 173e 1846 633e b6b1 263e
00000350: cb97 87be 01ca 47be bb4d 2fbd 14e5 b03e
00000360: 9838 e13d b63b 883c 317d 4a3e 08a1 abbd
00000370: 2fc4 f0bd c9ae 933e 1a5a 03be 1eba 22bb
00000380: 5a1f 98be 8773 403e 0599 4d3e b703 a73d
00000390: 8108 87be 1e64 b9be 9ecd 9dbe b65f 653e
000003a0: 73bd 0b3e 2fba 773e 5b61 813e bb7f 333e
000003b0: 6364 9b3d 04ba 3cbe fccc 3ebe 089d 72be
000003c0: 72ce 363e 257e c4bd f85b 0cbd a6f8 b9bd
000003d0: a56e debd 94ed 8cbe fb85 e5bd bac9 8e3d
000003e0: c67e 01be 7fbc 933e a33c e6bd aa37 55be
000003f0: a690 1fbd 0550 32be 988f b7bd ff5b 92be

layer1.0.bias f4 [32]
0.2792167 -0.052100204 -0.037809744 -0.13667446 -0.30075303 -0.3242201 0.12435557 -0.18516597
-0.21374741 -0.02573588 -0.112680666 -0.107746035 0.010698936 -0.07052201 -0.11323896 -0.1592859
-0.27075455 0.27857664 -0.13338849 0.088117525 -0.11547324 0.026844582 0.31038648 0.15186565
-0.28831437 0.13257268 0.31595746 0.08760737 0.2240128 0.32820055 -0.050894067 0.069121525
00000000: 7ef5 8e3e 0667 55bd 64de 1abd 64f4 0bbe
00000010: 4dfc 99be 2d00 a6be 22ae fe3d 269c 3dbe
00000020: 9ae0 5abe 0dd4 d2bc 1fc5 e6bd f4a9 dcbd
00000030: 974a 2f3c d86d 90bd d4e9 e7bd d81b 23be
00000040: 57a0 8abe 99a1 8e3e fe96 08be f676 b43d
00000050: 3c7d ecbd 2be9 db3c faea 9e3e ab82 1b3e
00000060: f19d 93be 22c1 073e 2dc5 a13e 7e6b b33d
00000070: 9d63 653e e709 a83e 4c76 50bd 968f 8d3d

layer1.1.weight f4 [32]
0.96763164 0.98892003 0.9454082 1.0204965 0.9929836 0.9562299 0.99547166 1.0686771
0.97410285 0.98459125 1.0992701 0.94388515 0.9670124 0.9521034 1.08393 0.966279
0.96666485 1.0255821 0.96903414 0.96483713 0.9588286 1.0038093 0.94540745 1.0236837
1.006797 0.99198556 0.9938295 0.93880796 1.0889732 1.0457827 0.9714617 0.9713447
00000000: b5b6 773f dd29 7d3f 4606 723f a19f 823f
00000010: 2c34 7e3f 7ccb 743f 3bd7 7e3f 69ca 883f
00000020: ce5e 793f 2c0e 7c3f e2b4 8c3f 75a2 713f
00000030: 208e 773f 0cbd 733f 38be 8a3f 0f5e 773f
00000040: 5977 773f 4646 833f 9f12 783f 91ff 763f
00000050: cb75 753f d37c 803f 3906 723f 1108 833f
00000060: b9de 803f c4f2 7d3f 9c6b 7e3f b855 703f
00000070: 7963 8b3f 35dc 853f b7b1 783f 0caa 783f

layer1.1.bias f4 [32]
0.03418663 0.04900954 0.02475264 -0.081704706 0.05487364 -0.020669473 0.020143984 -0.051253576
-0.072942555 -0.06192319 -0.009824941 -0.02796153 -0.016069068 0.05982653 -0.06295212 0.025137719
0.047770433 0.07055931 -0.024860675 -0.059663292 0.07187739 0.06619553 0.012494162 -0.078627534
0.025725573 0.06900229 0.02696732 0.01311977 -0.05314721 0.031729653 0.04276376 0.0057064956
00000000: 4807 0c3d 3abe 483d 0cc6 ca3c cc54 a7bd
00000010: 2fc3 603d 0753 a9bc ff04 a53c 45ef 51bd
00000020: e862 95bd 2ca3 7dbd caf8 20bc 940f e5bc
00000030: 47a3 83bc aa0c 753d 0bed 80bd 9eed cd3c
00000040: eeaa 433d 6681 903d 9da8 cbbc 7f61 74bd
00000050: 7434 933d 8691 873d 50b4 4c3c 7907 a1bd
00000060: 70be d23c 1351 8d3d 92ea dc3c 4ef4 563c
00000070: e4b0 59bd f4f6 013d 0d29 2f3d 8efd ba3b

layer1.1.running_mean f4 [32]
-1.3495523 -0.5757347 0.7128701 -0.1980096 -0.8276319 -0.17872599 -0.016096683 -0.22094679
-0.12979198 -0.0254366 -0.15065485 1.8006101 0.54746693 1.991193 -0.14248718 1.0409592
-1.3406328 0.17819199 -0.13712521 0.5458843 -1.1196494 -0.10884067 0.77154344 0.134288
-0.2529266 -0.062308427 0.4123453 1.0681574 0.20213218 0.347132 -0.9512672 1.4574723
00000000: 21be acbf 5963 13bf a87e 363f 07c3 4abe
00000010: afdf 53bf f203 37be 31dd 83bc e03f 62be
00000020: 30e8 04be 6b60 d0bc 4445 1abe 647a e63f
00000030: cb26 0c3f 6adf fe3f 29e8 11be 273e 853f
00000040: db99 abbf f677 363e 8d6a 0cbe 13bf 0b3f
00000050: ac50 8fbf dbe7 debd df83 453f cb82 093e
00000060: 987f 81be 1f37 7fbd ec1e d33e 62b9 883f
00000070: bdfb 4e3e 49bb b13e 3f86 73bf 748e ba3f

layer1.1.running_var f4 [32]
12.606254 1.5460707 2.852772 0.40397438 1.5734448 0.26781678 0.29787657 0.13510364
0.44089627 0.2304616 0.4354151 17.531507 1.6195115 20.252226 0.43873605 7.151071
5.7016377 0.41446492 0.2658545 1.3636353 4.909924 0.2459378 1.2141498 0.2013929
0.35213774 0.6325816 0.37642688 4.908519 0.51502293 0.36625996 4.083568 9.623717
00000000: 37b3 4941 a5e5 c53f d193 3640 bbd5 ce3e
00000010: a466 c93f 481f 893e 4783 983e 9c58 0a3e
00000020: 28bd e13e 20fe 6b3e baee de3e 8740 8c41
00000030: 274c cf3f 8f04 a241 03a2 e03e 93d5 e440
00000040: d173 b640 bf34 d43e 151e 883e 9a8b ae3f
00000050: 191e 9d40 1ed7 7b3e 4369 9b3f f139 4e3e
00000060: 664b b43e def0 213f 06bb c03e 9612 9d40
00000070: 8bd8 033f 6d86 bb3e 97ac 8240 bffa 1941

layer1.3.fc1.weight f4 [4, 32, 1, 1]
-0.12930264 -0.042938262 0.13012272 0.08906931 -0.118271805 -0.14184344 -0.12679474 -0.17511591
-0.1362256 -0.04446887 0.11808379 0.028834023 -0.1351526 -0.14176337 0.08424711 -0.13129361
-0.028450752 0.07896494 -0.08246271 -0.018741958 -0.022157433 -0.048043966 -0.08913234 -0.1587831
-0.14328662 -0.10078046 0.17054193 -0.08510248 -0.12067075 0.0410015 0.042013884 0.09604545
0.13637765 0.10062114 -0.16310966 0.01767449 0.1090789 -0.012087475 -0.10168705 0.16763581
-0.06283571 -0.09961891 -0.16180241 0.020318577 0.08873481 0.05196724 0.03276673 -0.120084174
-0.16259861 0.0038371326 0.16120884 0.11191603 -0.10067048 -0.021012815 -0.12246466 -0.08573988
0.03614961 0.097928874 0.1495981 -0.1490255 0.12002659 -0.12796512 0.06841767 0.16295104
0.004066592 0.16214393 -0.20608206 -0.08396974 0.10426424 -0.10277202 -0.037124615 -0.094010256
0.05707661 0.028499082 0.054097623 -0.14998356 -0.19652036 -0.035764974 0.046383686 -0.13459854
-0.04857799 0.123706415 0.004926485 -0.03011864 -0.04217962 -0.16036458 -0.21461917 -0.13201106
-0.16264741 0.05152808 -0.124781765 -0.121495925 0.119464844 0.060176905 0.12756194 -0.13807978
-0.07209746 0.0648735 -0.117602944 -0.115385205 -0.008525301 -0.064559214 -0.1323206 0.1046971
0.1419406 0.028633952 -0.030732205 -0.16349377 -0.06429062 0.044936523 0.08322876 -0.022313742
-0.06978294 0.098354705 -0.14057031 0.11155668 -0.06847726 0.0027015156 -0.03488088 0.02139964
-0.05334033 0.12834279 -0.004588719 0.13778193 0.1697091 -0.08599263 -0.12876332 0.14161226
00000000: e967 04be 08e0 2fbd e43e 053e f869 b63d
00000010: 7d38 f2bd 683f 11be 7bd6 01be 9651 33be
00000020: b97e 0bbe fd24 36bd ead5 f13d 5435 ec3c
00000030: 7165 0abe 6b2a 11be c089 ac3d d571 06be
00000040: 8d11 e9bc 5fb8 a13d 36e2 a8bd bc88 99bc
00000050: 8183 b5bc c0c9 44bd 048b b6bd 0998 22be
00000060: bab9 12be fc65 cebd 8ba2 2e3e 364a aebd
00000070: 3a22 f7bd 30f1 273d c016 2c3d 7ab3 c43d
00000080: 95a6 0b3e 7512 ce3d 3806 27be 18ca 903c
00000090: c264 df3d 8b0a 46bc 4d41 d0bd b9a8 2b3e
000000a0: 02b0 80bd 0005 ccbd 88af 25be 2573 a63c
000000b0: 99ba b53d 9adb 543d 6836 063d b1ee f5bd
000000c0: 4080 26be 6778 7b3b ee13 253e 3b34 e53d
000000d0: 532c cebd 1123 acbc c0ce fabd 6498 afbd
000000e0: 9d11 143d ef8e c83d 3f30 193e 249a 18be
000000f0: 80d0 f53d 4a09 03be 901e 8c3d a3dc 263e
00000100: 0c41 853b 0f09 263e 2d07 53be 54f8 abbd
00000110: 7d88 d53d 237a d2bd fb0f 18bd 7388 c0bd
00000120: 2ac9 693d e876 e93c 7895 5d3d 4a95 19be
00000130: a23c 49be 4b7e 12bd d2fc 3d3d 33d4 09be
00000140: b7f9 46bd ca59 fd3d 5a6e a13b 5ebb f6bc
00000150: 8ac4 2cbd 9d36 24be 21c5 5bbe e82d 07be
00000160: 0b8d 26be 1c0f 533d 958d ffbd dbd2 f8bd
00000170: fca9 f43d 0f7c 763d 999f 023e c964 0dbe
00000180: d5a7 93bd 66dc 843d d0d9 f0bd 144f ecbd
00000190: b4ad 0bbc 9f37 84bd 0d7f 07be 6f6b d63d
000001a0: e058 113e c091 ea3c 1bc2 fbbc e96a 27be
000001b0: cdaa 83bd 5c0f 383d d773 aa3d 4fcb b6bc
000001c0: 5cea 8ebd 316e c93d aaf1 0fbe d477 e43d
000001d0: ce3d 8cbd e90b 313b 41df 0ebd 4c4e af3c
000001e0: 647b 5abd 4b6c 033e f75c 96bb b516 0d3e
000001f0: 39c8 2d3e e71c b0bd 88da 03be ce02 113e

layer1.3.fc1.bias f4 [4]
0.13196947 -0.13513836 -0.017876053 -0.17405872
00000000: 0123 073e b661 0abe cd70 92bc 733c 32be

layer1.3.fc2.weight f4 [32, 4, 1, 1]
-0.39789423 0.099100396 0.130499 0.10582959 -0.12765817 0.46240163 0.090034895 -0.29459494
-0.027237942 0.11754068 0.15684243 -0.3530039 0.18421231 -0.27286196 -0.36625677 -0.27268913
0.48931873 0.4344947 0.48420686 0.2930606 0.381164 -0.08144718 -0.3190896 0.24944834
-0.25588936 -0.3323537 -0.16460307 0.1047699 0.2485839 -0.2122116 -0.23988444 0.06734416
-0.28992102 -0.32563996 0.17018063 -0.083864935 0.46407682 0.4863039 0.06262376 0.17181635
0.11259769 -0.009478524 0.078821406 0.006861625 0.19249079 0.48692536 -0.11611336 -0.2110366
-0.11994244 -0.23696683 0.09559807 0.3726591 0.39134493 0.21681726 -0.3780342 -0.2679441
-0.109015 -0.10339443 0.064601764 -0.45829156 0.15725888 -0.3931484 -0.33307377 -0.4150599
0.43578127 -0.46538058 0.41252735 -0.016782891 -0.04900948 0.30143255 -0.02493164 0.3131017
0.35485947 -0.44108382 0.25477165 0.0942463 0.104143254 0.088268705 0.12435315 -0.24016683
-0.057441093 0.45610073 0.34287348 -0.018755784 -0.45605618 0.022149622 -0.40571636 0.40597588
-0.30163473 -0.03777148 -0.15650934 0.08884172 0.4740736 0.036578618 0.21427801 0.3875234
0.4107808 -0.16705768 -0.1719896 0.24060176 -0.125055 0.24390055 -0.14266965 -0.33861178
0.20782186 0.094273664 0.17307535 0.49598315 0.34277394 0.47487998 0.02951909 -0.42945257
-0.3506704 -0.31980857 -0.47246996 -0.25023377 -0.47406715 -0.4885649 -0.16470443 -0.49216434
-0.3024919 0.19343844 0.4650543 -0.1485057 -0.14239879 0.26413286 -0.2574343 -0.23605621
00000000: cbb8 cbbe 26f5 ca3d 88a1 053e 2fbd d83d
00000010: d3b8 02be e8bf ec3e 3764 b83d 26d5 96be
00000020: 1b22 dfbc 2bb9 f03d 4d9b 203e edbc b4be
00000030: 27a2 3c3e 90b4 8bbe 0286 bbbe e99d 8bbe
00000040: fc87 fa3e 1776 de3e f6e9 f73e 0a0c 963e
00000050: ee27 c33e c7cd a6bd b65f a3be 636f 7f3e
00000060: ee03 83be 442a aabe b58d 28be 9a91 d63d
00000070: c78c 7e3e ff4d 59be 44a4 75be bceb 893d
00000080: 8770 94be 48ba a6be d543 2e3e 61c1 abbd
00000090: 7a9b ed3e d3fc f83e e340 803d a0f0 2f3e
000000a0: 9e99 e63d d04b 1bbc 1e6d a13d 7bd7 e03b
000000b0: 4e1c 453e 484e f93e d7cc edbd fa19 58be
000000c0: 62a4 f5bd 6fa7 72be ecc8 c33d 2ccd be3e
000000d0: 5d5e c83e 5805 5e3e b38d c1be f82f 89be
000000e0: 4243 dfbd 75c0 d3bd ee4d 843d 31a5 eabe
000000f0: 7908 213e bf4a c9be a588 aabe bb82 d4be
00000100: b91e df3e 5d46 eebe c936 d33e 467c 89bc
00000110: 2abe 48bd 5e55 9a3e 703d ccbc de4e a03e
00000120: 24b0 b53e bdd5 e1be 6e71 823e 3404 c13d
00000130: 0f49 d53d 39c6 b43d ddac fe3d 4bee 75be
00000140: 5a47 6bbd 0986 e93e 1d8d af3e bba5 99bc
00000150: 3280 e9be 2073 b53c 0eba cfbe 12dc cf3e
00000160: de6f 9abe 44b6 1abd fc43 20be a6f2 b53d
00000170: c6b9 f23e 76d3 153d b26b 5b3e 7869 c63e
00000180: dc51 d23e 2b11 2bbe 0b1e 30be 4f60 763e
00000190: 6b0e 00be 11c1 793e fe17 12be 865e adbe
000001a0: 41cf 543e 8d12 c13d aa3a 313e 81f1 fd3e
000001b0: 1180 af3e 7823 f33e 05d2 f13c 35e1 dbbe
000001c0: 128b b3be f3bd a3be 95e7 f1be a41e 80be
000001d0: eeb8 f2be 2e25 fabe 47a8 28be f7fc fbbe
000001e0: 38e0 9abe ba14 463e 991b ee3e e111 18be
000001f0: fdd0 11be 6c3c 873e 6ece 83be b8b8 71be

layer1.3.fc2.bias f4 [32]
0.2773037 -0.444408 0.0070795645 0.47138917 0.07654684 0.09262457 -0.29407877 0.06702157
0.007494801 0.11292004 0.29426157 0.37840185 -0.4145567 -0.029664628 -0.16212952 -0.42783722
-0.0750295 -0.40584236 0.31886834 0.02521727 -0.30458185 0.26156074 -0.5284582 -0.16386616
-0.09270864 -0.42639792 -0.32349238 -0.14162654 0.46836188 0.5357197 0.27761486 -0.32631168
00000000: c0fa 8d3e 7289 e3be b1fb e73b ec59 f13e
00000010: 97c4 9c3d f3b1 bd3d 7e91 96be 9b42 893d
00000020: f396 f53b 9f42 e73d 74a9 963e e3bd c13e
00000030: c740 d4be 3c03 f3bc 4805 26be 7b0d dbbe
00000040: 11a9 99bd 92ca cfbe b642 a33e 7394 ce3c
00000050: 27f2 9bbe 4aeb 853e 0949 07bf 88cc 27be
00000060: 07de bdbd d450 dabe cba0 a5be 8c06 11be
00000070: 21cd ef3e ed24 093f 8923 8e3e 5312 a7be

branch3.weight f4 [64, 32, 3, 3]
-0.01586672 0.06970134 0.041727643 0.023544291 0.027842121 -0.02441244 -0.0004058692 0.07188298
0.0038102157 0.014693232 -0.03056656 -0.011122873 0.016895639 -0.018153071 0.013947364 0.037133504
-0.042737685 0.034087565 -0.041483298 -0.026205959 0.026270092 0.041648455 -0.014252711 -0.01867197
-0.05349014 -0.026573515 -0.04285682 -0.0037875476 0.020895286 -0.034175918 0.065084584 0.049361
-0.034022998 -0.020713521 0.025384303 0.0038431254 0.012971161 -0.007877627 0.06658057 -0.01258194
0.066223614 0.024459803 0.028629648 0.060975853 0.008276996 -0.035292845 -0.0078000687 0.048855435
-0.04228923 0.0137230195 -0.04931927 0.02662887 0.02371334 0.009004936 0.05217036 0.024217434
0.055605885 -0.018113468 0.015632847 0.04990643 0.08216321 0.051600613 -0.018862002 0.04468181
-0.011418543 -0.008935683 -0.034876484 -0.0015091082 0.043492373 0.012557709 -0.032233085 0.018076235
-0.025230812 0.044507716 -0.057756554 -0.021842955 -0.05616112 -0.028863363 0.015932929 0.0486305
6.350146e-05 0.03733969 0.0035277647 0.034569297 0.029479232 0.038305987 -0.027556935 0.034166142
0.024668392 -0.02138741 -0.02196949 -0.051858667 -0.0056378995 -0.037228316 0.01937144 0.0014747169
-0.04112426 0.012237565 -0.019808799 0.023469577 0.034078993 -0.051550668 0.05015364 0.049608268
0.027325515 -0.052447174 -0.016780468 -0.010338567 -0.022033194 0.030686565 0.022065738 0.038591493
-0.022263788 0.02172439 0.013709489 -0.046847373 -0.051537573 -0.030157674 0.04173341 -0.04809824
-0.04917531 0.035215702 0.0361667 0.047782123 -0.038016748 -0.03482158 -0.012553927 0.021574918
0.022965679 -0.030779397 -0.0062532127 0.044190522 -0.076846026 -0.05131574 0.03062311 -0.039665014
-0.0286816 0.046285193 0.018798642 0.022141252 -0.019609744 0.0018435866 0.057512827 -0.028206985
0.026270133 0.049837608 -0.018027855 0.081223145 -0.006228084 0.0078353435 0.006647701 -0.018046752
-0.037328403 0.04205348 0.024928827 -0.03746392 -0.025346378 0.06812208 0.037078585 0.028825207
-0.028695837 -0.016320739 -0.015978342 -0.012614858 -0.03741892 -0.0028747784 0.004232481 -0.0037932612
0.0026517755 -0.0229819 0.020190736 0.024235846 -0.026782937 -0.053652573 0.03426811 0.019572528
-0.025116114 0.059593543 -0.020545403 0.040698178 0.05265932 -0.026075218 0.06081164 -0.029551532
-0.00965885 0.014681423 -0.018338002 0.075602576 0.009892786 0.04186995 -0.036287647 0.043384075
0.0026326645 -0.02903459 0.018741352 0.040103942 0.05723226 -0.031412635 -0.023076825 0.016787259
0.021328647 0.025968732 0.036730856 -0.008587882 0.038482808 0.04905231 -0.009978963 0.01526922
0.011811106 0.04356942 -0.05310403 -0.04295404 -0.019281125 -0.023842955 0.018065587 -0.036530238
0.027450634 -0.012888307 0.04424063 -0.0036808546 -0.041135013 -0.019423831 -0.0419331 0.0338707
-0.025539512 0.014556439 0.02942709 -0.014322529 0.038692575 -0.036421176 -0.021745497 -0.0316998
0.0003874466 -0.003205589 0.011779836 -0.0063650846 0.029344805 0.05801276 0.027262766 -0.01700237
-0.048205048 0.02670101 -0.024215018 0.030332092 0.041273944 0.026017418 0.055244368 0.058480803
0.016868057 -0.038293175 0.056437515 -0.021959757 -0.031895667 0.04173202 0.04328926 0.01688178
00000000: ecfa 81bc 93bf 8e3d 9bea 2a3d f5df c03c
00000010: 2915 e43c 99fc c7bc d8ca d4b9 6237 933d
00000020: d0b4 793b e2bb 703c b966 fabc b63c 36bc
00000030: b968 8a3c c0b5 94bc 7c83 643c 4d19 183d
00000040: b60d 2fbd 679f 0b3d 64ea 29bd e1ad d6bc
00000050: 6034 d73c 9297 2a3d 3484 69bc f6f5 98bc
00000060: 7a18 5bbd b3b0 d9bc a28a 2fbd 8138 78bb
00000070: 972c ab3c 0cfc 0bbd 114b 853d c32e 4a3d
00000080: b35b 0bbd 67af a9bc bef2 cf3c f2dc 7b3b
00000090: fe84 543c 2a11 01bc 655b 883d 7b24 4ebc
000000a0: 3fa0 873d ed5f c83c b988 ea3c d1c1 793d
000000b0: 3d9c 073c 3b8f 10bd b897 ffbb a31c 483d
000000c0: 7937 2dbd 84d6 603c 0103 4abd ca24 da3c
000000d0: 7a42 c23c 7089 133c 96b0 553d a463 c63c
000000e0: ffc2 633d b262 94bc 7510 803c af6a 4c3d
000000f0: 2f45 a83d 2a5b 533d 7c84 9abc 4604 373d
00000100: d714 3bbc f966 12bc a5da 0ebd 45cd c5ba
00000110: 0f25 323d d9be 4d3c d706 04bd 9d14 943c
00000120: d9b0 cebc b94d 363d 2392 6cbd ffef b2bc
00000130: 3409 66bd dc72 ecbc c685 823c c630 473d
00000140: 162c 8538 81f1 183d 1232 673b 8998 0d3d
00000150: 6e7e f13c bde6 1c3d 15bf e1bc ccf1 0b3d
00000160: 5e15 ca3c a634 afbc 5cf9 b3bc c169 54bd
00000170: 21be b8bb b87c 18bd dbb0 9e3c 4a4b c13a
00000180: e971 28bd 1180 483c 1046 a2bc 4543 c03c
00000190: 6a96 0b3d cb26 53bd e76d 4d3d 0a32 4b3d
000001a0: c2d9 df3c d9d2 56bd 3177 89bc 1863 29bc
000001b0: f57e b4bc 6462 fb3c 35c3 b43c 1d12 1e3d
000001c0: 8c62 b6bc 59f7 b13c c49d 603c 08e3 3fbd
000001d0: 1019 53bd 3a0d f7bc a7f0 2a3d a902 45bd
000001e0: 0d6c 49bd 573e 103d 8923 143d 30b7 433d
000001f0: 73b7 1bbd 13a1 0ebd fcae 4dbc e2bd b03c
00000200: 8522 bc3c 1325 fcbc c0e7 ccbb 1f01 353d
00000210: 7361 9dbd 7430 52bd 51dd fa3c c877 22bd
00000220: adf5 eabc 8b95 3d3d 9cff 993c 9261 b53c
00000230: 9da4 a0bc 80a4 f13a 9292 6b3d 5612 e7bc
00000240: 7634 d73c 8522 4c3d 27af 93bc 5258 a63d
00000250: f514 ccbb d05f 003c f5d4 d93b c8d6 93bc
00000260: abe5 18bd 4540 2c3d 8a37 cc3c c473 19bd
00000270: 35a3 cfbc 9783 8b3d b7df 173d d722 ec3c
00000280: 8813 ebbc 12b3 85bc 03e5 82bc 8dae 4ebc
00000290: 9544 19bd c766 3cbb a0b0 8a3b 5d98 78bb
000002a0: 69c9 2d3b 8a44 bcbc 0b67 a53c 418a c63c
000002b0: e467 dbbc cdc2 5bbd b85c 0c3d 9156 a03c
000002c0: 4fc0 cdbc 5c18 743d d54e a8bc 22b3 263d
000002d0: 4db1 573d b29b d5bc a015 793d 0e16 f2bc
000002e0: 2740 1ebc 5a8a 703c 9439 96bc 86d5 9a3d
000002f0: 5a15 223c d37f 2b3d 5ba2 14bd 80b3 313d
00000300: c888 2c3b f3d9 edbc 7787 993c 0844 243d
00000310: 606c 6a3d 89aa 00bd 9c0b bdbc 6f85 893c
00000320: 6ab9 ae3c 61bc d43c 1873 163d 30b4 0cbc
00000330: 26a0 1d3d 13eb 483d ce7e 23bc c02b 7a3c
00000340: 5e83 413c d975 323d 9d83 59bd 93f0 2fbd
00000350: 73f3 9dbc 4d52 c3bc 48fe 933c bba0 15bd
00000360: 27e0 e03c 7a29 53bc aa35 353d 7e3a 71bb
00000370: 307d 28bd ba1e 9fbc 0bc2 2bbd 01bc 0a3d
00000380: 3d38 d1bc 217e 6e3c 1511 f13c 0aa9 6abc
00000390: 1b7c 1e3d 5f2e 15bd 9d23 b2bc a6d7 01bd
000003a0: 3422 cb39 dc14 52bb 3700 413c 3392 d0bb
000003b0: 8464 f03c ca9e 6d3d 2a56 df3c 8e48 8bbc
000003c0: a872 45bd 14bc da3c 935e c6bc 027b f83c
000003d0: de0e 293d 7b22 d53c eb47 623d 9189 6f3d
000003e0: e12e 8a3c 4ed9 1cbd 062b 673d f3e4 b3bc
000003f0: 08a5 02bd 32ef 2a3d 1450 313d a94b 8a3c

branch3.bias f4 [64]
-0.010602227 -0.05234644 0.054856297 0.041387398 -0.043767896 -0.05608446 0.052704338 0.049376536
-0.05306961 0.011597311 -0.037712086 -0.04358306 -0.0400872 0.0027451576 0.052919842 0.026892252
-0.05425865 0.0319691 0.05378546 0.041346494 0.054628428 -0.033882592 -0.02912745 0.030895136
-0.044544242 -0.015990023 0.041670397 0.020326205 -0.014803838 0.022709219 -0.02599454 -0.029777154
0.017860746 -0.02575068 0.042182565 0.026141599 0.037107747 0.04472323 0.0071201227 -0.021565054
-0.04893281 -0.01668537 -0.047741257 0.03724472 0.0045700646 -0.024859779 -0.0030757228 0.04237984
-0.024011346 0.011392331 0.00765148 -0.00811379 -0.011340743 0.02249915 -0.018785063 -0.048778526
0.013322179 -0.03428076 -0.030512156 0.0023641326 0.029051106 -0.017303864 -0.03286622 0.025992
00000000: f7b4 2dbc 3869 56bd ffb0 603d d585 293d
00000010: f745 33bd d2b8 65bd 81e0 573d 0d3f 4a3d
00000020: 855f 59bd a602 3e3c fd77 1abd 2784 32bd
00000030: 7a32 24bd 1ae8 333b 7ac2 583d 244d dc3c
00000040: 513e 5ebd 08f2 023d 244e 5c3d f15a 293d
00000050: 0fc2 5f3d 79c8 0abd b19c eebc cc17 fd3c
00000060: 0674 36bd 82fd 82bc 94ae 2a3d 2483 a63c
00000070: cc8b 72bc af08 ba3c 80f2 d4bc 38ef f3bc
00000080: b350 923c 17f3 d2bc a0c7 2c3d e826 d63c
00000090: 4bfe 173d b52f 373d eb4f e93b 32a9 b0bc
000000a0: c56d 48bd c2af 88bc 568c 43bd eb8d 183d
000000b0: 7bc0 953b bca6 cbbc 1192 49bb 7c96 2d3d
000000c0: 71b3 c4bc e6a6 3a3c 44b9 fa3b b4ef 04bc
000000d0: 86ce 39bc 2350 b83c 22e3 99bc fecb 47bd
000000e0: 4545 5a3c fb69 0cbd a1f4 f9bc 90ef 1a3b
000000f0: 96fc ed3c d5c0 8dbc bb9e 06bd 2ded d43c

branch5.weight f4 [64, 32, 5, 5]
-0.018291261 0.00756093 0.009211736 0.0005990084 -0.0063862638 -0.0001381144 -0.015922358 0.0227878
-3.706595e-05 -0.009855585 -0.0123088425 0.01830583 -0.018118488 0.0155529715 0.00388559 -0.021911025
0.027854979 0.017019358 0.018624585 -0.009378774 -0.015487791 0.026979612 -0.015772345 0.025150083
0.03614346 -6.3668005e-05 -0.023737516 0.027869366 -0.02809567 -0.0053178174 -0.018060764 0.017498588
0.03574662 -0.01517354 -0.012787988 0.034145445 0.021164851 0.029553303 -0.018114956 0.038125705
-0.0012265558 -0.009133722 -0.0007145183 0.010585072 0.027719876 0.007146183 -0.008197105 0.020287063
-0.019742351 -0.014416939 0.005214601 0.031775795 -0.007975713 0.02375991 -0.013145844 -0.012811835
0.030133847 0.013529332 -0.008791285 -0.010624441 0.0034936476 0.019106053 0.027372258 0.0048709293
-0.010035421 0.011774154 -0.023894798 0.0030262896 -0.023505613 -0.0015141673 -0.008461467 0.018659825
0.0027368127 -0.024388304 0.010161635 -0.030804174 -0.023658626 -0.04125879 -0.023417402 -0.050791442
-0.023405833 -0.017432045 -0.029611263 -0.036060154 -0.03297318 -0.030411623 0.005180759 -0.04482702
-0.008657791 -0.012700312 -0.036564104 0.019929113 0.0025754306 -0.029803487 -0.015666394 -0.0037869164
0.009235747 -0.027332036 -0.021998197 -0.028596053 -0.0065168366 0.015447063 -0.022662533 0.029470399
-0.00680326 0.024405958 -0.007906602 -0.0012103053 0.009547522 -0.023048123 0.021796254 0.033538338
-0.020155871 0.016272873 -0.025112798 0.007695289 -0.008331272 -0.02088558 0.019907849 0.026316715
0.017281769 0.022129886 -0.0057776333 0.03100456 -0.016290637 -0.011105815 -0.0023765562 -0.010625682
0.022693176 0.023611633 0.013585759 -0.006670583 -0.0132105155 -0.009961656 -0.009419632 -0.002200848
0.015740218 0.023600262 0.020481316 -0.02028785 0.016860986 -0.027737545 -0.0014956502 0.006733365
-0.0037615432 -0.01661158 -0.017660245 0.012415245 -0.02223302 -0.0020329698 0.009719402 0.020465067
-0.004331422 0.025813706 -0.033581473 -0.015612807 -0.027531056 -0.0022050715 -0.019220566 0.024247263
-0.012119404 0.003058719 0.0244352 -0.029819084 0.015186466 -0.026009593 0.01450194 -0.010425419
-0.02646011 0.0060124164 0.006595404 0.012394057 0.022159878 -0.002648359 -0.01500507 -0.02120967
-0.047200203 -0.024108354 -0.027987158 -0.07038769 -0.041628536 -0.03678702 -0.053553697 -0.032876696
-0.06029994 -0.056878135 -0.025316425 -0.03375866 -0.021642594 -0.058327127 -0.060442194 -0.067274176
-0.040888757 -0.027312938 -0.058605872 -0.051289797 -0.033057835 -0.03900305 -0.037131086 -0.030532958
0.037442345 0.041147 -0.008573212 0.01624284 0.027616877 0.037468024 -0.0057640094 0.0323212
-0.0034597393 -0.008811253 -0.008564274 -0.0035020914 0.0037119489 0.0008077685 -0.0131326355 0.023655426
-0.007896535 0.029349845 -0.022635916 0.013975768 -0.014371503 -0.005548606 0.012304169 0.007342733
-0.007981864 -0.025885787 -0.020270035 -0.015717428 0.008611118 -0.011391157 -0.023910994 0.010377575
0.0014807656 0.009716633 -0.0044489703 -0.018997986 -0.019574331 -0.019090636 0.010250655 -0.004627744
-0.00049121986 0.006600426 -0.015380074 -0.033752974 -0.005930759 -0.034768343 -0.016892564 -0.038101636
-0.005020836 -0.005903901 -0.05649117 -0.027563656 -0.061448783 -0.038350783 -0.07067275 -0.052452434
00000000: 8ed7 95bc aec1 f73b d2ec 163c c606 1d3a
00000010: dd43 d1bb cdd2 10b9 9b6f 82bc 7bad ba3c
00000020: 4377 1bb8 5279 21bc 07ab 49bc 1cf6 953c
00000030: 396d 94bc e4d1 7e3c 62a5 7e3b c07e b3bc
00000040: 2030 e43c 2e6c 8b3c 9692 983c 6ea9 19bc
00000050: 81c0 7dbc 5904 dd3c 0135 81bc 8c07 ce3c
00000060: 2a0b 143d 8085 85b8 2e75 c2bc 4c4e e43c
00000070: e428 e6bc 1641 aebb 2bf4 93bc 3359 8f3c
00000080: 0c6b 123d 719a 78bc b684 51bc 18dc 0b3d
00000090: e961 ad3c c519 f23c d165 94bc b329 1c3d
000000a0: 62c4 a0ba 9ba5 15bc 834e 3bba 036d 2d3c
000000b0: cb14 e33c 872a ea3b 264d 06bc 0e31 a63c
000000c0: b6ba a1bc 0635 6cbc 3edf aa3b 5627 023d
000000d0: 91ac 02bc 25a4 c23c ab61 57bc bbe8 51bc
000000e0: 42db f63c 22aa 5d3c 5209 10bc 2312 2ebc
000000f0: aef5 643b 4c84 9c3c c93b e03c 519c 9f3b
00000100: 9b6b 24bc 62e8 403c 06bf c3bc b754 463b
00000110: d88e c0bc 0677 c6ba f7a1 0abc 7ddc 983c
00000120: 195c 333b fbc9 c7bc fc7c 263c 0959 fcbc
00000130: bccf c1bc fafe 28bd dad5 bfbc b00a 50bd
00000140: 97bd bfbc a6cd 8ebc 5293 f2bc d0b3 13bd
00000150: e30e 07bd cc21 f9bc 5bc3 a93b 8a9c 37bd
00000160: 68d9 0dbc f814 50bc 3ec4 15bd 6142 a33c
00000170: 8ec8 283b 7126 f4bc cf56 80bc ea2d 78bb
00000180: 8851 173c 6fe7 dfbc 9035 b4bc 4542 eabc
00000190: 308b d5bb ae15 7d3c c7a6 b9bc e86b f13c
000001a0: e2ed debb 01ef c73c b18a 01bc 1ba3 9eba
000001b0: 366d 1c3c 6bcf bcbc 0f8e b23c 7f5f 093d
000001c0: ed1d a5bc b04e 853c 5bb9 cdbc c328 fc3b
000001d0: e37f 08bc 3c18 abbc c915 a33c 2796 d73c
000001e0: 7f92 8d3c bc49 b53c 4d52 bdbb 46fd fd3c
000001f0: f173 85bc 2af5 35bc ffbf 1bbb 5717 2ebc
00000200: 0ae7 b93c 2f6d c13c ce96 5e3c e894 dabb
00000210: eb70 58bc 3736 23bc cd54 1abc 1a3c 10bb
00000220: a1f1 803c 5655 c13c 6fc8 a73c b532 a6bc
00000230: 0d20 8a3c d939 e3bc b109 c4ba 8fa3 dc3b
00000240: 3984 76bb 0215 88bc 38ac 90bc 5069 4b3c
00000250: 0622 b6bc 933b 05bb 203e 1f3c 5ba6 a73c
00000260: 9aee 8dbb 4477 d33c ba8c 09bd dccc 7fbc
00000270: cf88 e1bc f682 10bb 7374 9dbc 32a2 c63c
00000280: 7790 46bc ca74 483b 542c c83c 2747 f4bc
00000290: a8d0 783c 1212 d5bc 8c99 6d3c 60cf 2abc
000002a0: dfc2 d8bc ce03 c53b 421e d83b 7110 4b3c
000002b0: a288 b53c 1790 2dbb d3d7 75bc e7bf adbc
000002c0: 0055 41bd e27e c5bc 5345 e5bc 6c27 90bd
000002d0: af82 2abd fcad 16bd 1f5b 5bbd b7a9 06bd
000002e0: 12fd 76bd 0cf9 68bd 6464 cfbc 8546 0abd
000002f0: cf4b b1bc 6de8 6ebd 3c92 77bd 0bc7 89bd
00000300: f87a 27bd 62bf dfbc b60c 70bd 4015 52bd
00000310: a767 07bd aac1 1fbd c416 18bd 4120 fabc
00000320: 255d 193d c289 283d a876 0cbc b40f 853c
00000330: ca3c e23c 1278 193d 04e0 bcbb 3c63 043d
00000340: cbbc 62bb 135d 10bc 2b51 0cbc 5883 65bb
00000350: 2b44 733b 6dc0 533a 442a 57bc 06c9 c13c
00000360: 7860 01bc 166f f03c f56e b9bc 9ffa 643c
00000370: 7476 6bbc 15d1 b5bb 6d97 493c 4f9b f03b
00000380: 5dc6 02bc 6e0e d4bc 580d a6bc d6c1 80bc
00000390: a615 0d3c faa1 3abc fde0 c3bc b406 2a3c
000003a0: 4016 c23a 8332 1f3c abc8 91bb aaa1 9bbc
000003b0: 595a a0bc f763 9cbc 5df2 273c 55a4 97bb
000003c0: 35c5 00ba 6348 d83b b5fc 7bbc 8f40 0abd
000003d0: d056 c2bb 4069 0ebd 4662 8abc 7610 1cbd
000003e0: d385 a4bb 8375 c1bb 4963 67bd 2dcd e1bc
000003f0: b8b1 7bbd b615 1dbd e0bc 90bd 5dd8 56bd

branch5.bias f4 [64]
-0.009196995 -0.028199868 -0.010989167 0.004336479 0.030029388 -0.029050274 -0.0056324094 0.027406387
0.0335247 0.018538835 0.013879094 0.004416572 -0.031497233 -0.008922141 -0.032301936 -0.020456998
-0.02204424 0.026715305 0.02597587 0.020284597 0.030545158 0.0142289195 0.020133726 0.008654627
-0.0007334 -0.01299328 0.012836309 0.0060967333 0.02644064 -0.026467046 -0.015433248 -0.014664622
-0.03219977 -0.011910626 -0.0046061035 0.028202837 -0.034004904 0.031247202 0.009985024 -0.0028524618
-0.024990613 -0.016529273 -0.029163193 0.016434232 0.014897197 -0.022734575 -0.027879903 -0.0016465995
0.02420964 0.008662293 -0.026829159 -0.034573436 0.021060336 0.016331745 -0.029653339 -0.028499184
0.0064557353 -0.00034449843 -0.019234668 0.0009078169 -0.024206508 0.024159845 0.0071678353 0.022962024
00000000: feae 16bc 6903 e7bc e80b 34bc 0619 8e3b
00000010: 3100 f63c d7fa edbc 1390 b8bb 5c83 e03c
00000020: 3251 093d c1de 973c 2465 633c e4b8 903b
00000030: 3e03 01bd 2c2e 12bc 094f 04bd 6f95 a7bc
00000040: 1f96 b4bc 0eda da3c 59cb d43c e22b a63c
00000050: d739 fa3c 6a20 693c 7cef a43c 23cc 0d3c
00000060: a441 40ba c4e1 54bc 624f 523c 1bc7 c73b
00000070: 0b9a d83c 6bd1 d8bc bcdb 7cbc e243 70bc
00000080: e8e3 03bd c924 43bc ccee 96bb a309 e73c
00000090: ba48 0bbd 22fa ff3c 3a98 233c 5ef0 3abb
000000a0: 1db9 ccbc 6668 87bc a6e7 eebc 15a1 863c
000000b0: 5f13 743c dc3d babc 6564 e4bc b6d2 d7ba
000000c0: 4c53 c63c 4aec 0d3c d3c8 dbbc e09c 0dbd
000000d0: ba86 ac3c 27ca 853c 8feb f2bc 1f77 e9bc
000000e0: a28a d33b cc9d b4b9 0692 9dbc 90fa 6d3a
000000f0: ba4c c6bc deea c53c 29e0 ea3b db1a bc3c

bn_ms.weight f4 [128]
1.0194037 1.0154837 1.033023 1.047485 1.0299438 1.0389844 1.0724875 1.0175703
1.0331451 1.027242 1.028752 1.0418693 1.0294393 1.0409186 1.0325859 1.0594599
1.0589619 1.0293514 1.0441812 1.071074 1.0351745 1.0401192 1.075626 1.0160656
1.0158925 1.0483209 1.0354072 1.0779341 1.0518172 1.0359858 1.0573963 1.0438255
1.0105449 1.0576904 1.0449169 1.0410175 1.0453203 1.0600759 1.0323707 1.0188882
1.0351987 1.0333521 1.0582561 1.0383162 1.0192348 1.0460011 1.038967 1.0462171
1.0493195 1.0497621 1.0723681 1.0248407 1.0521053 1.0400031 1.018308 1.0340444
1.0166708 1.020786 1.0283397 1.0386292 1.025785 1.0237808 1.0412928 1.0264364
1.0895762 1.0726756 1.0652195 1.0616174 1.0995705 1.0559897 1.0531741 1.054695
1.0340233 1.0207378 1.0366058 1.0427804 1.0695521 1.0523617 1.0636188 1.0641459
1.0665233 1.0458962 1.015421 1.0637903 1.0811055 1.047726 1.0936632 1.0388292
1.0941436 1.0625073 1.0416586 1.0365784 1.0596415 1.0385774 1.0778893 1.037762
1.0738105 1.0729 1.0450308 1.0745806 1.0514145 1.070061 1.0847938 1.0438774
1.0505929 1.0408548 1.0617644 1.0293535 1.0324478 1.0457122 1.083454 1.0742227
1.0406737 1.0965841 1.0421213 1.0964257 1.0316459 1.0737939 1.0707533 1.0379248
1.0947415 1.022945 1.0345427 1.0289426 1.042995 1.0276418 1.0636927 1.0580703
00000000: d27b 823f 5ffb 813f 193a 843f fd13 863f
00000010: 33d5 833f 71fd 843f 4547 893f be3f 823f
00000020: 193e 843f aa7c 833f 25ae 833f f95b 853f
00000030: abc4 833f d23c 853f c62b 843f 629c 873f
00000040: 108c 873f c9c1 833f bba7 853f f418 893f
00000050: 9980 843f a022 853f 1dae 893f 700e 823f
00000060: c408 823f 612f 863f 3988 843f bff9 893f
00000070: f2a1 863f 2f9b 843f c358 873f 139c 853f
00000080: 8959 813f 6662 873f d6bf 853f 1040 853f
00000090: 0ecd 853f 91b0 873f b924 843f ee6a 823f
000000a0: 6481 843f e244 843f f074 873f 8ce7 843f
000000b0: 4976 823f 5de3 853f dffc 843f 71ea 853f
000000c0: 1a50 863f 9b5e 863f 5c43 893f fb2d 833f
000000d0: 63ab 863f d21e 853f eb57 823f 915b 843f
000000e0: 4522 823f 1ea9 823f a3a0 833f cdf1 843f
000000f0: ec4c 833f 400b 833f 1549 853f 4562 833f
00000100: 3c77 8b3f 6f4d 893f 1d59 883f 14e3 873f
00000110: babe 8c3f ac2a 873f 69ce 863f 3f00 873f
00000120: e05a 843f 89a7 823f 80af 843f d479 853f
00000130: 15e7 883f cab3 863f a924 883f ef35 883f
00000140: d683 883f eddf 853f 51f9 813f 482a 883f
00000150: aa61 8a3f e31b 863f 28fd 8b3f 5bf8 843f
00000160: e60c 8c3f 3d00 883f 1255 853f 9aae 843f
00000170: 55a2 873f 1bf0 843f 47f8 893f 63d5 843f
00000180: 9f72 893f ca54 893f 92c3 853f db8b 893f
00000190: c094 863f c2f7 883f 86da 8a3f c69d 853f
000001a0: d479 863f bb3a 853f e5e7 873f dbc1 833f
000001b0: 4027 843f e6d9 853f 9fae 8a3f 2180 893f
000001c0: cc34 853f de5c 8c3f 3b64 853f ad57 8c3f
000001d0: f90c 843f 1472 893f 720e 893f b8da 843f
000001e0: 7d20 8c3f ddef 823f e56b 843f 64b4 833f
000001f0: dc80 853f c489 833f 1527 883f d96e 873f

bn_ms.bias f4 [128]
0.0058836476 0.010703609 0.025464062 0.03217963 -0.0050122323 0.023236848 0.047665026 0.0064632115
0.022053154 -0.003564534 0.018931307 0.010532142 0.018051077 0.036294438 0.015106622 0.014615828
0.035961267 0.035975073 0.034037624 0.023466302 0.014408733 0.036040135 0.051958166 -0.013154267
0.005800882 0.03217163 0.01690482 0.052308932 0.03814004 0.024529133 0.054142468 0.024730703
0.002029653 0.04579167 0.035857752 0.021041872 0.04203911 0.035087753 0.017036857 0.01917972
0.027093211 0.027104797 0.050118644 0.025209123 0.010576578 0.014887597 0.0046087126 0.02078936
0.037990972 0.039498143 0.05461894 -0.0005618563 0.03508724 0.04114401 0.008674565 -0.00069455936
0.017629053 0.005708236 0.013496644 0.03141061 0.032760736 0.011108743 0.042521656 0.00062441424
0.039498962 0.051537056 0.05180055 0.02134283 0.059166636 0.0468256 0.0429826 0.054410458
0.02280261 0.0125368275 -0.0067077093 0.011415332 0.0586029 0.049043283 0.0485791 0.054506257
0.011309432 0.036451865 0.010280492 0.0025863717 0.03326788 0.021375544 0.06497847 0.025764868
0.072769865 0.05233226 0.03665067 0.015498284 -0.0021548623 0.029879931 0.040050652 0.036749076
0.0073063937 0.045926075 0.031583235 0.024903495 0.02996188 0.04239986 0.038455237 -0.014419477
0.02934867 0.024443315 0.053821485 0.018366933 0.008621139 -0.0154030295 0.048751038 0.05651713
0.039075974 0.036694583 0.025125492 0.04315088 0.009013524 0.025840564 0.052133996 0.029936478
0.08280183 -0.0019895118 0.008636945 0.026816456 0.011261662 0.0075621842 0.055497535 0.044183567
00000000: 9dcb c03b 315e 2f3c 029a d03c cace 033d
00000010: a73d a4bb 345b be3c 673c 433d 59c9 d33b
00000020: d1a8 b43c f59a 69bb d415 9b3c 018f 2c3c
00000030: dadf 933c 7aa9 143d c481 773c 3a77 6f3c
00000040: 1f4c 133d 995a 133d 096b 0b3d 673c c03c
00000050: 9b12 6c3c d29e 133d 16d2 543d ff84 57bc
00000060: 5315 be3b 66c6 033d fa7b 8a3c e441 563d
00000070: bb38 1c3d 52f1 c83c 7ec4 5d3d 0b98 ca3c
00000080: ed03 053b 0c90 3b3d 94df 123d 0160 ac3c
00000090: 3431 2c3d 2db8 0f3d e190 8b3c ca1e 9d3c
000000a0: 95f2 dd3c e10a de3c 3549 4d3d 5d83 ce3c
000000b0: 6249 2d3c 1ceb 733c af04 973b 734e aa3c
000000c0: 6c9c 1b3d cec8 213d 1cb8 5f3d 8a49 13ba
000000d0: a3b7 0f3d 9f86 283d c31f 0e3c 1713 36ba
000000e0: ce6a 903c 270c bb3b 0721 5d3c 69a8 003d
000000f0: 1f30 063d 7201 363c 302b 2e3d bbaf 233a
00000100: aac9 213d 8518 533d d02c 543d 29d7 ae3c
00000110: b758 723d 33cc 3f3d 860e 303d 80dd 5e3d
00000120: 8acc ba3c 4467 4d3c 58cc dbbb 5f07 3b3c
00000130: 9809 703d 9ce1 483d e1fa 463d f441 5f3d
00000140: 324b 393c 8d4e 153d 826f 283c 1e80 293b
00000150: e743 083d c41b af3c 6f13 853d d810 d33c
00000160: 5e08 953d 5a5a 563d 031f 163d 84ec 7d3c
00000170: 9738 0dbb c2c6 f43c 270c 243d 3386 163d
00000180: 796a ef3b fb1c 3c3d 6c5d 013d 6a02 cc3c
00000190: 9e72 f53c 7aab 2d3d 3d83 1d3d ac3f 6cbc
000001a0: 9f6c f03c 593d c83c eb73 5c3d 4076 963c
000001b0: ae3f 0d3c fd5c 7cbc 2baf 473d 827e 673d
000001c0: 210e 203d 0f4d 163d fad3 cd3c fabe 303d
000001d0: 76ad 133c 97af d33c 758a 553d 583d f53c
000001e0: 0194 a93d 7862 02bb f981 0d3c 2fae db3c
000001f0: d582 383c 33cc f73b 6251 633d d4f9 343d

bn_ms.running_mean f4 [128]
0.3403868 -0.2775463 -0.3129328 0.22411008 0.40908948 0.05649952 0.1126654 -0.35993367
0.22568217 0.4392483 0.2971333 0.2355625 -0.32231733 -0.34776062 0.5915468 0.1821731
-0.047877826 -0.11787173 0.02597991 0.112176225 0.2723936 0.27151442 -0.033012103 0.5117879
-0.2027251 0.105658315 0.46970764 -0.5260592 -0.5774415 0.1387091 -0.08136621 -0.6492843
-0.027073026 -0.116280064 -0.16237572 0.4831754 -0.064358465 -0.42252192 -0.162163 -0.19800113
-0.2178383 -0.059487678 -0.5787289 -0.12470604 -0.4730518 -0.41486457 0.56260335 0.5688177
-0.08887275 0.17885962 0.033192404 0.18143836 -0.48712897 -0.15976596 0.3192026 0.08020738
-0.16864905 0.3174664 0.3217673 -0.26425675 -0.28580588 -0.24690074 -0.053595565 0.46906617
-0.47943494 0.08869561 -0.18779904 0.6173911 0.1341089 -1.034755 0.249392 0.03576941
-0.7163336 -0.44586 0.43578675 0.3746478 -0.020016223 -0.8388505 0.051013213 0.06850424
0.23032753 0.1524294 0.84968996 0.14816163 -0.5788647 -0.6970866 0.059080128 -0.20676929
0.18979697 0.097342975 -0.29879138 0.6152417 0.5613236 0.6831492 0.2986109 -0.093650065
0.23840202 0.311731 -0.29551545 -0.64149654 0.13045661 -0.785454 -0.5069832 0.009753805
-0.7580085 -0.54238194 -0.004782542 -0.4272067 0.5838042 0.924917 0.00023520563 -0.5743213
-0.59339863 -0.6584108 0.123208635 0.15258355 0.9498007 -0.6813568 -0.4685811 0.01758857
-0.03324812 0.9143322 0.44165558 -0.19471617 0.5741771 0.89635235 0.07922703 -0.024587534
00000000: 2e47 ae3e 8c1a 8ebe ba38 a0be 1d7d 653e
00000010: 2d74 d13e 0a6c 673d 1ebd e63d 3a49 b8be
00000020: 3a19 673e 27e5 e03e db21 983e 4c37 713e
00000030: c706 a5be ae0d b2be 9c6f 173f 968b 3a3e
00000040: 8a1b 44bd bc66 f1bd d2d3 d43c a6bc e53d
00000050: 2d77 8b3e f003 8b3e b337 07bd 8804 033f
00000060: 2b97 4fbe 6363 d83d 857d f03e d1ab 06bf
00000070: 35d3 13bf c209 0e3e 54a3 a6bd 7f37 26bf
00000080: 40c8 ddbc 3e24 eebd d245 26be c462 f73e
00000090: 5fce 83bd cb54 d8be 0f0e 26be cfc0 4abe
000000a0: 0111 5fbe 5aa9 73bd 9427 14bf e165 ffbd
000000b0: d833 f2be 2169 d4be c606 103f 099e 113f
000000c0: eb02 b6bd fa26 373e c2f4 073d faca 393e
000000d0: f868 f9be b099 23be 866e a33e c443 a43d
000000e0: 56b2 2cbe f58a a23e afbe a43e a94c 87be
000000f0: 2655 92be 8cd3 7cbe 0687 5bbd 7129 f03e
00000100: 7f78 f5be 0ba6 b53d 644e 40be 580d 1e3f
00000110: d853 093e da72 84bf 9e60 7f3e f282 123d
00000120: a461 37bf c347 e4be 711f df3e d6d1 bf3e
00000130: 10f9 a3bc e8be 56bf 3bf3 503d f34b 8c3d
00000140: fbda 6b3e 7416 1c3e 4885 593f afb7 173e
00000150: 7a30 14bf 4474 32bf 01fe 713d 54bb 53be
00000160: 235a 423e c15b c73d 2ffb 98be 7b80 1d3f
00000170: e7b2 0f3f dee2 2e3f 87e3 983e 9bcb bfbd
00000180: a91f 743e 359b 9f3e cd4d 97be 1e39 24bf
00000190: 6b96 053e 8313 49bf a7c9 01bf 6cce 1f3c
000001a0: d80c 42bf 8bd9 0abf dfb6 9cbb d6ba dabe
000001b0: 3174 153f 5cc7 6c3f 88a1 7639 b906 13bf
000001c0: f9e8 17bf 9c8d 28bf cf54 fc3d dd3e 1c3e
000001d0: 2426 733f 666d 2ebf dde9 efbe e815 903c
000001e0: 2e2f 08bd ad11 6a3f ae20 e23e ad63 47be
000001f0: 45fd 123f 5977 653f c841 a23d cc6b c9bc

bn_ms.running_var f4 [128]
0.09267231 0.10246607 0.122034386 0.070932515 0.12101956 0.07574888 0.08499673 0.1498056
0.123664394 0.11838619 0.05565597 0.09990173 0.1059472 0.14614147 0.12376053 0.12250527
0.09057688 0.0972241 0.052764487 0.07483559 0.13685511 0.17278495 0.05683507 0.09326027
0.07315406 0.100142516 0.12831558 0.17914978 0.18655154 0.052473843 0.07192878 0.19703153
0.11298921 0.09386688 0.09348528 0.11395567 0.053860936 0.1400211 0.08124356 0.14520751
0.14770737 0.08636435 0.14115804 0.06217726 0.27452433 0.15882422 0.13048582 0.12425333
0.07378139 0.1055356 0.065362975 0.07633436 0.1395777 0.30363765 0.09366925 0.08453007
0.075501435 0.21301298 0.09280698 0.20365773 0.08444574 0.2249188 0.08959907 0.093303874
0.22572918 0.15388496 0.12000163 0.2329569 0.12540779 0.30185476 0.15947795 0.29853708
0.17374736 0.14059088 0.2240987 0.13652626 0.15625022 0.23155943 0.090476684 0.08444831
0.15426104 0.07134161 0.2758855 0.16688266 0.2326222 0.29343545 0.122367755 0.13423404
0.15343274 0.055955976 0.09786723 0.27851778 0.17283443 0.38299814 0.18382633 0.09846942
0.18287747 0.12666818 0.09578389 0.25651658 0.10273073 0.47565424 0.21606633 0.14924155
0.2708677 0.12760252 0.1326466 0.4619367 0.26754117 0.26377136 0.09890171 0.16602172
0.14272553 0.27857253 0.11126481 0.128144 0.30858773 0.29829678 0.109642416 0.06789781
0.15867719 0.3005226 0.15097934 0.1864205 0.2903325 0.27662024 0.11677788 0.10609203
00000000: fbca bd3d bbd9 d13d 2aed f93d 1145 913d
00000010: 1ad9 f73d 3b22 9b3d c412 ae3d a466 193e
00000020: c243 fd3d 7574 f23d 84f7 633d 4799 cc3d
00000030: d8fa d83d 1ca6 153e 2976 fd3d 0be4 fa3d
00000040: 5f80 b93d 6e1d c73d 931f 583d 6743 993d
00000050: bf23 0c3e 8aee 303e e4cb 683d 3eff be3d
00000060: ccd1 953d 8517 cd3d 2965 033e 0a73 373e
00000070: 5e07 3f3e d0ee 563d 654f 933d a2c2 493e
00000080: e366 e73d 473d c03d 3675 bf3d 9761 e93d
00000090: 499d 5c3d b161 0f3e 0663 a63d 47b1 143e
000000a0: 9a40 173e cbdf b03d bc8b 103e 95ad 7e3d
000000b0: 748e 8c3e d1a2 223e 139e 053e 8878 fe3d
000000c0: b31a 973d 0c23 d83d 06dd 853d 3055 9c3d
000000d0: 75ed 0e3e 6576 9b3e aad5 bf3d 1a1e ad3d
000000e0: 7fa0 9a3d 1320 5a3e 9611 be3d a78b 503e
000000f0: e3f1 ac3d 1d51 663e b87f b73d 1a16 bf3d
00000100: 8d25 673e 0594 1d3e 6ac3 f53d 418c 6e3e
00000110: e66a 003e b58c 9a3e 304e 233e dad9 983e
00000120: d4ea 313e 0ef7 0f3e 217a 653e 8acd 0b3e
00000130: 0f00 203e ea1d 6d3e d74b b93d 3cf3 ac3d
00000140: 9bf6 1d3e 8d1b 923d dd40 8d3e 4ae3 2a3e
00000150: 8434 6e3e 2c3d 963e f29b fa3d a674 093e
00000160: 791d 1d3e 1832 653d 9d6e c83d e299 8e3e
00000170: 82fb 303e 5518 c43e f83c 3c3e 56aa c93d
00000180: 3b44 3b3e 4eb5 013e 582a c43d 2456 833e
00000190: 7d64 d23d f488 f33e 7e40 5d3e c7d2 183e
000001a0: 2caf 8a3e 3caa 023e 83d4 073e f882 ec3e
000001b0: 28fb 883e 0a0d 873e fb8c ca3d 9901 2a3e
000001c0: a426 123e 0fa1 8e3e cede e33d 2e38 033e
000001d0: 36ff 9d3e 5bba 983e 348c e03d 020e 8b3d
000001e0: 467c 223e 19de 993e 549a 1a3e 04e5 3e3e
000001f0: 76a6 943e 2ba1 8d3e 3e29 ef3d c746 d93d
