checkpoints/best_0.4755.pt (torch, 328019 bytes, 22 tensors)

layer1.0.weight f4 [32, 1, 3, 3]
0.10239839 0.034454547 -0.17726578 0.51591265 -0.24835634 0.11126265 0.091122404 0.108475015
0.24977247 -0.34700677 0.19713482 -0.07572373 0.1098949 0.012556643 0.03537324 -0.12023122
0.29362085 0.010847302 -0.034970902 0.1669261 -0.046055883 0.049457528 -0.07322863 0.29123512
-0.26335427 -0.1666011 -0.05273423 -0.20270567 0.026336696 -0.31877485 0.31863734 -0.24876082
0.2796461 0.06810725 -0.08708264 0.21326138 -0.08311635 0.22326174 -0.05700136 -0.21970184
0.05284303 -0.18184298 0.017622897 0.26878694 0.07617282 -0.07393073 0.2695033 0.09811673
0.20898911 -0.13259742 -0.3106445 -0.12767625 -0.20510283 0.27975285 0.11314506 0.13516353
0.13807148 -0.038483515 0.19403389 -0.2405142 -0.033912674 -0.27075765 0.06300278 -0.071221665
0.102827124 -0.048284624 0.29864842 -0.21403323 -0.20162481 -0.22460718 0.26516512 0.11240864
0.36637855 -0.21897405 -0.31666476 -0.19999774 -0.16524772 0.15275083 0.1623148 0.31700748
-0.14378802 -0.16226538 0.21905749 -0.08652699 0.21460687 -0.04728651 0.21063638 -0.2703448
-0.16920388 0.10732339 0.050956946 -0.11013924 0.18796451 0.24262337 -0.23724703 -0.16052589
0.3051535 -0.12577397 -0.12023067 -0.22667985 -0.20336153 0.22600976 0.028296042 -0.29552203
0.17187537 -0.058449257 -0.1539002 0.06657452 -0.30296168 -0.18434727 0.40063426 0.02403812
0.11827984 -0.20347115 -0.11381165 -0.022648275 0.17675257 -0.30320835 -0.25910294 -0.2590937
-0.01581369 -0.24504164 -0.06394521 -0.078864366 -0.1601964 -0.08974942 -0.14046323 -0.26855814
0.29052934 -0.11482201 0.24855886 0.09985792 -0.28325102 0.23142555 -0.058672953 -0.033995178
-0.29778603 -0.43966487 0.19756174 -0.05571473 0.14902493 -0.11118071 0.32812378 -0.14336191
0.09842073 0.08082118 0.18744089 0.26767412 0.24738948 -0.2407068 0.011749968 -0.20439307
-0.08268465 -0.29375914 0.28641838 -0.28711966 0.106721275 0.07202326 0.022918591 -0.20162486
0.2896738 -0.011868552 0.09546428 -0.28947505 0.1559373 0.019015199 -0.13449307 0.31135663
0.13020834 -0.14688534 -0.09546138 0.012180544 0.22013871 -0.10498006 -0.17076567 -0.06995843
-0.22253484 0.13391136 0.30136305 -0.24772197 0.095313 0.19650067 0.14456658 -0.14781983
0.08107102 0.09717565 0.019802498 -0.12179688 -0.14822948 -0.0026140176 -0.11545661 -0.14514062
0.22032428 0.23343058 -0.04670687 -0.02807552 0.00065989606 -0.02856923 0.14429091 0.11282632
-0.25252205 -0.071047656 0.27424136 0.12954631 0.013342713 -0.22807974 -0.24664713 -0.2706475
-0.08649212 0.1579596 0.21945953 0.16096117 -0.25804177 -0.2042639 -0.04484541 0.34894
0.116412625 0.03196113 0.19910006 -0.08022245 -0.10972876 0.28318256 -0.12723702 -0.010808294
-0.30451542 0.16365252 0.17052603 0.06427855 -0.2834047 -0.38066378 -0.3263032 0.21614067
0.12915489 0.22587965 0.26071855 0.18942781 0.096453965 -0.1830504 -0.18256779 -0.22534478
0.15886562 -0.104441576 -0.042532817 -0.04894621 -0.084642775 -0.26763752 -0.049885776 0.11698616
-0.053886127 0.35156792 -0.04391915 -0.118598215 -0.038921088 -0.18409806 -0.08809216 -0.2792197
00000000: 3fb6 d13d 3620 0d3d 2985 35be da12 043f
00000010: 2051 7ebe acdd e33d 629e ba3d 2628 de3d
00000020: 5bc4 7f3e dfaa b1be b6dd 493e 0b15 9bbd
00000030: 9410 e13d 61ba 4d3c 88e3 103d c93b f6bd
00000040: 7955 963e e2b8 313c a63d 0fbd adee 2a3e
00000050: 18a5 3cbd fa93 4a3d e4f8 95bd c51c 953e
00000060: 5fd6 86be 7b99 2abe d9ff 57bd 1392 4fbe
00000070: 0ec0 d73c 7536 a3be 6f24 a33e 28bb 7ebe
00000080: c62d 8f3e d07b 8b3d 6258 b2bd 3161 5a3e
00000090: e838 aabd ba9e 643e 427a 69bd 85f9 60be
000000a0: ef71 583d 0c35 3abe e55d 903c 719e 893e
000000b0: 7f00 9c3d ff68 97bd 56fc 893e 6df1 c83d
000000c0: 3e01 563e 9ec7 07be cc0c 9fbe 90bd 02be
000000d0: 7a06 52be c43b 8f3e 99b8 e73d 4f68 0a3e
000000e0: 9c62 0d3e e4a0 1dbd d2b0 463e 5b49 76be
000000f0: 04e8 0abd bfa0 8abe 9a07 813d aadc 91bd
00000100: 0797 d23d 19c6 45bd 72e8 983e 872b 5bbe
00000110: bc76 4ebe 6dff 65be b9c3 873e 8036 e63d
00000120: f895 bb3e bc3a 60be e221 a2be 35cc 4cbe
00000130: b336 29be b76a 1c3e da35 263e ce4e a23e
00000140: 2b3d 13be e528 26be 9b50 603e 1035 b1bd
00000150: e7c1 5b3e 80af 41bd 10b1 573e a26a 8abe
00000160: c843 2dbe 5ecc db3d 3bb8 503d af90 e1bd
00000170: c579 403e 4372 783e e3f0 72be e660 24be
00000180: 143d 9c3e e4ca 00be 7f3b f6bd c31e 68be
00000190: 013e 50be 1a6f 673e 1acd e73c aa4e 97be
000001a0: 1900 303e 7d68 6fbd 0498 1dbe 3958 883d
000001b0: cb1d 9bbe 88c5 3cbe ef1f cd3e 97eb c43c
000001c0: b33c f23d be5a 50be 1516 e9bd e088 b9bc
000001d0: a0fe 343e 203e 9bbe 24a9 84be eea7 84be
000001e0: b68b 81bc 32ec 7abe b5f5 82bd a483 a1bd
000001f0: 860a 24be 8bce b7bd 98d5 0fbe 7480 89be
00000200: 43c0 943e cd27 ebbd 3786 7e3e 4f82 cc3d
00000210: 4706 91be d2fa 6c3e 0d53 70bd 873e 0bbd
00000220: 6977 98be c11b e1be a04d 4a3e 2135 64bd
00000230: fe99 183e b6b2 e3bd d7ff a73e 77cd 12be
00000240: cf90 c93d 9385 a53d 81f0 3f3e 950c 893e
00000250: ab53 7d3e d87b 76be f082 403c 6b4c 51be
00000260: 9256 a9bd 9967 96be 6ea5 923e 5901 93be
00000270: af90 da3d ee80 933d c5bf bb3c bf76 4ebe
00000280: 2050 943e 5174 42bc c782 c33d 1336 94be
00000290: 07ae 1f3e c3c5 9b3c 8db8 09be 236a 9f3e
000002a0: 5655 053e 1c69 16be 4281 c3bd e890 473c
000002b0: 0b6c 613e c9ff d6bd 32dd 2ebe 5e46 8fbd
000002c0: 2ce0 63be 0f20 093e 424c 9a3e d4aa 7dbe
000002d0: 7633 c33d 7937 493e 4309 143e 155e 17be
000002e0: 9008 a63d 0704 c73d d938 a23c a570 f9bd
000002f0: 78c9 17be f04f 2bbb 8474 ecbd be9f 14be
00000300: b09c 613e 6d08 6f3e b44f 3fbd a2fe e5bc
00000310: e0fc 2c3a 050a eabc ffc0 133e 7c11 e73d
00000320: 924a 81be 6f81 91bd 5d69 8c3e caa7 043e
00000330: 659b 5a3c bc8d 69be 1191 7cbe 4f92 8abe
00000340: c822 b1bd 29c0 213e 00ba 603e 01d3 243e
00000350: 0d1e 84be 8e2a 51be d2af 37bd 44a8 b23e
00000360: be69 ee3d ade9 023d e3e0 4b3e ab4b a4bd
00000370: 79b9 e0bd 4efd 903e 6c4a 02be 4515 31bc
00000380: 72e9 9bbe 8794 273e 609e 2e3e 79a4 833d
00000390: 6c1a 91be 5de6 c2be 3711 a7be fb53 5d3e
000003a0: 2e41 043e ff4c 673e e77c 853e 5df9 413e
000003b0: a889 c53d 9071 3bbe 0df3 3abe c8c0 66be
000003c0: abad 223e 77e5 d5bd e436 2ebd d27b 48bd
000003d0: 3159 adbd c907 89be 0755 4cbd 7196 ef3d
000003e0: b3b7 5cbd b600 b43e 91e4 33bd 9fe3 f2bd
000003f0: b86b 1fbd 3484 3cbe aa69 b4bd e2f5 8ebe

layer1.0.bias f4 [32]
0.27845007 -0.047078516 -0.037592907 -0.13588482 -0.3098061 -0.33876818 0.12436604 -0.18786114
-0.20891857 -0.022354813 -0.101184994 -0.10740721 0.0071479566 -0.07034033 -0.11613254 -0.15875944
-0.27208295 0.28593367 -0.11885696 0.08695547 -0.11534443 0.01924711 0.30782863 0.1418815
-0.29286954 0.13402247 0.3035074 0.08753793 0.23473756 0.33750662 -0.050701756 0.0682357
00000000: 0291 8e3e 67d5 40bd 05fb 19bd 6425 0bbe
00000010: e89e 9ebe 0673 adbe 9fb3 fe3d ac5e 40be
00000020: c0ee 55be 7121 b7bc 143a cfbd 50f8 dbbd
00000030: 6839 ea3b 970e 90bd e6d6 edbd d691 22be
00000040: 754e 8bbe e665 923e 476b f3bd b615 b23d
00000050: b339 ecbd 1dac 9d3c b79b 9d3e 6249 113e
00000060: fff2 95be 303d 093e 5265 9b3e 1647 b33d
00000070: 0b5f 703e abcd ac3e a5ac 4fbd 29bf 8b3d

layer1.1.weight f4 [32]
0.8985931 0.9695734 0.859628 1.0086282 0.9644605 0.9261188 0.9893317 1.1237969
0.96382433 0.94938415 1.1192627 0.8281228 0.90021884 0.8825274 1.14747 0.9206115
0.92744803 1.0833197 1.0387363 0.9512578 0.8879249 0.9983582 0.8622186 1.0010198
1.0091393 1.0825791 0.9810429 0.91600686 1.1659905 1.0893751 0.91526645 0.9621365
00000000: 330a 663f f635 783f 9510 5c3f bb1a 813f
00000010: e2e6 763f 1f16 6d3f d844 7d3f 94d8 8f3f
00000020: 31bd 763f d70a 733f 0044 8f3f dbff 533f
00000030: be74 663f 51ed 613f 4ce0 923f 32ad 6b3f
00000040: 3c6d 6d3f 38aa 8a3f 50f5 843f a285 733f
00000050: 0c4f 633f 6794 7f3f 5cba 5c3f 6b21 803f
00000060: 7a2b 813f f491 8a3f a125 7b3f 6d7f 6a3f
00000070: 2d3f 953f a570 8b3f e74e 6a3f 944e 763f

layer1.1.bias f4 [32]
-0.03392583 0.0803891 -0.046255164 -0.11029192 0.061225336 -0.2173585 0.004166879 -0.15766606
-0.20002203 -0.100025095 0.0744529 -0.096177205 -0.10601312 0.10691289 -0.24580866 -0.0010625471
-0.0022447912 0.030817311 -0.04435917 -0.11190574 0.052590046 0.11967224 -0.06739307 -0.19805925
0.012501967 0.09012673 -0.07837369 -0.019738689 0.004720535 -0.0008972956 0.017344816 -0.021088658
00000000: d0f5 0abd 0aa3 a43d 0e76 3dbd bbe0 e1bd
00000010: 6bc7 7a3d 3a93 5ebe 518a 883b 3673 21be
00000020: 93d2 4cbe f5d9 ccbd c37a 983d 8ef8 c4bd
00000030: 681d d9bd 25f5 da3d 44b5 7bbe 2a45 8bba
00000040: 591d 13bb 9674 fc3c f6b1 35bd d62e e5bd
00000050: a968 573d b816 f53d 6105 8abd 0bd0 4abe
00000060: 0dd5 4c3c 5d94 b83d 6382 a0bd 08b3 a1bc
00000070: b8ae 9a3b 7d38 6bba b716 8e3c 1fc2 acbc

layer1.1.running_mean f4 [32]
-0.41001028 -0.15885451 0.07582511 -0.18653326 -0.4006154 -0.3363896 0.07747443 -0.20612283
-0.1752109 -0.03553466 -0.122218944 0.28325891 0.102671474 1.193616 -0.11932397 0.17272733
-0.5882656 0.2857818 -0.15167816 0.2078427 -0.2979668 -0.06833343 0.4075923 0.11964447
-0.28298596 0.16123074 0.3427096 0.2434538 0.2118137 0.3535224 -0.23684743 0.22567205
00000000: deec d1be c2aa 22be 324a 9b3d 9302 3fbe
00000010: 761d cdbe 423b acbe eaaa 9e3d dd11 53be
00000020: 7c6a 33be cb8c 11bd ed4d fabd 5007 913e
00000030: 6c45 d23d 69c8 983f 2060 f4bd 6fdf 303e
00000040: 9398 16bf fe51 923e 8551 1bbe b7d4 543e
00000050: 1b8f 98be 66f2 8bbd f0af d03e 2908 f53d
00000060: 89e3 90be ac19 253e a277 af3e f44b 793e
00000070: b1e5 583e e300 b53e 2288 72be 9316 673e

layer1.1.running_var f4 [32]
6.496726 0.47046053 0.44018626 0.4151938 0.40529642 0.1651145 0.24400333 0.112356916
0.44353327 0.24736671 0.51646656 2.4467733 0.4671951 21.207178 0.538794 2.0620465
1.7123859 0.4140785 0.32238033 0.60253406 0.6979141 0.27349302 0.42325193 0.22947438
0.33798197 0.43819815 0.36892 0.75718904 0.4715405 0.39739728 0.77246046 0.8115064
00000000: 2ee5 cf40 34e0 f03e 1860 e13e 4894 d43e
00000010: 0383 cf3e c713 293e 02dc 793e 621b e63d
00000020: cb16 e33e b34d 7d3e 2737 043f ef97 1c40
00000030: 3234 ef3e 4da8 a941 67ee 093f 92f8 0340
00000040: 762f db3f 1902 d43e 090f a53e ac3f 1a3f
00000050: 80aa 323f 4707 8c3e 7ab4 d83e 55fb 6a3e
00000060: f90b ad3e 825b e03e 15e3 bc3e 24d7 413f
00000070: c26d f13e a877 cb3e f8bf 453f e2be 4f3f

layer1.3.fc1.weight f4 [4, 32, 1, 1]
-0.14882594 -0.062371336 0.12645255 0.082543544 -0.13674341 -0.14600775 -0.13659981 -0.18461016
-0.14510566 -0.050337095 0.10039271 0.02863159 -0.13814992 -0.14115238 0.07960962 -0.13125668
-0.0484734 0.064954504 -0.09210741 -0.024611225 -0.042747866 -0.06890401 -0.09519993 -0.1649543
-0.14727953 -0.11818926 0.16130726 -0.09176367 -0.13592845 0.02321298 0.021306686 0.094404094
0.12288617 0.120996 -0.11404639 0.09186169 0.13694298 -0.004783441 -0.101941116 0.19280708
-0.023112856 -0.08612514 -0.12626031 0.048488833 0.1212431 0.080254935 0.047329884 -0.08021538
-0.17899334 0.07898628 0.2259562 0.17768218 -0.11544711 -0.02628293 -0.0690537 -0.05073053
0.05510141 0.14023076 0.19498813 -0.092036195 0.18978381 -0.07480923 0.06466911 0.22095077
0.012919108 0.1702899 -0.26082122 -0.08162817 0.1063733 -0.08448037 -0.021544622 -0.08567578
0.034851115 0.04431533 0.06731849 -0.30798888 -0.26320684 -0.17433767 0.05594447 -0.25448844
-0.03645886 0.13514084 0.031771854 -0.14101644 -0.026794778 -0.13927896 -0.24830969 -0.13032599
-0.14698851 0.057561457 -0.14225826 -0.23292007 0.10420532 0.08547534 0.13770539 -0.26079056
-0.1642341 0.05455426 0.0076708356 -0.06241586 -0.0066196774 0.02115501 -0.098788545 0.17350046
0.26939923 0.11054919 0.05851441 -0.028322801 0.063095346 0.18262154 0.19179711 0.11593338
-0.14545113 0.17826904 -0.076357 0.24866278 -0.128205 0.007966489 0.0905384 0.104619205
0.024687208 0.20064655 0.111225925 0.27783832 0.23771152 0.010496978 -0.19341248 0.278531
00000000: d465 18be 1679 7fbd c77c 013e 970c a93d
00000010: 7706 0cbe 0e83 15be d2e0 0bbe 720a 3dbe
00000020: 9496 14be 452e 4ebd b19a cd3d cc8c ea3c
00000030: 2c77 0dbe 408a 10be 5e0a a33d 2768 06be
00000040: 0b8c 46bd de06 853d cfa2 bcbd 7b9d c9bc
00000050: 6318 2fbd 8c1d 8dbd 2ef8 c2bd c8e9 28be
00000060: 72d0 16be 360d f2bd bb2d 253e 97ee bbbd
00000070: d430 0bbe 2629 be3c 5c8b ae3c ef56 c13d
00000080: bfab fb3d c0cc f73d 2791 e9bd fb21 bc3d
00000090: c83a 0c3e 69be 9cbb 81c6 d0bd 386f 453e
000000a0: 2c57 bdbc 6162 b0bd 624a 01be 3a9c 463d
000000b0: 4d4e f83d b35c a43d fbdc 413d f647 a4bd
000000c0: 084a 37be 8fc3 a13d 1061 673e 51f2 353e
000000d0: 896f ecbd 4d4f d7bc 076c 8dbd d1ca 4fbd
000000e0: 04b2 613d a798 0f3e f8aa 473e 797d bcbd
000000f0: b056 423e 9535 99bd 3d71 843d eb40 623e
00000100: abaa 533c 7a60 2e3e 5c8a 85be ac2c a7bd
00000110: 3fda d93d 0b04 adbd 597e b0bc c976 afbd
00000120: 0bc0 0e3d fe83 353d 47de 893d b8b0 9dbe
00000130: 0cc3 86be 9385 32be 0726 653d 4f4c 82be
00000140: e355 15bd 5c62 0a3e 3423 023d 9d66 10be
00000150: b980 dbbc 259f 0ebe e544 7ebe 2d74 05be
00000160: 2884 16be 90c5 6b3d 26ac 11be 9982 6ebe
00000170: 9969 d53d b20d af3d a402 0d3e 5786 85be
00000180: fc2c 28be 4a74 5f3d a25b fb3b c6a7 7fbd
00000190: e1e9 d8bb 464d ad3c a651 cabd 1baa 313e
000001a0: b2ee 893e 9d67 e23d ceac 6f3d 3805 e8bc
000001b0: 2238 813d 2401 3b3e 7666 443e 7b6e ed3d
000001c0: 24f1 14be 298c 363e 0f61 9cbd 75a1 7e3e
000001d0: 2c48 03be e085 023c 326c b93d 9842 d63d
000001e0: d43c ca3c 4a76 4d3e 6bca e33d d340 8e3e
000001f0: a66a 733e 84fb 2b3c ec0d 46be 9d9b 8e3e

layer1.3.fc1.bias f4 [4]
0.11009507 -0.127603 0.048396196 -0.09634264
00000000: 8679 e13d 5caa 02be 173b 463d 4a4f c5bd

layer1.3.fc2.weight f4 [32, 4, 1, 1]
-0.38087213 0.07583017 0.009557191 0.5423168 -0.10776186 0.54392314 -0.079314694 -0.13052629
-0.026815305 0.052116975 0.12043236 -0.52309865 0.18613079 -0.26572394 -0.3123488 -0.3386746
0.5068526 0.449391 0.37761664 0.46254924 0.38488242 -0.066825986 -0.36231294 0.22339821
-0.2511629 -0.32160634 -0.16549386 0.09935855 0.23413318 -0.2763467 -0.15665938 0.004450917
-0.27693638 -0.31636313 0.063316666 -0.08857954 0.46773183 0.43755183 0.03802581 0.07700211
0.09317171 -0.14698105 0.16497383 0.0008151297 0.19161859 0.31537098 -0.06187651 -0.47204426
-0.11795147 -0.33127773 0.06737735 0.23073006 0.38950455 0.08249853 -0.34204242 -0.49292064
-0.11226805 -0.15877195 0.07493221 -0.43464544 0.15604724 -0.44056955 -0.34616166 -0.54141873
0.44206527 -0.5767183 0.4158335 0.31281888 -0.0437092 0.21788447 0.012491431 0.32556036
0.33615768 -0.6258563 0.38530302 0.10319239 0.10019922 0.060332537 0.07596789 -0.3312052
-0.04083557 0.34974658 0.3085394 0.29017654 -0.43629745 0.1369026 -0.5352113 0.4677339
-0.29293013 -0.045032073 -0.18058796 -0.04326983 0.4732443 0.01389622 0.15091471 0.37690383
0.4162902 -0.16831116 -0.16319406 0.15524642 -0.10302272 0.32927734 -0.23101364 -0.45504594
0.22446379 0.108313665 0.094145566 0.39796165 0.3423215 0.42793757 -0.0006378464 -0.5753913
-0.3312467 -0.2946799 -0.5289244 -0.39402148 -0.48945427 -0.5833603 -0.032658342 -0.50183815
-0.28700075 0.0997716 0.45524845 0.121376276 -0.14228004 0.20912589 -0.314725 -0.3555377
00000000: ac01 c3be d94c 9b3d c495 1c3c 46d5 0a3f
00000010: 40b2 dcbd 8c3e 0b3f be6f a2bd afa8 05be
00000020: c5ab dbbc 9c78 553d 3ea5 f63d cbe9 05bf
00000030: 1299 3e3e f80c 88be 2fec 9fbe c266 adbe
00000040: 18c1 013f 9416 e63e f856 c13e 41d3 ec3e
00000050: 4f0f c53e 10dc 88bd 1581 b9be 80c2 643e
00000060: 6c98 80be 96a9 a4be 3977 29be 7f7c cb3d
00000070: 9cc0 6f3e 517d 8dbe 516b 20be ffd8 913b
00000080: 9bca 8dbe 59fa a1be 2bac 813d 3169 b5bd
00000090: 8c7a ef3e cb06 e03e f4c0 1b3d 48b3 9d3d
000000a0: cfd0 be3d 3382 16be e6ee 283e 6eae 553a
000000b0: aa37 443e 4e78 a13e 3972 7dbd c9af f1be
000000c0: 8a90 f1bd 3c9d a9be 23fd 893d 8044 6c3e
000000d0: 246d c73e fdf4 a83d 2f20 afbe 1860 fcbe
000000e0: cbec e5bd 1d95 22be 0f76 993d d989 debe
000000f0: d9ca 1f3e 5592 e1be 1a3c b1be 6b9a 0abf
00000100: 6156 e23e cfa3 13bf 21e8 d43e cc29 a03e
00000110: 6b08 33bd 1b1d 5f3e dca8 4c3c d9af a63e
00000120: dc1c ac3e 1e38 20bf 7046 c53e 8856 d33d
00000130: 4035 cd3d 401f 773d 0e95 9b3d ba93 a9be
00000140: 3343 27bd fc11 b33e e0f8 9d3e 0592 943e
00000150: 6162 dfbe 3230 0c3e 9c03 09bf d17a ef3e
00000160: f0fa 95be 8d73 38bd 0dec 38be b53b 31bd
00000170: 144d f23e f9ac 633c 6389 1a3e 8af9 c03e
00000180: fd23 d53e c359 2cbe 581c 27be ebf8 1e3e
00000190: 93fd d2bd 0a97 a83e d78e 6cbe c8fb e8be
000001a0: d6d9 653e 8ed3 dd3d 64cf c03d a1c1 cb3e
000001b0: c344 af3e a21a db3e 2635 27ba d84c 13bf
000001c0: 2b99 a9be 49e0 96be 9767 07bf 2fbd c9be
000001d0: c099 fabe 1a57 15bf c1c4 05bd 7778 00bf
000001e0: c3f1 92be 0d55 cc3d 5316 e93e 2094 f83d
000001f0: dcb1 11be 1925 563e a323 a1be 0a09 b6be

layer1.3.fc2.bias f4 [32]
0.19302237 -0.4615699 -0.0700821 0.46098977 0.03875781 0.09875147 -0.29002178 0.13818355
0.0063950275 0.09565391 0.32014555 0.2617638 -0.47643334 -0.12013754 -0.06601952 -0.48306984
-0.12315922 -0.35176548 0.36307943 -0.011361062 -0.37401614 0.25244635 -0.6072156 -0.14615786
-0.07785437 -0.3498843 -0.32407483 -0.20673017 0.50547194 0.57562834 0.20858538 -0.37780607
00000000: a8a7 453e e452 ecbe 3487 8fbd da06 ec3e
00000010: 82c0 1e3d 363e ca3d bc7d 94be fd7f 0d3e
00000020: 618d d13b 32e6 c33d 1eea a33e e805 863e
00000030: 12ef f3be ac0a f6bd 3e35 87bd ee54 f7be
00000040: e73a fcbd 9b1a b4be 8ce5 b93e bf23 3abc
00000050: 0b7f bfbe a640 813e 7b72 1bbf 68aa 15be
00000060: 1d72 9fbd 0924 b3be 23ed a5be 13b1 53be
00000070: 9c66 013f 615c 133f 6897 553e cc6f c1be

branch3.weight f4 [64, 32, 3, 3]
0.0072864774 0.073655345 0.055431344 0.054179143 0.05098064 0.008694964 0.023030367 0.07973044
0.023273863 -0.008407108 -0.03227358 -0.006538498 0.02183579 -0.004723503 0.027513042 0.020723559
-0.037968565 0.030544162 -0.046282094 -0.020231415 0.030467028 0.03229423 -0.013132841 -0.012203285
-0.048069175 -0.019237453 -0.028218558 0.011605058 0.023048952 -0.0027147771 0.09106437 0.0673984
0.008326318 -0.024245938 0.009145625 0.005703208 -0.007769202 -0.013947406 0.051970083 -0.01092328
0.05931992 0.02860723 0.022659667 0.055719495 0.014843949 -0.04358198 -0.019627357 0.020042371
-0.037022334 -0.004879925 -0.043583814 0.014989838 0.019585142 0.013709775 0.06515886 0.030207133
0.05659454 0.00014536857 0.021239126 0.060745597 0.09368962 0.06643682 0.010680441 -0.013756492
-0.038267486 -0.04594296 -0.036744174 -0.018970171 -0.0024447385 -0.024356639 -0.036999732 -0.009622163
-0.032742977 0.025397299 -0.070281975 -0.03128734 -0.050303254 -0.0441346 0.005649388 0.027468817
-0.022955565 0.018786632 0.016757455 0.051209528 0.018248841 0.033696998 -0.0021097166 0.034462746
0.036527667 0.015657613 -0.047602504 -0.09744582 -0.07776309 -0.04861751 -0.026164176 -0.050602864
-0.046069104 -0.019758375 -0.05370795 0.02880479 0.04282842 -0.036170196 0.05004412 0.053182784
0.032233316 -0.042834297 -0.0063133417 -0.0016935744 -0.03724878 0.021720089 0.015053465 0.0119324215
-0.030500654 0.012839032 -0.0082923025 -0.04698093 -0.05334067 -0.012213353 0.055355765 -0.027301555
-0.03444699 0.04415967 0.04536272 0.05575596 -0.02304318 -0.02023674 -0.088922516 -0.025994675
-0.0026912668 -0.08943396 -0.04449907 0.019059004 -0.11480815 -0.07411388 0.0058216783 -0.018264301
-0.0061505535 0.065954074 0.033649746 0.038187955 -0.00218683 0.016358761 0.06916492 -0.011558208
0.05303196 0.065519914 0.004488961 0.10224863 0.019797433 0.030599358 0.037440885 0.010748579
-0.008352341 -0.0049972543 0.011242264 -0.029106012 -0.027016683 0.054946356 0.02943948 -0.012150534
-0.032136276 -0.027678326 -0.01876694 -0.012242606 -0.025268158 -0.008067795 0.0023062767 0.0069255377
0.00017441208 -0.020667277 0.024797102 0.01659504 -0.02685319 -0.053043433 0.024710864 0.01710535
-0.026007796 0.052245848 -0.01747679 0.036379237 0.06915995 0.0028345971 0.090125054 -0.004292255
0.01671243 0.051340133 0.013138281 0.09223046 0.047142923 0.054520346 -0.011812157 0.01716487
0.052407768 0.022788296 0.024436332 0.045503516 0.05954767 -0.030321164 -0.02185172 0.011681125
0.015177609 0.016895846 0.028746817 -0.01689032 0.03828891 0.046616275 -0.013127798 0.004623159
0.025505763 0.057012662 -0.027931701 -0.01680238 0.01649005 -0.02952304 0.027887812 -0.009966706
0.024366006 0.008290324 0.0656286 -0.0017978678 -0.014385073 0.012733904 -0.018429754 0.051302772
0.0144809075 0.024112575 0.030844426 -0.0036942784 0.054209217 -0.012634756 0.00012462644 -0.003063924
0.017489925 0.02479491 0.014196158 -0.010027281 0.013762388 0.059605017 0.02622736 -0.013003721
-0.029115895 0.03203046 -0.0132695995 0.045070168 0.054570824 0.03721702 0.061003454 0.06949122
0.028244754 -0.02699347 0.06461471 -0.010990219 -0.03547562 0.021579012 0.026506195 0.011955939
00000000: 67c3 ee3b 9dd8 963d fa0b 633d f3ea 5d3d
00000010: 13d1 503d 5375 0e3c 2eaa bc3c b749 a33d
00000020: d4a8 be3c f7bd 09bc 4d31 04bd e640 d6bb
00000030: f8e0 b23c 9dc7 9abb 0863 e13c 74c4 a93c
00000040: ed84 1bbd c037 fa3c 4b92 3dbd 5abc a5bc
00000050: fd95 f93c f446 043d 212b 57bc 49f0 47bc
00000060: 2fe4 44bd dd97 9dbc 9b2a e7bc 2423 3e3c
00000070: 28d1 bc3c 67ea 31bb f57f ba3d 2c08 8a3d
00000080: 1c6b 083c 6b9f c6bc 88d7 153c fae1 ba3b
00000090: ca94 febb a983 64bc 95de 543d 8ff7 32bc
000000a0: 72f9 723d b659 ea3c c4a0 b93c 203a 643d
000000b0: 0934 733c 0583 32bd 8dc9 a0bc e62f a43c
000000c0: bba4 17bd c7e7 9fbb f184 32bd f097 753c
000000d0: 0571 a03c f79e 603c 0272 853d f374 f73c
000000e0: adcf 673d 146e 1839 adfd ad3c 60d0 783d
000000f0: 58e0 bf3d 0710 883d 04fd 2e3c e962 61bc
00000100: 5ebe 1cbd af2e 3cbd 0f81 16bd 5567 9bbc
00000110: e837 20bb 9387 c7bc 088d 17bd 47a6 1dbc
00000120: 801d 06bd ff0d d03c ffef 8fbd 2727 00bd
00000130: c90a 4ebd 7bc6 34bd 801e b93b 4906 e13c
00000140: 4f0d bcbc 6ce6 993c ee46 893c 15c1 513d
00000150: 987e 953c dd05 0a3d 2c43 0abb cf28 0d3d
00000160: 099e 153d 6544 803c d8fa 42bd ad91 c7bd
00000170: 4142 9fbd 2723 47bd 4156 d6bc f344 4fbd
00000180: f5b2 3cbd 51dc a1bc defc 5bbd 06f8 eb3c
00000190: da6c 2f3d 3327 14bd 10fb 4c3d 31d6 593d
000001a0: 1507 043d 0473 2fbd 26e0 cebb edfa ddba
000001b0: 2d92 18bd 54ee b13c cfa2 763c 3480 433c
000001c0: 82dc f9bc ce5a 523c 70dc 07bc 136f 40bd
000001d0: bf7b 5abd 841a 48bc babc 623d 83a7 dfbc
000001e0: 4918 0dbd c5e0 343d 42ce 393d 5d60 643d
000001f0: 0dc5 bcbc 85c7 a5bc 021d b6bd c9f2 d4bc
00000200: f75f 30bb 2729 b7bd a844 36bd a121 9c3c
00000210: 8920 ebbd 05c9 97bd c7c3 be3b 049f 95bc
00000220: 958a c9bb ee12 873d 51d4 093d f96a 1c3d
00000230: eb50 0fbb cf02 863c 56a6 8d3d a35e 3dbc
00000240: 0a38 593d 4e2f 863d 2218 933b bb67 d13d
00000250: 3a2e a23c 81ab fa3c 9d5b 193d cf1a 303c
00000260: 42d8 08bc 02c0 a3bb 7931 383c bb6f eebc
00000270: 1752 ddbc 6e0f 613d 102b f13c 0913 47bc
00000280: 54a1 03bd a8bd e2bc 20bd 99bc 3695 48bc
00000290: 2bff cebc c92e 04bc e724 173b 9fef e23b
000002a0: 63e2 3639 6c4e a9bc 4b23 cb3c 52f2 873c
000002b0: 39fb dbbc 1244 59bd 706e ca3c 8520 8c3c
000002c0: 4d0e d5bc beff 553d 7c2b 8fbc 6502 153d
000002d0: bba3 8d3d a6c4 393b 7c93 b83d 0ba6 8cbb
000002e0: 82e8 883c 084a 523d f241 573c 53e3 bc3d
000002f0: f018 413d ba50 5f3d c787 41bc 579d 8c3c
00000300: 87a9 563d 85ae ba3c b42e c83c e561 3a3d
00000310: 42e8 733d 1764 f8bc 6102 b3bc 3062 3f3c
00000320: 82ab 783c 2869 8a3c 727e eb3c 925d 8abc
00000330: d5d4 1c3d b5f0 3e3d fa15 57bc de7d 973b
00000340: 76f1 d03c 1c86 693d 06d1 e4bc 25a5 89bc
00000350: 2416 873c 4dda f1bc fb74 e43c 654b 23bc
00000360: 389b c73c 24d4 073c 4a68 863d 6fa6 ebba
00000370: 5faf 6bbc dda1 503c fff9 96bc db22 523d
00000380: 5441 6d3c bc87 c53c 73ad fc3c b51b 72bb
00000390: 7c0a 5e3d 0202 4fbc 28ae 0239 1dcc 48bb
000003a0: 0847 8f3c b21e cb3c 0197 683c 7749 24bc
000003b0: a47b 613c 6424 743d c3da d63c 8f0d 55bc
000003c0: 7584 eebc 5f32 033d bc68 59bc 7f9b 383d
000003d0: a885 5f3d e070 183d c2de 793d 6a51 8e3d
000003e0: 8b61 e73c 6921 ddbc b854 843d 5210 34bc
000003f0: e24e 11bd 78c6 b03c 8523 d93c d8e2 433c

branch3.bias f4 [64]
-0.009427226 -0.050481852 0.054848604 0.039715648 -0.04503379 -0.059307877 0.054039594 0.05161125
-0.05515769 0.010149877 -0.035704236 -0.046453193 -0.04295077 0.005528398 0.05027217 0.028067427
-0.054686315 0.029633904 0.056711078 0.044060547 0.053916726 -0.036701035 -0.0360836 0.026540682
-0.045363747 -0.016857347 0.0387508 0.01957685 -0.01931563 0.02723677 -0.021372411 -0.02851285
0.017962104 -0.023878226 0.04085823 0.027645415 0.038073834 0.046550695 0.009992705 -0.018195823
-0.04779581 -0.021097085 -0.04896577 0.038001787 0.0033464674 -0.028079797 -0.006430357 0.038422517
-0.020048225 0.021017179 0.01026243 -0.0083612185 -0.011008167 0.021824604 -0.018395195 -0.05015705
0.014392031 -0.03383062 -0.030810008 0.0028293338 0.029502155 -0.016817952 -0.03436181 0.024343317
00000000: a774 1abc 0fc6 4ebd eea8 603d e0ac 223d
00000010: 5a75 38bd d1ec 72bd 9f58 5d3d 5166 533d
00000020: 08ed 61bd ab4b 263c 9b3e 12bd b445 3ebd
00000030: 26ed 2fbd 9027 b53b 31ea 4d3d a9ed e53c
00000040: c2fe 5fbd cdc2 f23c e049 683d d578 343d
00000050: c9d7 5c3d d353 16bd 66cc 13bd d86b d93c
00000060: 56cf 39bd 6b18 8abc 29b9 1e3d a15f a03c
00000070: d03b 9ebc a61f df3c 3215 afbc c893 e9bc
00000080: 4325 933c 459c c3bc f65a 273d a378 e23c
00000090: 4ff3 1b3d f1ab 3e3d 71b8 233c 680f 95bc
000000a0: 8ac5 43bd cbd3 acbc 5590 48bd c3a7 1b3d
000000b0: 6850 5b3b 9a07 e6bc bfb5 d2bb ee60 1d3d
000000c0: 2d3c a4bc 382c ac3c c023 283c 7efd 08bc
000000d0: 995b 34bc 83c9 b23c 85b1 96bc 7b71 4dbd
000000e0: 8ecc 6b3c fa91 0abd 4565 fcbc 586c 393b
000000f0: 81ae f13c cdc5 89bc f8be 0cbd a36b c73c

branch5.weight f4 [64, 32, 5, 5]
0.001443013 0.025939457 0.025279565 0.015607874 0.005173017 0.01762628 0.001784285 0.03554546
0.011997246 -0.000726263 0.0038088965 0.031459574 -0.0062324447 0.022741769 0.008251574 -0.002981618
0.0425299 0.02886714 0.02727861 -0.0032870374 0.007741911 0.046055388 0.0015825334 0.03736125
0.043124966 0.021577196 -0.0026319665 0.041956134 -0.017304793 0.0052148458 0.0004583604 0.03118187
0.046257075 -0.008947918 -0.006293694 0.04268271 0.029471656 0.035501223 -0.01593267 0.03816518
0.014950583 0.006321222 0.013625334 0.016792713 0.032197088 0.027731879 0.010760509 0.034981858
-0.009432244 -0.0037676634 0.00796431 0.036344294 -0.00079364004 0.031213539 -0.0075951945 -0.010921866
0.03260463 0.018101044 -0.00073930586 -0.0049775983 0.007156498 0.023745012 0.0324926 0.0140922
-0.0017187208 0.01639138 -0.014355968 0.012283084 -0.010215701 0.008109342 -0.004584214 0.024889445
0.010622807 -0.013439154 0.01633642 -0.014187068 -0.0037876118 -0.02360627 -0.011815636 -0.040607095
-0.009344546 -0.008562117 -0.020436116 -0.028780736 -0.029240046 -0.029022476 0.0018544667 -0.04084144
-0.0138287265 -0.021811329 -0.0032450128 0.043449618 0.0247847 -0.004100106 -0.0012269351 0.025644317
0.036531042 0.0019884584 0.0036069085 -0.008603187 0.02297239 0.040595025 0.0033120615 0.04439289
0.011443846 0.049229104 0.017659012 0.023731949 0.027932571 -0.0027914701 0.03634523 0.045992598
-0.0041655824 0.022715101 -0.016900681 0.020856682 0.0038428353 -0.008234173 0.022215588 0.025667774
0.03369392 0.035923224 0.010099525 0.0368813 -0.008473474 -0.025655113 -0.014003226 -0.020883992
0.010486427 0.010694826 -0.0027973363 -0.015475718 -0.019808203 -0.014831582 -0.017208561 -0.017508188
-0.00093412894 0.0056552878 0.0077221426 -0.03211214 -0.0105635 -0.044330116 -0.01985517 -0.0089519
-0.01940242 -0.039263595 -0.037852913 -0.010659794 -0.03591157 -0.020164782 0.008709432 0.02360337
0.0052763796 0.03437394 -0.020975776 -0.01506894 -0.019383602 0.005984795 -0.0063503277 0.030995423
-0.013160668 0.00094656105 0.021489808 -0.022789504 0.016132088 -0.035328813 0.0053182584 -0.01608585
-0.02694824 0.0031774002 -0.012073005 -0.00428946 0.007691267 -0.011931398 -0.02613854 -0.02846597
-0.04244948 -0.022888122 -0.01696039 -0.044387184 -0.034190286 -0.02644288 -0.03279513 -0.0147332335
-0.039249323 -0.06361652 -0.03861141 -0.042351544 -0.032122742 -0.062797904 -0.07799702 -0.080788516
-0.049590386 -0.039006393 -0.07069835 -0.055482425 -0.047519468 -0.045823034 -0.037198722 -0.04263487
0.030238504 0.033838827 -0.007632803 0.011357353 0.02006926 0.031508908 -0.0058100144 0.03088341
-0.004711435 -0.00821323 -0.021380052 -0.014135531 -0.00596302 -0.012797829 -0.027069364 0.01029958
-0.020672403 0.012349555 -0.036605645 -0.0073041674 -0.022890897 -0.013866025 0.0030606876 -0.0058022616
-0.019605985 -0.011046341 0.008216192 0.007804421 0.03290311 0.0058509912 -0.011317008 0.019074157
0.010453073 0.022414012 0.00726517 -0.004937418 -0.0023150546 -0.0070413463 0.025665779 0.014646671
-0.00055031094 0.017395342 -0.0034870422 -0.007829551 0.008988235 -0.04398912 -0.021559095 -0.042847425
-0.00867622 -0.016182037 -0.05747201 -0.029008316 -0.05196867 -0.052476194 -0.07254419 -0.04756883
00000000: 7b23 bd3a fc7e d43c 1717 cf3c 2bb8 7f3c
00000010: 6982 a93b fd64 903c abde e93a 1e98 113d
00000020: 1990 443c af62 3eba ae9e 793b c1db 003d
00000030: 8939 ccbb f24c ba3c 9c31 073c 4067 43bb
00000040: d533 2e3d c87a ec3c 6477 df3c 566b 57bb
00000050: dbaf fd3b 93a4 3c3d 026d cf3a 1c08 193d
00000060: cea3 303d a9c2 b03c 127d 2cbb 32da 2b3d
00000070: c8c2 8dbc 4ce1 aa3b 1750 f039 1f71 ff3c
00000080: 0f78 3d3d 4a9a 12bc 553b cebb 11d4 2e3d
00000090: 8b6e f13c bb69 113d 3b85 82bc 1753 1c3d
000000a0: 4af3 743c 4122 cf3b cb3c 5f3c df90 893c
000000b0: 18e1 033d f72d e33c d94c 303c 2349 0f3d
000000c0: b389 1abc e7ea 76bb bd7c 023c c1dd 143d
000000d0: 480c 50ba 89b3 ff3c 1ce1 f8bb a0f1 32bc
000000e0: 6f8c 053d a448 943c facd 41ba 1f1b a3bb
000000f0: 0e81 ea3b e684 c23c f616 053d f9e2 663c
00000100: b346 e1ba 3747 863c 4b35 6bbc fd3e 493c
00000110: c15f 27bc 0cdd 043c 2d37 96bb f3e4 cb3c
00000120: 480b 2e3c e62f 5cbc f5d3 853c e070 68bc
00000130: 9539 78bb f061 c1bc 5f96 41bc a053 26bd
00000140: de19 19bc 1f48 0cbc a469 a7bc 94c5 ebbc
00000150: d288 efbc 8bc0 edbc 9411 f33a 5b49 27bd
00000160: e291 62bc acad b2bc 48aa 54bb 3af8 313d
00000170: 4809 cb3c 2f5a 86bb 1cd1 a0ba 0814 d23c
00000180: 93a1 153d cc50 023b e261 6c3b 62f4 0cbc
00000190: 9830 bc3c f846 263d 2c0f 593b 52d5 353d
000001a0: f87e 3b3c 75a4 493d a2a9 903c 8169 c23c
000001b0: d9d2 e43c 19f1 36bb bcde 143d bc62 3c3d
000001c0: 707f 88bb 0515 ba3c 4c73 8abc a2db aa3c
000001d0: 14d8 7b3b a0e8 06bc 77fd b53c 3945 d23c
000001e0: a302 0a3d 3b24 133d 7a78 253c d910 173d
000001f0: 53d4 0abc ac2a d2bc c96d 65bc e814 abbc
00000200: 43cf 2b3c 5a39 2f3c 8453 37bb de8d 7dbc
00000210: d044 a2bc 2a00 73bc f8f8 8cbc 556d 8fbc
00000220: 55e0 74ba fe4f b93b 070a fd3b 0588 03bd
00000230: 8812 2dbc 7f93 35bd 4fa7 a2bc fdaa 12bc
00000240: d3f1 9ebc ddd2 20bd a80b 1bbd 6ba6 2ebc
00000250: 0318 13bd 9d30 a5bc 01b2 0e3c db5b c13c
00000260: 7be5 ac3b b0cb 0c3d 64d5 abbc b7e3 76bc
00000270: 5cca 9ebc 191c c43b 6916 d0bb 1dea fd3c
00000280: d89f 57bc a322 783a 650b b03c 0eb1 babc
00000290: 7127 843c f2b4 10bd c944 ae3b 79c6 83bc
000002a0: 8ec2 dcbc ee3b 503b dacd 45bc 998e 8cbb
000002b0: 0607 fc3b e97b 43bc 7e20 d6bc 7731 e9bc
000002c0: 82df 2dbd df7f bbbc 84f0 8abc 56cf 35bd
000002d0: 1d0b 0cbd bd9e d8bc 3054 06bd a963 71bc
000002e0: e6c3 20bd 6149 82bd ff26 1ebd d078 2dbd
000002f0: 2393 03bd 309c 80bd e7bc 9fbd 7374 a5bd
00000300: 4a1f 4bbd 2bc5 1fbd 4cca 90bd 8a41 63bd
00000310: c6a3 42bd efb0 3bbd b05d 18bd e7a1 2ebd
00000320: bdb6 f73c 959a 0a3d 981c fabb 3114 3a3c
00000330: 4a68 a43c 7c0f 013d ef61 bebb 34ff fc3c
00000340: 6262 9abb c990 06bc 3825 afbc b798 67bc
00000350: 7065 c3bb fcad 51bc 92c0 ddbc 92bf 283c
00000360: 2c59 a9bc ca55 4a3c cdef 15bd cc57 efbb
00000370: b185 bbbc 532e 63bc d195 483b e620 bebb
00000380: bb9c a0bc b6fb 34bc 359d 063c 3abc ff3b
00000390: 69c5 063d acb9 bf3b f96a 39bc 6841 9c3c
000003a0: 5e43 2b3c 979d b73c aa10 ee3b 10ca a1bb
000003b0: 2cb8 17bb 18bb e6bb 0a41 d23c 97f8 6f3c
000003c0: be42 10ba ad80 8e3c dc86 64bb 8447 00bc
000003d0: 6443 133c ef2d 34bd b39c b0bc c880 2fbd
000003e0: b426 0ebc 3190 84bc c567 6bbd d9a2 edbc
000003f0: 1add 54bd 47f1 56bd 0c92 94bd 89d7 42bd

branch5.bias f4 [64]
-0.008065019 -0.023077164 -0.009926108 0.0041840393 0.034803797 -0.027418787 -0.005728899 0.02594797
0.03324125 0.01727605 0.010637313 0.0036237962 -0.031549156 -0.005755212 -0.029216768 -0.018177122
-0.020363642 0.025266916 0.024001034 0.02063573 0.028373979 0.015754335 0.021896448 0.005853859
0.00460697 -0.01368565 0.01186733 0.0058151605 0.023963073 -0.02868984 -0.014559923 -0.015120501
-0.030272562 -0.010633557 -0.006790716 0.028947392 -0.030992743 0.035842635 0.010882755 -0.0017285204
-0.0233741 -0.013109273 -0.03342376 0.014970839 0.013403731 -0.026474854 -0.024506964 -0.00044538753
0.025717711 0.009518463 -0.029177543 -0.034607284 0.017085753 0.015004031 -0.026450584 -0.027369253
0.00800006 -0.0055094366 -0.020470055 -0.0013490608 -0.023318881 0.019935628 0.0063796313 0.026592616
00000000: 2423 04bc 520c bdbc 1da1 22bc 441a 893b
00000010: 6d8e 0e3d 5d9d e0bc 7db9 bbbb d690 d43c
00000020: fa27 083d 8186 8d3c 2048 2e3c 367d 6d3b
00000030: b039 01bd 3896 bcbb 0158 efbc 30e8 94bc
00000040: a7d1 a6bc 90fc ce3c d19d c43c 430c a93c
00000050: 8c70 e83c 3c0f 813c 2e60 b33c bad1 bf3b
00000060: 11f6 963b c739 60bc 316f 423c 1a8d be3b
00000070: 354e c43c f506 ebbc be8c 6ebc fabb 77bc
00000080: 2afe f7bc 5f38 2ebc a884 debb 1523 ed3c
00000090: 7ee4 fdbc bacf 123d 954d 323c 858f e2ba
000000a0: 0a7b bfbc 47c8 56bc 5ae7 08bd 4048 753c
000000b0: 539b 5b3c cbe1 d8bc d4c2 c8bc e782 e9b9
000000c0: f3ad d23c 54f3 1b3c be05 efbc 5ec0 0dbd
000000d0: 6cf7 8b3c 78d3 753c e5ae d8bc 7c35 e0bc
000000e0: af12 033c 8188 b4bb d1b0 a7bc f8d2 b0ba
000000f0: 3d07 bfbc 0b50 a33c 3a0c d13b c2d8 d93c

bn_ms.weight f4 [128]
1.0781181 1.0345881 1.0547634 1.0955584 1.083476 1.0952351 1.1273108 1.0463716
1.0775552 1.0873787 1.0780247 1.1127506 1.0591569 1.0853417 1.069986 1.1337566
1.1203983 1.0427744 1.1004932 1.142563 1.0965217 1.0797293 1.138388 1.0794954
1.0381566 1.0991272 1.0885057 1.104487 1.0766454 1.0914207 1.1090796 1.0897765
1.0666765 1.1205908 1.0633757 1.1124371 1.0963763 1.0851998 1.0598806 1.0446558
1.0601575 1.0775728 1.0959401 1.0738765 1.0356007 1.0742439 1.0962083 1.0941142
1.1145978 1.0870404 1.1289338 1.0913353 1.0841774 1.0836755 1.0694251 1.1030009
1.0423933 1.0444633 1.0734138 1.0413191 1.0522418 1.0593104 1.0614709 1.0784777
1.1370372 1.1496323 1.1409152 1.1421615 1.1899056 1.1111262 1.132875 1.1207845
1.074106 1.056633 1.1455388 1.1126026 1.1479329 1.1227303 1.1467187 1.1454096
1.1823093 1.1534714 1.0896238 1.2003708 1.1285012 1.090071 1.1845636 1.0912001
1.1779335 1.1354256 1.0825185 1.1169779 1.1337504 1.085545 1.1598504 1.0738931
1.1974605 1.1394364 1.1042423 1.1143225 1.13843 1.1277038 1.1353207 1.199888
1.0893006 1.0960369 1.1346449 1.0635017 1.1084611 1.1171288 1.1584525 1.1240846
1.0814319 1.1241964 1.1278663 1.1919107 1.0946368 1.130876 1.1280714 1.1040118
1.154307 1.1060343 1.1177768 1.06432 1.123667 1.0880051 1.1308645 1.1449459
00000000: c6ff 893f 626d 843f 7d02 873f 423b 8c3f
00000010: 57af 8a3f aa30 8c3f b84b 903f 81ef 853f
00000020: 54ed 893f 3a2f 8b3f b7fc 893f 9d6e 8e3f
00000030: 7492 873f 7aec 8a3f 4df5 883f f01e 913f
00000040: 3669 8f3f a279 853f f6dc 8c3f 813f 923f
00000050: d35a 8c3f 9234 8a3f b3b6 913f e82c 8a3f
00000060: 51e2 843f 33b0 8c3f 2854 8b3f d45f 8d3f
00000070: 84cf 893f acb3 8b3f 52f6 8d3f cc7d 8b3f
00000080: db88 883f 856f 8f3f b21c 883f 5764 8e3f
00000090: 0f56 8c3f d4e7 8a3f 2baa 873f 48b7 853f
000000a0: 3eb3 873f e8ed 893f c447 8c3f c974 893f
000000b0: 908e 843f d380 893f 8e50 8c3f ef0b 8c3f
000000c0: 24ab 8e3f 2424 8b3f e780 903f e0b0 8b3f
000000d0: 53c6 8a3f e1b5 8a3f ece2 883f 222f 8d3f
000000e0: 256d 853f f9b0 853f a065 893f f249 853f
000000f0: dcaf 863f 7c97 873f 47de 873f 8f0b 8a3f
00000100: 6f8a 913f 2727 933f 8209 923f 5932 923f
00000110: d44e 983f 6239 8e3f 0c02 913f de75 8f3f
00000120: 4e7c 893f c03f 873f 04a1 923f c369 8e3f
00000130: 77ef 923f a0b5 8f3f aec7 923f c89c 923f
00000140: e955 973f f3a4 933f cb78 8b3f c0a5 993f
00000150: ba72 903f 7287 8b3f c89f 973f 72ac 8b3f
00000160: 86c6 963f a055 913f f78f 8a3f 22f9 8e3f
00000170: bc1e 913f 23f3 8a3f fa75 943f 5475 893f
00000180: 6346 993f 0dd9 913f d057 8d3f 1fa2 8e3f
00000190: 13b8 913f 9958 903f 3052 913f ee95 993f
000001a0: 346e 8b3f f04a 8c3f 0b3c 913f d320 883f
000001b0: 0ee2 8d3f 14fe 8e3f 2c48 943f 01e2 8f3f
000001c0: 5c6c 8a3f abe5 8f3f ec5d 903f 8890 983f
000001d0: 0f1d 8c3f 8bc0 903f a564 903f 4250 8d3f
000001e0: 55c0 933f 8892 8d3f 4f13 8f3f a33b 883f
000001f0: 52d4 8f3f c043 8b3f 2bc0 903f 968d 923f

bn_ms.bias f4 [128]
-0.001530376 0.007872052 0.037601218 0.05398781 -0.00255442 0.040994152 0.07734612 -0.0037385277
0.019790845 -0.02231978 0.011412116 0.01693257 0.023875784 0.07532123 -0.0070713675 0.042238235
0.059617035 0.054721065 0.060862925 0.06018951 0.01448151 0.0502759 0.069722176 -0.05827556
0.0073093846 0.05188095 0.029542169 0.079777814 0.036040675 0.01582569 0.07817796 0.039627966
0.0070982818 0.0819854 0.06872312 0.027739868 0.057508837 0.046193715 0.020950822 0.009539991
0.022546457 0.018493166 0.05786134 0.04196251 -0.0037461128 0.018789398 -0.029170414 -0.017910082
0.07885729 0.056264967 0.07430508 0.017863791 0.06765843 0.03476664 -0.0406177 0.0116435625
0.039648835 -0.01805611 -0.013113841 0.0023563788 0.059706576 -0.00090480305 0.047846403 -0.024700629
0.056808155 0.091339044 0.094760485 0.018966828 0.10706035 0.0848054 0.080123365 0.09230591
0.041626316 0.023883551 -0.02622242 0.036476016 0.09607687 0.09065636 0.08960121 0.0716053
7.202444e-05 0.051704146 -0.02344913 -0.052300237 0.043090127 0.03142056 0.09458371 0.040241368
0.09929743 0.08081789 0.041815992 0.0136061 -0.016650872 0.0052484754 0.055805378 0.04077212
-0.011250431 0.07685493 0.06233649 0.036224563 0.03602955 0.06495275 0.05548066 -0.07505976
0.040448233 0.050640408 0.085851796 0.020032795 0.022701772 -0.06276716 0.07998515 0.076828346
0.055383015 0.033272404 0.03484678 0.077521876 -0.041201904 0.05101767 0.07319024 0.061208285
0.097552866 -0.038514752 -0.057970803 0.03429909 0.0112717915 -0.02427578 0.08045228 0.08306762
00000000: e696 c8ba c7f9 003c bc03 1a3d 5222 5d3d
00000010: 0e68 27bb 7ce9 273d a467 9e3d 1602 75bb
00000020: 6920 a23c f9d7 b6bc e2f9 3a3c 2cb6 8a3c
00000030: 2697 c33c 0442 9a3d eeb6 e7bb 0002 2d3d
00000040: fe30 743d 3223 603d 674b 793d 4789 763d
00000050: db43 6d3c 1aee 4d3d 80ca 8e3d 5bb2 6ebd
00000060: 9083 ef3b 1e81 543d 6b02 f23c 8d62 a33d
00000070: 639f 133d e1a4 813c c41b a03d ef50 223d
00000080: b498 e83b f6e7 a73d b5be 8c3d b83e e33c
00000090: 638e 6b3d 9f35 3d3d 0fa1 ab3c 9f4d 1c3c
000000a0: 59b3 b83c fb7e 973c 0300 6d3d e2e0 2b3d
000000b0: 5881 75bb 39ec 993c cbf6 eebc 2ab8 92bc
000000c0: ee7f a13d 1876 663d 432d 983d 1657 923c
000000d0: 8190 8a3d 7767 0e3d bf5e 26bd a4c4 3e3c
000000e0: d166 223d 68ea 93bc 70db 56bc 7a6d 1a3b
000000f0: e28e 743d 4e30 6dba 97fa 433d f958 cabc
00000100: abaf 683d f70f bb3d c911 c23d 5260 9b3c
00000110: 7542 db3d 74ae ad3d b817 a43d e20a bd3d
00000120: 5b80 2a3d 70a7 c33c 67d0 d6bc e067 153d
00000130: f3c3 c43d 0baa b93d d780 b73d cda5 923d
00000140: d40b 9738 bac7 533d 6418 c0bc c638 56bd
00000150: 467f 303d d8b2 003d 1bb5 c13d 22d4 243d
00000160: 735c cb3d da83 a53d 3f47 2b3d 1fec 5e3c
00000170: 6967 88bc 67fb ab3b 2e94 643d ab00 273d
00000180: ba53 38bc 1e66 9d3d 8c54 7f3d 3560 143d
00000190: b993 133d f305 853d b03f 633d eeb8 99bd
000001a0: 0cad 253d 516c 4f3d 11d3 af3d d11b a43c
000001b0: 11f9 b93c 128c 80bd 41cf a33d 2e58 9d3d
000001c0: 4dd9 623d a548 083d 7fbb 0e3d cac3 9e3d
000001d0: 54c3 28bd e8f7 503d c4e4 953d 8ab5 7a3d
000001e0: ccc9 c73d a5c1 1dbd cb72 6dbd 347d 0c3d
000001f0: 52ad 383c 00de c6bc 2ac4 a43d 5b1f aa3d

bn_ms.running_mean f4 [128]
0.37470028 0.052923 -0.43196562 0.16636293 0.38098022 0.087499596 0.24475501 -0.17835613
0.31827265 0.6567185 0.47455543 0.34993282 -0.44221994 -0.09038991 0.84404844 0.2274597
0.017571112 -0.14551108 0.20456916 0.1301666 0.32884252 0.26588368 0.0005449735 0.52261704
-0.016904036 0.14857897 0.49794653 -0.584629 -0.24545914 0.34417352 0.07182153 -0.805266
0.14603966 -0.0008649927 -0.25665778 0.5087772 -0.0024143031 -0.3732024 0.0644823 -0.21526788
-0.08199439 -0.038772162 -0.3321378 -0.17953308 -0.17314665 -0.14859201 0.7195889 0.92838925
-0.13914678 0.060795687 0.10683077 0.11036571 -0.29504374 -0.19725114 0.70285344 0.21490082
-0.17653516 -0.017664991 0.7541983 -0.22379132 -0.2707399 -0.2153015 -0.11364284 0.6819947
-0.18459557 0.11061738 -0.14209796 0.9343349 0.20915043 -1.5774555 0.32257932 -0.0701488
-1.4678566 -0.2678314 -0.048896495 0.62526417 0.09769374 -1.6755744 0.13445298 0.21430744
0.101404116 0.19671986 1.0689566 -0.012679792 -0.41720742 -0.70034933 0.12145258 0.1541486
0.3442157 0.09960152 0.18583907 0.66757774 -0.027269773 0.77230287 0.4467684 0.05545651
-0.058043685 0.27582896 -0.16189103 -1.2057126 0.0058498513 -0.3784958 -0.24316946 -0.023213802
-0.37060446 -0.18587136 0.39269897 -0.97572494 0.80688846 1.2318419 -0.16238311 -0.35871035
-0.39450508 -0.48131645 0.45738196 0.17752948 1.7251949 -0.062150724 -0.3597371 -0.17691292
0.23065034 1.1475 0.00095547293 0.2196192 0.63089347 0.9374889 0.072660424 -0.07570276
00000000: b7d8 bf3e cac5 583d 992a ddbe 0b5b 2a3e
00000010: d70f c33e fd32 b33d 0fa1 7a3e fda2 36be
00000020: a2f4 a23e b41e 283f eef8 f23e 652a b33e
00000030: a76a e2be 581e b9bd 8f13 583f 32eb 683e
00000040: 4bf1 8f3c db00 15be 947a 513e 654a 053e
00000050: 0c5e a83e e821 883e 8ddc 0e3a 3bca 053f
00000060: 557a 8abc 1625 183e d9f2 fe3e 3faa 15bf
00000070: a459 7bbe 8337 b03e 2b17 933d ea25 4ebf
00000080: 6c8b 153e adc0 62ba a668 83be 393f 023f
00000090: 4939 1ebb 6314 bfbe 4c0f 843d 2f6f 5cbe
000000a0: adec a7bd 8fcf 1ebd f70d aabe 85d7 37be
000000b0: 5b4d 31be 8128 18be fa36 383f ebaa 6d3f
000000c0: 7e7c 0ebe e604 793d 17ca da3d 6b07 e23d
000000d0: f90f 97be 34fc 49be 34ee 333f f60e 5c3e
000000e0: a2c5 34be 2cb6 90bc 2413 413f 8d29 65be
000000f0: 6c9e 8abe ff77 5cbe 94bd e8bd 3497 2e3f
00000100: 9f06 3dbe 5d8b e23d 2182 11be 9230 6f3f
00000110: 882b 563e 10ea c9bf 1e29 a53e 2daa 8fbd
00000120: bae2 bbbf 3221 89be b147 48bd 5011 203f
00000130: a813 c83d 3979 d6bf 0bae 093e 6973 5b3e
00000140: f6ac cf3d ee70 493e 92d3 883f e7be 4fbc
00000150: 369c d5be 184a 33bf 21bc f83d 21d9 1d3e
00000160: 0a3d b03e e2fb cb3d 994c 3e3e 60e6 2a3f
00000170: dc64 dfbc a4b5 453f d4be e43e 5e26 633d
00000180: 37bf 6dbd 7439 8d3e c3c6 25be ca54 9abf
00000190: 1cb0 bf3b 34ca c1be 6a01 79be df2a bebc
000001a0: debf bdbe 1055 3ebe d70f c93e 1cc9 79bf
000001b0: 3e90 4e3f ffac 9d3f c247 26be e2a8 b7be
000001c0: 92fc c9be 1c6f f6be f82d ea3e 4aca 353e
000001d0: 30d3 dc3f c291 7ebd 762f b8be a928 35be
000001e0: 9a2f 6c3e 48e1 923f b478 7a3a dbe3 603e
000001f0: 3c82 213f 46ff 6f3f fdce 943d 0c0a 9bbd

bn_ms.running_var f4 [128]
0.14118578 0.13677117 0.22977875 0.110737465 0.18044828 0.12443214 0.1050359 0.09924662
0.15598309 0.2620402 0.11475759 0.20172268 0.17256816 0.14249954 0.32638642 0.1514375
0.099837415 0.13139556 0.11695931 0.12496119 0.13872978 0.1230817 0.08763339 0.13141114
0.16470692 0.10651209 0.1728805 0.34987983 0.08504578 0.10811498 0.10722155 0.2725265
0.109709956 0.08781291 0.18175855 0.14189965 0.059812352 0.22807562 0.10153888 0.10830343
0.08480578 0.0700983 0.10855855 0.08424506 0.10401262 0.15209693 0.30547988 0.3723402
0.082539864 0.09081332 0.11557489 0.0876698 0.17872818 0.20757788 0.2324796 0.14230661
0.14731285 0.19659206 0.36270207 0.13701169 0.07743186 0.14331111 0.14839026 0.25199053
0.3268007 0.24743398 0.20908058 0.7548927 0.24667837 0.90303737 0.29771215 0.28268063
0.8167373 0.16757067 0.4541783 0.48688465 0.26453757 1.0056063 0.24439858 0.27671096
0.40554437 0.17770697 0.71056414 0.6853223 0.38973197 0.33222285 0.28892556 0.39200336
0.28868014 0.2211694 0.15991741 0.40153804 0.3967454 0.5893124 0.2845002 0.26964203
0.49634722 0.30623192 0.16902477 0.9211366 0.1821832 0.29796177 0.36062694 0.715248
0.33300793 0.16391328 0.3791359 0.6437482 0.5315474 0.92141545 0.22910595 0.23470573
0.27262098 0.51308244 0.3770593 0.20900704 1.0251247 0.35747036 0.26925668 0.33471155
0.29109496 0.6940515 0.5700276 0.25034964 0.32868466 0.42826915 0.25667363 0.20001213
00000000: 0193 103e be0d 0c3e 1f4b 6b3e 53ca e23d
00000010: 6fc7 383e 47d6 fe3d 101d d73d d041 cb3d
00000020: 08ba 1f3e 222a 863e 0706 eb3d 6490 4e3e
00000030: b5b5 303e 66eb 113e 1f1c a73e 6f12 1b3e
00000040: 8f77 cc3d 8f8c 063e 5d88 ef3d a7eb ff3d
00000050: 2e0f 0e3e 4212 fc3d 2379 b33d a490 063e
00000060: eea8 283e 0323 da3d 9607 313e 7323 b33e
00000070: 7b2c ae3d 636b dd3d f996 db3d 9888 8b3e
00000080: 9daf e03d 41d7 b33d ea1e 3a3e 244e 113e
00000090: ccfd 743d a88c 693e 9ef3 cf3d 30ce dd3d
000000a0: a7ae ad3d b38f 8f3d f253 de3d ad88 ac3d
000000b0: 9204 d53d 4cbf 1b3e dc67 9c3e 60a3 be3e
000000c0: a90a a93d 55fc b93d 87b2 ec3d 398c b33d
000000d0: 8504 373e 4c8f 543e 220f 6e3e d3b8 113e
000000e0: 2ed9 163e 6e4f 493e 16b4 b93e cb4c 0c3e
000000f0: 9894 9e3d 26c0 123e 9ef3 173e e704 813e
00000100: 6c52 a73e 555f 7d3e 3819 563e a640 413f
00000110: 4199 7c3e 752d 673f ba6d 983e 84bb 903e
00000120: b215 513f a597 2b3e 0f8a e83e f248 f93e
00000130: 7871 873e b5b7 803f 9f43 7a3e 0fad 8d3e
00000140: 83a3 cf3e d1f8 353e 88e7 353f 4871 2f3f
00000150: f38a c73e 1d19 aa3e 0dee 933e aab4 c83e
00000160: e2cd 933e 3b7a 623e 64c1 233e 6596 cd3e
00000170: 3722 cb3e 2ddd 163f 03aa 913e 850e 8a3e
00000180: 3921 fe3e 6eca 9c3e d414 2d3e 9ccf 6b3f
00000190: 3c8e 3a3e 728e 983e 18a4 b83e 7e1a 373f
000001a0: 0480 aa3e e2d8 273e 1a1e c23e afcc 243f
000001b0: 7e13 083f e2e1 6b3f c09a 6a3e b356 703e
000001c0: fa94 8b3e 5f59 033f eb0d c13e f105 563e
000001d0: 4937 833f 5b06 b73e 03dc 893e 505f ab3e
000001e0: 660a 953e 5cad 313f 54ed 113f d42d 803e
000001f0: 5b49 a83e 1846 db3e ba6a 833e fbcf 4c3e
