checkpoints/best_0.5066.pt (torch, 328019 bytes, 22 tensors)

layer1.0.weight f4 [32, 1, 3, 3]
00000000: 7464 ca3d 9d3a 0b3c 28d2 44be f46b 093f
00000010: 0b4a 9abe 1ca4 a83d 6f6a df3d 3314 263d
00000020: 9305 453e 26ad b0be f149 4a3e 0c27 99bd
00000030: 9fa6 e43d 6bd5 b43c dba5 283d eaca eabd
00000040: d2c7 9b3e 43ab a63c cdac 06bd 12a5 2c3e
00000050: 682a 29bd 9fff 313d 4a68 8fbd 56d9 923e
00000060: cd1c 8bbe 19a4 31be 9333 75bd cb06 51be
00000070: d728 a23c 5546 a2be 14d3 a43e 2401 7bbe
00000080: f771 903e db65 903d 38f6 b8bd 9121 543e
00000090: ec64 a8bd f6ee 633e 6429 6ebd 7090 5cbe
000000a0: 6fae 563d cf4a 39be 3f35 e13c d959 8f3e
000000b0: 9ea9 a73d 7e5b 92bd 2cfe 8c3e 1b58 af3d
000000c0: 4d48 5a3e dcc9 00be 48c3 a0be b2f0 04be
000000d0: e7df 51be 0137 8e3e 65c9 e73d 1043 0e3e
000000e0: d227 0d3e 3c30 25bd f575 433e 367f 74be
000000f0: d755 30bd 47b0 8ebe 432d 723d 29c8 71bd
00000100: f339 cc3d 7cf8 40bd a8a0 9b3e 72e6 5cbe
00000110: c902 4fbe b54f 73be 2f2a 813e dffc e73d
00000120: 02e8 b83e 2146 65be 4b5f a3be ee74 4dbe
00000130: c6f4 26be fd62 1f3e 99c7 203e 8eb7 a33e
00000140: 6ce2 0dbe 5bd0 23be b95d 5f3e 80b9 aebd
00000150: 3732 563e 1eb9 3dbd 3372 573e c789 8dbe
00000160: 5c0b 30be 1846 d93d f8fb 303d a1a5 e6bd
00000170: 3991 3a3e 861d 7a3e a8f7 70be 4ede 27be
00000180: a81e 9d3e 8759 ffbd 0356 01be 5b08 2cbe
00000190: 7580 44be 32e0 803e 1cc3 893d 843b 92be
000001a0: 2a84 453e b4d2 f8bc 3aba 24be c9b0 bd3d
000001b0: 6e26 9cbe adc6 37be 0896 d03e 4f23 bc3c
000001c0: bec0 f33d ab5a 46be dec7 e3bd b0fe a2bc
000001d0: b117 393e edae 96be ef21 a0be d23f 80be
000001e0: e2f1 ca3c a6dd 88be ff87 96bc bbd9 06bd
000001f0: 54d3 1ebe af0f 41bd ec62 14be 6794 89be
00000200: deb9 963e 8e83 febd b6fa 763e e717 d33d
00000210: dd7c 8fbe b9a9 6c3e e282 4ebd 9ea5 51bd
00000220: 479b 9abe 525e ecbe 03f8 403e 498d 5cbd
00000230: d740 0f3e 524d d3bd 8783 a93e 991a 0fbe
00000240: 6d6a f33d 6653 ca3d 75b6 4a3e 238e 853e
00000250: 576e 7d3e c2b6 71be 787f a93b 8f3d 50be
00000260: f58c b2bd 8407 96be 44e5 933e 5c97 92be
00000270: 8cbb d93d e180 993d d8d3 b33c 1187 43be
00000280: 634a 983e e5e9 34bc bf7d d13d d666 95be
00000290: b326 1a3e 1f91 e83c 2004 0cbe 11fa 9c3e
000002a0: fd24 053e 2e29 1cbe 8da2 c4bd 0091 273c
000002b0: fccd 633e 56c4 e3bd 8e9f 39be 4bdb 8cbd
000002c0: 11d5 65be 2cc0 fd3d ffa8 9b3e 7885 75be
000002d0: a8a2 d83d 9579 523e e9bb 1d3e 0ef4 13be
000002e0: cfb6 a23d 13fe bb3d 1a9e 6d3c 576b f9bd
000002f0: 5676 1abe f686 cfbb c909 f0bd 1cff 16be
00000300: 73d6 643e 5e78 703e 8935 2ebd 30d9 a0bc
00000310: 58ec 933b 0ae9 dabc dd9d 173e 81cb f03d
00000320: 49e4 7abe 96c3 8abd 2c6a 8c3e 90a0 033e
00000330: 360c 843b f1e9 6bbe 0bb6 82be 4f66 89be
00000340: fa90 acbd e69a 273e b539 5f3e 20c2 233e
00000350: a3de 81be 353d 55be 9b8c 3fbd 6483 b33e
00000360: 226f f73d 6db2 1b3d 3ba0 4d3e 8e4b 9bbd
00000370: 4ee3 d8bd 9bb8 8f3e c16b 00be c776 5cbc
00000380: ecb0 9dbe 947c 233e 121c 2b3e 60c1 8c3d
00000390: ab97 92be daa3 c2be 8fec a5be f767 5f3e
000003a0: 0d69 093e 7cf2 693e d458 883e eebf 473e
000003b0: 4ccc da3d ae1f 39be 6999 38be 0b58 5fbe
000003c0: 8985 1c3e 0cfc d9bd 85d5 2ebd e7a0 88bd
000003d0: c231 d4bd a10c 98be 3d31 6abd dc89 e53d
000003e0: 8c41 4ebd d8a8 ae3e 433a 43bd f1bd e9bd
000003f0: d417 23bd 17e5 3fbe 05a7 b4bd 8de4 8dbe
0.09882441 0.008497861 -0.19220793 0.5368035 -0.30134615 0.082344264 0.109089725 0.040546607
0.19240408 -0.34507102 0.19754769 -0.07478151 0.11164593 0.022074422 0.041173797 -0.11464484
0.30425888 0.020345336 -0.03287964 0.16859844 -0.041300207 0.04345667 -0.070023134 0.2868144
-0.2717041 -0.17347755 -0.059863638 -0.20412748 0.019794865 -0.31694284 0.3219229 -0.24512154
0.28211948 0.070506774 -0.090313375 0.2071593 -0.08222374 0.22259125 -0.058144942 -0.21539474
0.052412447 -0.18094943 0.02749121 0.27998236 0.08186649 -0.07146357 0.27537668 0.08561727
0.21316643 -0.12577003 -0.31398988 -0.12982443 -0.20495568 0.2777634 0.1131771 0.1389277
0.13784721 -0.040329203 0.19087966 -0.23876652 -0.043050613 -0.27868864 0.059125196 -0.05902878
0.099719904 -0.047111973 0.30396008 -0.21572283 -0.20215906 -0.23760875 0.25227496 0.11327528
0.36114508 -0.22390033 -0.3190864 -0.20064136 -0.16304311 0.15565105 0.1570114 0.3197598
-0.13855904 -0.1599745 0.21813096 -0.08531475 0.20917593 -0.04631912 0.21039657 -0.27644178
-0.17191833 0.106090724 0.043209046 -0.1126206 0.1821946 0.24425325 -0.23531973 -0.16393396
0.3068745 -0.12468248 -0.12630467 -0.16800062 -0.19189627 0.25171047 0.06726667 -0.28561032
0.19288698 -0.030373909 -0.16086665 0.09262235 -0.3049807 -0.17946883 0.40739465 0.022966055
0.11901997 -0.19370525 -0.11122106 -0.019896835 0.18075444 -0.29430333 -0.3127589 -0.2504869
0.024773542 -0.26731604 -0.018375395 -0.032922488 -0.15510303 -0.047134098 -0.1449086 -0.26871035
0.2943868 -0.12427436 0.24119076 0.103072934 -0.2802495 0.23111619 -0.05041779 -0.051183335
-0.30196592 -0.4616571 0.18844609 -0.053845678 0.13989578 -0.10317482 0.3310816 -0.1397499
0.118855335 0.09879188 0.19796164 0.26085004 0.24749123 -0.23604873 0.005172666 -0.20335983
-0.08718292 -0.2930261 0.28885853 -0.28631103 0.10631475 0.07495285 0.0219516 -0.19094492
0.29744253 -0.011042093 0.10229062 -0.2918002 0.15053825 0.028389512 -0.13673449 0.30659536
0.13002391 -0.15250084 -0.096013166 0.010227442 0.22246546 -0.111214325 -0.18127272 -0.06877764
-0.2244456 0.123901695 0.3040237 -0.23976696 0.10577899 0.20554192 0.15403713 -0.14448568
0.07945024 0.0917932 0.014503026 -0.121786766 -0.15084204 -0.0063332273 -0.11720616 -0.14745754
0.22347431 0.23483416 -0.042531524 -0.019634813 0.0045142584 -0.02672245 0.14806314 0.11757565
-0.24501146 -0.06775586 0.27424753 0.12854218 0.004029776 -0.2303846 -0.25529513 -0.26835868
-0.084260896 0.16367683 0.21799357 0.15992022 -0.2536517 -0.2082413 -0.04676495 0.3506118
0.12081744 0.038011957 0.20080654 -0.0758277 -0.1059023 0.2807053 -0.12541105 -0.013456053
-0.30799043 0.15965492 0.16709927 0.06872821 -0.28631338 -0.38015634 -0.32407042 0.21817003
0.1341898 0.22846407 0.2663027 0.19506809 0.10683498 -0.18078491 -0.18027271 -0.2181093
0.15285315 -0.10643777 -0.042684097 -0.06671315 -0.10361053 -0.29697135 -0.057175864 0.11207935
-0.05035548 0.34113193 -0.047662985 -0.114131816 -0.039817646 -0.18739735 -0.08820919 -0.27713433

layer1.0.bias f4 [32]
00000000: f0d4 8f3e d1f5 31bd 0c9b 21bd 034e 11be
00000010: 5e79 97be a2a3 afbe 5d67 f73d d180 2bbe
00000020: bb50 59be 6fe5 b8bc 6450 b9bd 8d4f dcbd
00000030: 04f4 003c 7761 90bd d8d0 15be b55f 20be
00000040: 8bb7 8bbe 5850 8a3e 1933 e5bd 7182 ac3d
00000050: debb e3bd 73ab db3c 5fd5 9c3e a5e4 2c3e
00000060: 6d24 93be b8d0 073e 6590 9c3e 7974 b13d
00000070: f407 863e c80d b03e 4fff 5cbd 26d6 813d
0.28092146 -0.04344732 -0.039454505 -0.14189915 -0.29584783 -0.3430453 0.12080262 -0.16748358
-0.21222202 -0.02257034 -0.090485364 -0.107573606 0.007870678 -0.0704984 -0.14630449 -0.1566151
-0.2728847 0.27014422 -0.11191387 0.08423317 -0.11119817 0.026815152 0.3063154 0.16884096
-0.28738728 0.13263214 0.30578914 0.086647935 0.26177943 0.34385514 -0.05395442 0.06339674

layer1.1.weight f4 [32]
00000000: 5012 5f3f e86f 763f d071 5d3f 13e5 813f
00000010: 12a7 743f de58 6c3f 01bf 793f bb5d 913f
00000020: 5f88 753f fd8e 703f 9f5c 8e3f e179 4e3f
00000030: 631f 603f 8a8f 5f3f dec7 963f ec3a 6f3f
00000040: a9c1 6c3f 7626 8a3f 67b0 873f 92b3 753f
00000050: 5a68 5d3f daa8 7a3f a365 563f 9326 7b3f
00000060: 3f58 7e3f 05bb 923f 565a 763f 8e21 703f
00000070: eed6 963f 5900 8d3f 628a 633f f056 7a3f
0.8713732 0.96264505 0.8650179 1.0148033 0.9556743 0.923231 0.97557074 1.1356729
0.9591121 0.9396818 1.1122016 0.8065472 0.8754789 0.873284 1.1779745 0.9344928
0.92483 1.0792987 1.0600709 0.9597713 0.8648735 0.979139 0.83748835 0.98105735
0.993534 1.1463324 0.9623159 0.938012 1.1784341 1.1015731 0.8888303 0.97788906

layer1.1.bias f4 [32]
00000000: 32c1 a2bd 33ec 9e3d 8555 93bd fd2a f4bd
00000010: eaed 173d 9d57 b8be c3e9 023d c113 74be
00000020: ffc7 85be a9c6 79bd fc74 133e 3432 f2bd
00000030: e6d6 24be ca52 153e 148d 94be 2f10 8d3c
00000040: d8d9 b6bc 185d 073c 88ae 49bd be5e fdbd
00000050: 0dac 823c c922 073e 0737 f5bd 691e 5bbe
00000060: 5b8a 47bb 7d00 0c3d c7bc d7bd 3d17 25bb
00000070: cd4c df3b c5ff ec3b 30ab 61bc 6610 20bd
-0.07947005 0.07759895 -0.07194046 -0.11922262 0.037092127 -0.36004344 0.031961214 -0.2383566
-0.26129147 -0.060980473 0.14400095 -0.11825982 -0.16097602 0.14582363 -0.29013884 0.017219631
-0.022320673 0.008261941 -0.04923871 -0.12371586 0.01595118 0.13196863 -0.11973386 -0.2139832
-0.0030447457 0.034180153 -0.10534053 -0.0025190853 0.0068145753 0.0072326385 -0.013773724 -0.03907814

layer1.1.running_mean f4 [32]
00000000: 2182 53be 9a17 41be 2a10 b53d 86aa 44be
00000010: e630 cfbe 46cb adbe cdb6 c83d f17b 30be
00000020: 722d 31be 2c8f d7bc ab67 c2bd e4f2 b93d
00000030: 7fae 973d f89e 863f 8c59 18be ca86 4f3e
00000040: f1f4 1abf b46d 803e fc9e 15be 3aec 673e
00000050: b7a3 98be 00e6 8ebd fd35 d13e d916 0e3e
00000060: 1ad3 93be 9691 233e e6a8 a73e 4797 a03e
00000070: 88f5 783e eea6 ba3e 76b9 44be 8968 863e
-0.20655109 -0.1885666 0.08840974 -0.19205675 -0.40466994 -0.33944148 0.098004915 -0.1723478
-0.17302492 -0.026313387 -0.09492429 0.09079531 0.07406329 1.0517263 -0.1487791 0.20266262
-0.6053 0.25083697 -0.14611429 0.22648707 -0.29812405 -0.06977463 0.40861502 0.13875903
-0.28871995 0.15973505 0.32746047 0.31365415 0.24312413 0.36455482 -0.19211373 0.2625163

layer1.1.running_var f4 [32]
00000000: 51ea 5140 7b82 0c3f bc1d fd3e d0c2 e73e
00000010: 6fcc dd3e 6b29 3c3e d424 893e fa57 e13d
00000020: 7c9c d93e 5f76 783e 0378 d93e dbab 643f
00000030: 3939 b53e 77f5 7a41 c2c3 e63e 217b 1140
00000040: d86d e73f 4a19 ce3e 8001 9e3e 4d02 203f
00000050: 69f7 3e3f 8e0f 943e e105 df3e 57d4 5a3e
00000060: 1ab0 c83e 9ff2 fa3e a2df c23e 256b 883f
00000070: 2c20 0f3f 70d4 c73e 191a 113f 6352 833f
3.2799265 0.548866 0.49436748 0.45265818 0.43320033 0.18375175 0.2678591 0.11003108
0.425022 0.24263905 0.42474374 0.8932473 0.3539522 15.684928 0.45071226 2.2731402
1.8080397 0.4025367 0.3086052 0.6250351 0.7459627 0.28918117 0.43559173 0.21370064
0.39196855 0.4901323 0.38061243 1.0657698 0.55908465 0.39029264 0.56680447 1.0259517

layer1.3.fc1.weight f4 [4, 32, 1, 1]
00000000: d1bc 25be 57d0 a8bd 2e72 de3d 64f5 803d
00000010: 359f 1dbe af47 27be f36f 1bbe 1b67 4fbe
00000020: ed7f 24be 301b 8ebd a052 9b3d e65a 533c
00000030: 4c8e 1fbe 797f 19be bf9c 883d 1b20 14be
00000040: 891b 85bd 00be 563d 4523 e2bd e012 21bd
00000050: 68de 72bd 0b38 b8bd b301 e2bd 5341 3bbe
00000060: a1d8 2abe f7ff ffbd 8338 123e 3123 debd
00000070: ebf9 22be 1385 293c 1879 f33b 26d9 993d
00000080: c462 103e 26ab 203e 1127 ddbd 60c4 233e
00000090: 82a6 383e c313 5fbc 8b17 b2bd 9cea 693e
000000a0: 9027 e6bb 4566 56bd 0b47 69bd 90e4 7e3d
000000b0: 4495 053e 9fb4 9e3d 9bed ba3d 1298 9fbd
000000c0: 6cad 2cbe ef1c 2c3e 08b1 a53e f514 493e
000000d0: 3864 d8bd a476 83bc fc3a 61bd cc34 a8b9
000000e0: ac29 893d 4ed2 323e bdb5 533e 0537 aebd
000000f0: 2841 6a3e 6454 62bc 4186 bc3d 0024 6d3e
00000100: 1150 823c 16e7 373e 0aed 84be 6d1e 96bd
00000110: 38bb e13d 12b7 61bd 384a 7eba 758c 8abd
00000120: 8188 1a3d 3c41 923d 86a7 a73d 846a e9be
00000130: 3902 8bbe d711 69be d5d7 833d 330c 96be
00000140: 02b4 dfbc d1f2 0c3e 47ce 013d db91 53be
00000150: f824 73bc bc8f f0bd ebbe 7bbe 856b efbd
00000160: 31f4 ebbd 88d7 9e3d 347c fabd 85ad 8ebe
00000170: e93e f73d 0740 c23d 4026 143e 8ca1 93be
00000180: cef6 6fbe 18b9 d23c bb3e 953d 2ebd ebbc
00000190: 4c12 13bd afb9 823d 7d4c 92bd dac0 373e
000001a0: 67e0 aa3e e22a 143e 3e84 bc3d 36a2 d73c
000001b0: ced4 f63d e503 7b3e 4a25 803e 4c7f 3b3e
000001c0: 9ee2 4cbe a558 6d3e 51de 63bd 39ed 9f3e
000001d0: dbd4 2ebe 2362 68bc a7b5 193e 2082 103e
000001e0: a1cb 973d 7a27 723e f7c4 2b3e d7e1 b13e
000001f0: 51eb 913e 5bbe 983d 984c 6dbe 727a b33e
-0.16185309 -0.08242863 0.10861622 0.062968045 -0.15392764 -0.16335939 -0.15179424 -0.20254175
-0.16064425 -0.06938779 0.07584119 0.01290009 -0.15581626 -0.14990033 0.06670522 -0.14465372
-0.064993925 0.052427292 -0.110418834 -0.03932464 -0.059294134 -0.08995064 -0.1103548 -0.18286638
-0.166842 -0.12499993 0.1427937 -0.10846556 -0.15915649 0.010346669 0.007430207 0.07512121
0.14100176 0.15690288 -0.10798467 0.1599288 0.18032268 -0.013615551 -0.08695897 0.22843403
-0.007023759 -0.052343626 -0.056952517 0.062229693 0.13045222 0.077492945 0.09127351 -0.07792677
-0.1686303 0.16807912 0.32361627 0.196369 -0.1056599 -0.016047783 -0.054987893 -0.00032082794
0.066974014 0.17463037 0.20674796 -0.08506588 0.22876418 -0.013814066 0.092052944 0.23158264
0.01590732 0.17959246 -0.25962096 -0.07330022 0.11022037 -0.05510623 -0.00097003905 -0.06765071
0.037727837 0.07141349 0.081862494 -0.45589077 -0.27150133 -0.22760712 0.06437651 -0.29306182
-0.027307514 0.13764502 0.031690862 -0.20661108 -0.014840357 -0.11746165 -0.24584548 -0.116904296
-0.11521185 0.07755953 -0.12230721 -0.2786676 0.12072546 0.094848685 0.14467716 -0.28834188
-0.23433992 0.025723025 0.072873555 -0.028776731 -0.03590612 0.063830726 -0.07143495 0.17944661
0.3337433 0.14469483 0.09204911 0.026322465 0.12052308 0.24513204 0.2502845 0.18310279
-0.20008323 0.23178346 -0.05563194 0.31235674 -0.17073385 -0.014183554 0.15010701 0.14112139
0.07411886 0.23647872 0.16774355 0.34742615 0.28499845 0.074581824 -0.2317375 0.35054356

layer1.3.fc1.bias f4 [4]
00000000: c8de b53d 19a5 0cbe 52ca d23d 39a7 a2bd
0.08880383 -0.13734855 0.10292496 -0.079420514

layer1.3.fc2.weight f4 [32, 4, 1, 1]
00000000: 2c29 babe 323f 32bd bd7e e7bd 58d3 2d3f
00000010: 1f30 acbd 4b13 133f 1650 45be 1419 ddbd
00000020: e57a a1bb 459a ef3b 4b93 ce3d 9546 11bf
00000030: f992 543e 3f44 90be 0b52 98be 7b85 acbe
00000040: fe2e 073f d2e1 ea3e c0bd 883e e398 003f
00000050: a115 ba3e 040c 74bd 966b b0be 2fc3 563e
00000060: 8844 7dbe 797a c3be 3d21 26be 2de0 c13d
00000070: 71bd 563e afff 97be 37ad 1cbe 94e6 83bb
00000080: 5a98 96be e8d0 9bbe 170e 513d aff5 babd
00000090: b1e4 f73e 9308 bc3e ec90 553d 6c91 463d
000000a0: b06c 8c3d 9a2d 51be 00bb 483e 7e1f fdbc
000000b0: 8e27 533e 9ab7 853e d389 743c 2bb7 0abf
000000c0: 61a6 01be 7894 bfbe e070 973d 8605 4f3e
000000d0: cf12 c33e be1f 203d dd54 7abe 379b 0ebf
000000e0: 0303 0abe 829e 3bbe 85e8 b93d 36d6 ddbe
000000f0: 1d00 103e 07d9 e1be e3f2 92be 5f7a 12bf
00000100: 069a d63e 4e34 29bf 1316 d03e 676c cf3e
00000110: c61b 34bd 6a58 3c3e 8840 593c a831 a13e
00000120: 913a a03e 9afa 36bf cfb2 d43e 0dc9 cc3d
00000130: 98fb af3d 4e96 853d 2a0a 883d 45d1 b9be
00000140: fe61 4cbd 77d8 7e3e b862 853e 2961 c43e
00000150: cfe2 d3be 7de1 023e b7b2 21bf d3f1 013f
00000160: a744 8abe f34e 82bd fd7b 34be 98ef 94bd
00000170: 22c7 e53e 875b f2bc 13ef 013e 2b50 bc3e
00000180: aa28 e03e 9edf 6abe 7010 f7bd 498d f63d
00000190: 2d7f adbd de79 a73e 455a 84be 9207 ebbe
000001a0: 4fc8 7c3e 87e3 973d fef1 993d a770 ba3e
000001b0: 28e7 a53e 677a dd3e 26ed 44bd 248c 1bbf
000001c0: c582 9cbe af31 a8be 0706 11bf 04e6 d4be
000001d0: 38f1 ffbe 8c24 1dbf 4821 ce3c 6626 02bf
000001e0: 1973 89be 861d 753c 8abc d63e 9408 453e
000001f0: bbb8 26be 7c4f 553e e09f bebe 1706 c4be
-0.36359537 -0.0435173 -0.1130347 0.6790061 -0.08407616 0.57451314 -0.19268832 -0.10795799
-0.0049279802 0.0073120915 0.10086688 -0.56748325 0.2075919 -0.28177068 -0.29750094 -0.33695588
0.5280608 0.45875412 0.26707268 0.50233287 0.36344627 -0.05958177 -0.34457082 0.20972894
-0.24733174 -0.38179377 -0.16223617 0.09466586 0.20970704 -0.2968726 -0.15300451 -0.00402529
-0.2941311 -0.3043282 0.051038828 -0.09128892 0.48416665 0.36725292 0.05214016 0.04847853
0.06856668 -0.20427552 0.19602585 -0.030898806 0.20620558 0.2611664 0.014925438 -0.5418574
-0.12661125 -0.3741796 0.07394576 0.20216951 0.38100287 0.03909277 -0.24446435 -0.5570559
-0.13477711 -0.18322185 0.09077553 -0.43327492 0.14062543 -0.4411089 -0.28700933 -0.57217973
0.41914386 -0.66095436 0.4064184 0.40512392 -0.0439718 0.18393102 0.013260014 0.31483197
0.31294683 -0.7147614 0.4154267 0.09999285 0.085929096 0.06522809 0.06642564 -0.36292472
-0.04989814 0.24887262 0.2605188 0.38355377 -0.4138398 0.1278133 -0.6316332 0.5075962
-0.27005503 -0.063627146 -0.17625423 -0.072722614 0.4487849 -0.02958466 0.12688856 0.36779913
0.43781024 -0.22936866 -0.12063682 0.12038667 -0.084715225 0.32710165 -0.2585012 -0.45904213
0.24685787 0.07416444 0.075168595 0.36414072 0.3240292 0.43257448 -0.048077725 -0.6076071
-0.3056852 -0.32850406 -0.5664982 -0.41581738 -0.49988723 -0.6138389 0.025162354 -0.5083984
-0.26845625 0.014960652 0.4194072 0.19241554 -0.16281407 0.20831102 -0.3723135 -0.38285896

layer1.3.fc2.bias f4 [32]
00000000: 487b 003e 843c f4be 4f0e a1bd 14cd ed3e
00000010: 3890 863c b7f8 243e b0dd 96be 952d 2f3e
00000020: b03c 083c 14a7 c53d 81e8 a43e 179b 5d3e
00000030: 351d 00bf c9d2 16be cbab c4bc 4c59 fabe
00000040: 4672 0cbe 3d59 b5be 13e9 af3e 2b4a dcbc
00000050: 9f88 cebe ab15 6a3e ea2a 22bf 9454 1ebe
00000060: b719 a8bd fb3b 9abe 6563 abbe b87f 5fbe
00000070: 9e02 fa3e 4093 123f 6933 2c3e b91c c8be
0.12547028 -0.4770242 -0.07864057 0.46445525 0.01642619 0.16110502 -0.2946601 0.17107232
0.00831525 0.09651008 0.32208636 0.21641193 -0.50044566 -0.14728846 -0.024007699 -0.48896253
-0.13715467 -0.35419646 0.3435751 -0.026890835 -0.4033861 0.22859828 -0.6334673 -0.15461951
-0.0820803 -0.30123886 -0.3347427 -0.21826065 0.48830122 0.57255936 0.16816486 -0.39084414

branch3.weight f4 [64, 32, 3, 3]
00000000: 7bd3 933c c6ff 993d c2a8 7a3d 89e2 8f3d
00000010: 3755 813d 6895 de3c 000a 0e3d 4bfb ad3d
00000020: cbf3 103d 8743 d6bc 2cb2 38bd 5f67 98bc
00000030: 83d1 a03c ee34 8ebb aee7 c63c f220 483c
00000040: 9e71 24bd 750b a93c 05ee 84bd ca3d eebc
00000050: 0a10 043d 744d 303c a079 c0bc 7e57 33bc
00000060: bf52 88bd 9543 dcbc 1ab0 c8bc 5c6e 6cbb
00000070: 9b4b 143b e07c 66bc ed37 a23d 36f4 613d
00000080: 0d9a c03b 1c71 39bd 8a93 7ebc 2d4f 88bc
00000090: c850 9bbc 551d a2bc 9f55 033d 7e06 11bc
000000a0: 07a2 583d ff05 ab3c 4613 c23c 2f3f 673d
000000b0: 6ffe 8f3c 2227 58bd 074e 0dbd da87 ecb9
000000c0: 3c00 36bd 8aa7 91bc e8db 3cbd e5f0 16bb
000000d0: c729 433c a443 953b 5412 723d 26af 913c
000000e0: 8dea 253d 9dcc 0fbc fdc8 fd3b d763 333d
000000f0: 617c 9a3d 3c1c 5a3d ef0a f23a 6026 15bd
00000100: 22c2 58bd 783a 93bd bd5f 40bd 4c19 08bd
00000110: 6854 ccbc 4a6c 01bd 84d3 1ebd cd7d 8abc
00000120: 5a28 1dbc de9a 0d3d 9f06 91bd 64b1 39bc
00000130: 7be6 12bd bbab 3dbd 5bc7 d03c 3813 053d
00000140: f24f c6bc 525c ca3c 2b29 973c 5316 8f3d
00000150: 6f46 ad3c 65e5 fb3c f41f ab3c 0735 323d
00000160: a6bb 463d 8bb8 3e3d efe8 c9bc 5d65 96bd
00000170: 32a4 b1bd e6e5 7dbc 05ff 51bc 644a 59bd
00000180: 4c8c 223b dd7e 083c 2eb8 3dbd 3ea7 a23c
00000190: da50 473d ed20 b0bc 825e 233d 5f78 663d
000001a0: 4996 263d 2b7e 49bd 9264 913a d1d7 103c
000001b0: 5a30 3bbd 2db3 933c 3262 eb3c 4be0 5bbb
000001c0: 14e5 11bd e7da b13c 9d5a 96bc 362d 45bd
000001d0: 02e3 23bd 63af e7bb 4099 7e3d c278 93bc
000001e0: ee78 01bd d8c6 453d ab6e 483d b669 633d
000001f0: 93c1 81bc 95bd 6abc 4003 d6bd aa68 23bd
00000200: 1e10 953c dc00 c3bd 1aa3 59bd e1f6 173d
00000210: ce02 e1bd d231 9bbd 9a2d e73c 4c67 1ebc
00000220: b186 193b 7493 8c3d 81d8 183d ad85 2f3d
00000230: 98d0 1a3a 4ce7 a43c a2ed 913d 71b3 17bc
00000240: 0432 8c3d 4a73 9c3d 7c49 963c 9853 e33d
00000250: 4836 083d bffe 363d ae0b 603d f5b7 f43c
00000260: acce 4f3c ddd2 24bc 41bc 253c 9359 a3bc
00000270: 8453 86bc 379d 663d 3e15 033d c2cc aabc
00000280: 276c c2bc 2f03 98bc 5c0e f0bc 94c5 edbb
00000290: 3000 d1bc f4db 46bc 6292 da3a 6ef3 de3a
000002a0: d830 bcb8 3a02 78bc 18c3 7b3c 98a9 783c
000002b0: 64f2 0bbd dd74 82bd 04ae b53c 0a04 e03b
000002c0: 6648 22bd a790 533d ed19 cbbc d103 b13c
000002d0: c20c 9e3d c80d 6f3c 76f4 d13d c171 f43b
000002e0: 6a22 e53c 85ed 833d 5a71 ee3c 52f9 d03d
000002f0: 5758 853d 4593 a13d f344 913c 53e5 a93c
00000300: 9f27 b63d 52f9 923d 7ef2 6f3d e699 853d
00000310: bfa2 943d 3a54 fabb 2ccd 4ebc 3f3f dd3b
00000320: b9d0 313b 1043 943c f697 b33c f974 00bd
00000330: 4bab 243d eb5c 293d eb9a d1bc 20af f33c
00000340: 5045 333d f7cf a93d d607 3e3c a1c1 373c
00000350: c5f4 6b3d 6dd9 57ba 2c69 473d 8284 063d
00000360: 8d1a 1d3c b4e3 8b3b 4cab 8d3d 12d1 66bc
00000370: 26c5 a4bc b28f 613c d22d c8bc 95aa 273d
00000380: b4fa 833c 9265 c73c f93e ea3c 737c 6abb
00000390: 4f73 423d 3d9f 88bc 4b25 f5bb 88b3 7439
000003a0: e458 883c c62c ae3c 0fa0 093d 78b7 c93a
000003b0: 8a92 5a3c b12e a03d 27d0 1b3d b9a2 a5bb
000003c0: 2e88 a3bb 7014 393d 9b1e a2bb 6ab7 7a3d
000003d0: 5d7e 873d ad13 243d ce92 933d a34c a13d
000003e0: cf60 ef3c c6d1 22bc c512 983d 1800 1abc
000003f0: 30e9 59bd 1d30 bbba f01e 7d3b 41a1 2ebc
0.018045178 0.07519488 0.061196096 0.0702563 0.063150816 0.027170852 0.034677505 0.08495196
0.03538875 -0.026155246 -0.045091793 -0.018603979 0.019631153 -0.004339806 0.024280395 0.012214886
-0.040147416 0.020635346 -0.06490711 -0.029082198 0.03224186 0.010760654 -0.023495495 -0.010946153
-0.066564076 -0.026887694 -0.024498034 -0.0036076522 0.0022628072 -0.014067858 0.07920823 0.05516454
0.0058777393 -0.045273885 -0.015538106 -0.016639316 -0.018959418 -0.019789377 0.032064077 -0.0088516455
0.052888896 0.020876883 0.02369083 0.05645674 0.017577378 -0.052771695 -0.03449824 -0.00045114645
-0.044433817 -0.017780084 -0.046108156 -0.0023031768 0.011911816 0.0045551825 0.05909951 0.017783713
0.04050689 -0.008776811 0.007744907 0.043796387 0.07543255 0.053249583 0.0018466393 -0.03641355
-0.052919514 -0.071888864 -0.046966303 -0.03322725 -0.024942592 -0.031597413 -0.038775936 -0.01690569
-0.00959214 0.03457152 -0.07081341 -0.011333797 -0.035864335 -0.046306353 0.025485685 0.03248903
-0.024208043 0.024702225 0.018452248 0.0698668 0.02115175 0.030749032 0.02088926 0.043507602
0.0485188 0.046562713 -0.024647204 -0.07343552 -0.08673896 -0.015496707 -0.012817149 -0.05304946
0.0024802862 0.008331028 -0.046318226 0.019855138 0.04866109 -0.021500075 0.03988505 0.05626714
0.040670667 -0.04919259 0.0011092594 0.008840517 -0.04570041 0.018029774 0.028733347 -0.0033550437
-0.035618857 0.021710826 -0.018353755 -0.04813882 -0.040011413 -0.0070704683 0.06215787 -0.018001918
-0.03160947 0.048285335 0.048933666 0.055520736 -0.015839374 -0.014327426 -0.10449839 -0.039894737
0.018196162 -0.09521648 -0.05313406 0.037100676 -0.10986863 -0.07577862 0.028219987 -0.009668183
0.002342623 0.06864062 0.03731585 0.042852093 0.00059057167 0.020129822 0.07125403 -0.009259091
0.06845477 0.07639177 0.018345587 0.110999286 0.03325489 0.04467654 0.05469864 0.029872874
0.012683552 -0.010060039 0.010115684 -0.019940173 -0.016397245 0.056302276 0.03200268 -0.02084959
-0.023733212 -0.018556206 -0.029303722 -0.007256219 -0.025512785 -0.012137402 0.0016675706 0.0017009804
-8.9736364e-05 -0.01513725 0.015366338 0.015177153 -0.03416671 -0.06369946 0.022177704 0.006836419
-0.039619826 0.051651623 -0.024792636 0.021608265 0.07717277 0.014590688 0.10251705 0.0074598496
0.027970511 0.06441788 0.029106785 0.10203804 0.0651099 0.078894176 0.017733073 0.020739233
0.08894276 0.0717646 0.058580868 0.065234944 0.07257604 -0.007639435 -0.012622159 0.0067519243
0.0027132465 0.018098384 0.021923047 -0.031361554 0.04020242 0.04134838 -0.025586566 0.029746592
0.043767273 0.08291619 0.011598548 0.011215598 0.057606477 -0.0008233998 0.048684284 0.032841213
0.00958885 0.0042690877 0.06917438 -0.014087932 -0.020113539 0.01376717 -0.024435911 0.040934164
0.016110756 0.024340425 0.02859448 -0.0035779744 0.047473248 -0.016677493 -0.0074812523 0.00023336534
0.016643949 0.021261584 0.03359991 0.0015389761 0.013340602 0.07821406 0.038040306 -0.0050547984
-0.004990599 0.045185506 -0.004947496 0.061210074 0.06615899 0.040057827 0.07205735 0.078759454
0.029220967 -0.009937709 0.07425455 -0.009399436 -0.0532009 -0.0014281307 0.0038623177 -0.010658563

branch3.bias f4 [64]
00000000: 2b60 65bc 74b5 59bd 4243 5c3d 2010 273d
00000010: 1a6a 41bd 3d7e 7bbd 9d5a 543d 16f9 493d
00000020: 680a 6abd 36e1 1d3a e895 15bd 9574 42bd
00000030: b247 27bd b28f c03b 72ae 4c3d 6f5b e33c
00000040: db0c 66bd 56b8 e03c 5b8d 693d 8a51 233d
00000050: cb09 593d 994c 13bd 4edc 1fbd 96b4 ce3c
00000060: fb5f 3abd 1fdb 9dbc 85b6 1f3d c828 963c
00000070: 5a45 a6bc a124 d53c 2693 92bc 414b b0bc
00000080: cffd 8f3c bc92 c9bc 120e 103d 521b d83c
00000090: 529a 133d aefd 463d bca5 163c 0ef1 babc
000000a0: df04 41bd 4a74 aebc 104b 38bd 2d55 273d
000000b0: 4d00 f93a e5dd f0bc e739 1dbc 7212 1b3d
000000c0: 33e6 5ebc 4722 8d3c 9e02 193c 1ae4 e0bb
000000d0: cffe babb 9122 b13c 8604 a6bc 055b 4ebd
000000e0: 80a7 903c 1a31 12bd bfc7 fdbc 8a55 c1b8
000000f0: d4fd b73c f6bb 93bc df2e 09bd 9d09 ca3c
-0.013999979 -0.053151563 0.05377508 0.040786862 -0.047220327 -0.061399687 0.051844228 0.049309812
-0.05713883 0.0006022634 -0.036519915 -0.047474463 -0.04083986 0.005876505 0.04997105 0.02775356
-0.056164604 0.027431648 0.057019573 0.039872684 0.052987855 -0.03596172 -0.03902846 0.025232594
-0.04550169 -0.019269524 0.038992424 0.018329993 -0.020296741 0.026018443 -0.017892431 -0.021520259
0.01757708 -0.024606101 0.03516967 0.026380215 0.036035843 0.04858177 0.009194788 -0.022820022
-0.047123786 -0.021295685 -0.04499346 0.040852714 0.0018997282 -0.029402683 -0.0095963245 0.037859388
-0.013604688 0.017228259 0.009339003 -0.0068631293 -0.005706645 0.021622928 -0.020265829 -0.05037977
0.017657995 -0.03569136 -0.030979035 -9.21889e-05 0.022459902 -0.018033963 -0.033491965 0.024662787

branch5.weight f4 [64, 32, 5, 5]
00000000: 5e9e 2b3c 7c36 0e3d c29b 083d 9b9b b63c
00000010: 5922 1e3c 8658 d13c 5835 1f3c bb82 2a3d
00000020: e14c 883c da9a ce3a a689 303c 29df 183d
00000030: 61f4 53ba a566 cd3c 20d6 023c 5f52 b33b
00000040: f45d 4a3d 026e 0d3d 6208 f73c f6ab 45bb
00000050: 17b1 963c b862 623d fb7d 1b3c 56fd 293d
00000060: 2aa4 333d 8999 b63c 2008 51ba 9ed9 223d
00000070: 4900 aebc 4c6a a53a bcdd 2dba 65e4 f13c
00000080: 12eb 2a3d d8ca 7fbc 361b 4fbc 9254 0f3d
00000090: 68b4 c23c 6bef e23c 32dd d2bc 56e5 d93c
000000a0: 5ca3 3d3c ae9b 843b bf3d 1b3c b062 0c3c
000000b0: 95b6 b83c f9a0 d93c 20cb 183c b3c4 f83c
000000c0: 314a 87bc e4df 3cbc a75e f83b 41cb 193d
000000d0: e40b 133b 458f 0d3d 2f5e dfbb 89e0 49bc
000000e0: e91f 063d eda8 a33c b482 343b 075e 87bb
000000f0: 875f f93b 6d4d d33c 6cf4 113d 8b1e a03c
00000100: 7be0 b43a 67c5 8f3c 8d76 23bc 4c98 8f3c
00000110: 132b 39bb bac7 423c f3c1 a4bb ffff db3c
00000120: 7aa1 6a3c 56b4 04bc eb1b 903c d289 3fbc
00000130: 8fa2 24bb 95a2 b2bc abf2 3abc c1b2 27bd
00000140: 786c e4bb 9dea 09bc ba44 a5bc 55ae f4bc
00000150: 94cf 01bd 2828 fdbc a44f 23bb a6f1 2dbd
00000160: 2887 95bc 8bba efbc 097b e23b 84d7 4d3d
00000170: de47 033d 0f1f 2b3b 061e a33a 6e23 0d3d
00000180: 10e5 333d cab6 183c 31b7 ff3b 6562 ebbb
00000190: 788e 083d 96da 4b3d a33b 3c3c 6c90 3a3d
000001a0: 5be4 463c 6928 613d 6828 ce3c c6a9 f13c
000001b0: f053 f03c 177a 4cbb 18dd 103d ba85 383d
000001c0: 580e 7dbb 93b7 8a3c 6bad c5bc 376f 993c
000001d0: 38f9 103b 933c 38bc 7ef4 593c b555 463c
000001e0: 314a 033d 9f92 053d 2a57 df3b adaa df3c
000001f0: 85ba a0bc 411f 22bd 4335 d6bc 7afb 03bd
00000200: 6eca 34bb f570 63bb aeb4 a7bc d7f7 e6bc
00000210: 2c0c 00bd 5b43 bfbc b4f0 ddbc 1d96 01bd
00000220: e143 70bc 27af 0abc cdb5 81bb 4f8d 31bd
00000230: b309 d7bc 4d6a 58bd fe4e ebbc 2da6 8ebc
00000240: 41b8 e1bc 9342 5bbd 7f6f 47bd aa42 c2bc
00000250: c861 33bd 41c8 e9bc 0ab9 d13b 5798 bf3c
00000260: de91 023c 58a9 123d cc51 8abc 7767 9bbc
00000270: ac7a 9bbc fff7 f63b 75f1 00bb c631 073d
00000280: 71e4 60bc b44c 393a 82ff ae3c 0719 8bbc
00000290: 8c62 963c 00b1 0cbd c702 df3b 9087 4fbc
000002a0: 77e4 a7bc 567f 113c 9e24 99bc ad18 02bc
000002b0: 7489 a63b 7fea 25bc 7ce3 c5bc dbdc cebc
000002c0: 3236 14bd 0fd2 80bc 0ed1 cfbb 9461 03bd
000002d0: e292 fdbc df3d babc b1e8 d2bc 63fb bcbb
000002e0: f411 fdbc 728e 7fbd 1ca4 22bd fe5d 2abd
000002f0: d161 f2bc d9e9 74bd 7d90 a2bd 44e0 a6bd
00000300: bd66 48bd 21b2 18bd f3ac 8ebd cfc9 65bd
00000310: 92da 4fbd 6a9d 40bd dd71 1abd 5138 41bd
00000320: d289 b93c 56d1 bd3c 40ec 87bc 87a1 033b
00000330: 2df4 273c 4d9b ab3c 9054 89bc 7a2b 9b3c
00000340: a098 7abc db45 95bc f675 1abd 06dc 03bd
00000350: 5bef c7bc ac78 f2bc c831 31bd f874 abbb
00000360: acac 1abd 7abc 02bc ac83 57bd bb16 d5bc
00000370: ee04 1ebd b435 03bd d1f1 8dbc 86e1 d2bc
00000380: 596b 23bd d9dc debb 4e02 813c ed4b 5b3c
00000390: 4600 213d 9787 183c 71ea 16bc ec64 aa3c
000003a0: 91ec 3d3c e434 c83c 7121 023c c389 aa3a
000003b0: cdd5 863b 2a81 04bb 2d9e 013d 0288 923c
000003c0: 075a dd3a b05e b43c e2de d43a 13a1 1c3a
000003d0: 1f91 2a3c ba79 51bd ad1f ddbc 2d34 44bd
000003e0: a109 64bc 0dd6 d8bc 98c6 7cbd 5257 1bbd
000003f0: e900 6ebd b1c8 7bbd 0d58 9cbd 3849 56bd
0.010474769 0.03471993 0.033351667 0.022290995 0.009651744 0.025554907 0.009717308 0.04162858
0.016638221 0.0015762702 0.010775005 0.037322197 -0.00080854265 0.025073359 0.007985622 0.005472466
0.049406007 0.03452874 0.030155364 -0.003016231 0.01839499 0.055269927 0.009490485 0.041501366
0.04385773 0.022290008 -0.0007973928 0.039758317 -0.02124037 0.001262018 -0.0006632467 0.029527852
0.041728087 -0.015612327 -0.012640765 0.034992762 0.023767665 0.027702054 -0.02574024 0.026598614
0.011574592 0.004046879 0.009475171 0.008568451 0.022548 0.026566016 0.0093257725 0.030367231
-0.01651487 -0.011527989 0.007579643 0.037547354 0.0022437507 0.03456046 -0.0068166475 -0.0123216
0.032745276 0.019978011 0.0027543725 -0.004131082 0.0076102647 0.025793755 0.03563349 0.019545814
0.001379981 0.017550183 -0.009976995 0.017528675 -0.0028254434 0.011888439 -0.0050280034 0.026855467
0.014320726 -0.008099636 0.017591437 -0.011690574 -0.0025121307 -0.02180604 -0.011410396 -0.040941957
-0.0069709383 -0.008417753 -0.020174373 -0.029868284 -0.031692103 -0.030902937 -0.0024919296 -0.042466782
-0.018252924 -0.029263755 0.0069116396 0.05025436 0.03205096 0.0026111042 0.0012444861 0.034457617
0.043919623 0.009320924 0.0078038205 -0.0071833604 0.033338994 0.049769007 0.011488828 0.045547888
0.012139405 0.05497018 0.025165752 0.0294999 0.0293369 -0.00312007 0.0353671 0.045049407
-0.0038613286 0.016933238 -0.024130544 0.01872979 0.0022121202 -0.011244911 0.01330292 0.012105395
0.032053176 0.032610532 0.0068158107 0.027303064 -0.01962019 -0.039580587 -0.026148444 -0.03222225
-0.0027586478 -0.0034704779 -0.020471897 -0.028194351 -0.031261608 -0.023347547 -0.027092315 -0.0316373
-0.014664621 -0.008464611 -0.00395844 -0.043347653 -0.026249742 -0.05283575 -0.02872419 -0.017413223
-0.02755368 -0.053530287 -0.048690315 -0.023713429 -0.043794423 -0.028537871 0.006400232 0.023388071
0.007969348 0.03580603 -0.016884707 -0.018970234 -0.018979393 0.0075368877 -0.001967517 0.033006452
-0.01372634 0.00070686196 0.02136207 -0.016979707 0.018357538 -0.034348488 0.006805751 -0.012666598
-0.020494683 0.008880457 -0.018694218 -0.0079404535 0.0050823037 -0.010126709 -0.024156325 -0.025251796
-0.036184497 -0.015725164 -0.00634206 -0.03207548 -0.030953828 -0.02273458 -0.025745722 -0.0057672723
-0.03089235 -0.062391706 -0.03970729 -0.041593544 -0.029587658 -0.059793327 -0.07937715 -0.08148244
-0.048926104 -0.037279252 -0.06966581 -0.056100663 -0.050745554 -0.04702512 -0.037706245 -0.047172848
0.022648726 0.023171108 -0.016592145 0.0020085291 0.010251087 0.020948077 -0.016763955 0.01894163
-0.015295178 -0.018221786 -0.037710153 -0.032192253 -0.024406126 -0.029598556 -0.043260366 -0.0052324496
-0.03776233 -0.007979507 -0.052615806 -0.026011815 -0.03857892 -0.032033637 -0.017327221 -0.025742304
-0.039897297 -0.0068012294 0.01574817 0.013384801 0.0393069 0.009309671 -0.009211169 0.020800076
0.011592046 0.024439283 0.007942543 0.0013011027 0.0041148425 -0.002021859 0.03164499 0.01788712
0.0016887792 0.022017807 0.0016240741 0.00059749297 0.010410576 -0.051141478 -0.026992643 -0.04790132
-0.013918311 -0.026469255 -0.06171283 -0.037925072 -0.058106337 -0.06147069 -0.07633982 -0.05231592

branch5.bias f4 [64]
00000000: 9d7c 42bc 9d98 8bbc 0d6c 11bc 8d4f 1b3b
00000010: 9045 e73c 7bae dbbc fea2 9abb b42e 003d
00000020: 1963 0b3d 6811 943c b863 5f3c c3e4 f03b
00000030: 9a06 fdbc be75 c0ba c34b dbbc 3951 80bc
00000040: 0955 a4bc e561 d83c 25d4 c43c 0077 883c
00000050: 59a4 ed3c c48e b03c d75e c13c 6c90 0a3b
00000060: 679a 84b9 dfc3 82bc d7bb 4a3c 2f93 c93b
00000070: 321d bc3c 503a e8bc ce12 83bc 9b4d 83bc
00000080: 4bb7 04bd aa17 36bc 9da7 9339 071f ea3c
00000090: ec4e e2bc 3d37 103d 507d 603c 9350 bcba
000000a0: 87a7 d4bc dfa3 47bc 18f7 13bd 8b2e 563c
000000b0: dbb9 3f3c 2466 b9bc 4a7d 05bd 468e 9b3a
000000c0: f71b c03c 9ffa 013c 74f4 e7bc 5cf6 18bd
000000d0: 273f 8c3c 1a33 6a3c 142e d7bc f76e fdbc
000000e0: 10fc 0c3c d8f6 19bc 97ec acbc f23f 94bb
000000f0: 7c80 d9bc 49d3 ad3c 8b5e cc3b d36a d03c
-0.01187053 -0.017040545 -0.008875859 0.002369854 0.028231412 -0.026816597 -0.004719137 0.03129454
0.034030054 0.018074706 0.013634615 0.0073514893 -0.030886937 -0.0014683527 -0.026769524 -0.01566373
-0.02006008 0.026413867 0.02402694 0.016658306 0.029009031 0.021552451 0.023604793 0.002114321
-0.0002529204 -0.01596254 0.012373886 0.006151579 0.02296314 -0.028348118 -0.016000178 -0.016028216
-0.032401364 -0.01111404 0.00028162907 0.028579248 -0.027625524 0.03520893 0.013701752 -0.0014367275
-0.02595879 -0.012185066 -0.03612432 0.01307262 0.011702026 -0.022631712 -0.032590188 0.0011867962
0.023450835 0.007933288 -0.028314807 -0.03734432 0.017119957 0.01429441 -0.026267089 -0.030936701
0.008605018 -0.009397231 -0.021108909 -0.0045242244 -0.026550524 0.021218913 0.0062368563 0.025441563

bn_ms.weight f4 [128]
00000000: 36a7 8d3f 5fee 853f e30d 883f 4cb7 8c3f
00000010: 92e8 8c3f 24b7 8e3f b1f0 913f c287 883f
00000020: 3568 8b3f 407c 8e3f 11f6 8b3f 93ee 903f
00000030: 126e 883f 5a36 8d3f 6341 8a3f 927e 923f
00000040: edb1 933f 3d53 863f 24d3 8e3f ad56 943f
00000050: 3179 8f3f 34d5 8d3f 15aa 923f bf81 8e3f
00000060: 7257 863f 6968 8e3f f85d 8e3f c242 8e3f
00000070: d5a1 8b3f 70bd 8d3f 0a8d 8f3f f87d 8d3f
00000080: 312d 8c3f 37e2 913f 90b0 883f 036a 913f
00000090: 76ba 8e3f 681b 8c3f 2862 883f c49a 883f
000000a0: 6fb6 883f ce12 8d3f e7d6 8d3f b1bd 8a3f
000000b0: 8c96 853f 34bf 8a3f fdbc 8f3f 560d 8f3f
000000c0: 9b17 913f 426f 8b3f c8d7 913f 1096 8d3f
000000d0: 7372 8b3f c16e 8c3f 649b 8c3f a78f 8f3f
000000e0: 8a8b 863f 8d61 873f f255 8c3f 70f5 853f
000000f0: b3e8 883f 0c6d 883f 2816 893f 675b 8c3f
00000100: d47d 933f 3d3f 953f a712 963f 4815 963f
00000110: 8339 9b3f 1080 913f 8f7d 963f 9119 923f
00000120: 257d 8d3f 6fad 8a3f 3f74 9a3f 9537 913f
00000130: 7d8e 963f 72e5 943f 6678 963f 34af 953f
00000140: f112 9d3f 9fc8 983f eae6 923f 0ffa a13f
00000150: 81b4 923f e385 8e3f 2851 9a3f 1ecf 8d3f
00000160: 19bc 993f dfdb 963f a2c8 8e3f 9957 933f
00000170: fc36 973f c13c 903f a9be 973f e393 8d3f
00000180: 5939 a13f 4c72 943f ff79 903f 52b0 8f3f
00000190: 7fe6 963f c10c 943f 3ea9 933f 7527 a43f
000001a0: 9d94 8e3f caee 8e3f 4bee 933f c48a 8b3f
000001b0: acea 913f 5807 933f 533b 963f a2cb 933f
000001c0: f7dd 8d3f 425d 913f 0fda 943f f606 9c3f
000001d0: 22f0 903f 07ef 923f 3307 933f f0e4 8f3f
000001e0: 73a8 953f e35b 933f 047a 963f 952d 8b3f
000001f0: bd8c 943f 0a40 8e3f 78b3 923f 10a7 973f
1.1066654 1.046337 1.0629238 1.0993438 1.1008475 1.114964 1.1401578 1.066643
1.0891176 1.1131668 1.0934469 1.1322807 1.0658591 1.1032212 1.0801204 1.1444876
1.1538674 1.0494152 1.1158185 1.1588951 1.120886 1.108069 1.1458155 1.1133345
1.0495436 1.1125613 1.1122427 1.1114123 1.0908762 1.1073437 1.1214917 1.1054068
1.0951291 1.139716 1.0678883 1.1360477 1.1150653 1.0945864 1.0654955 1.0672231
1.0680674 1.1021364 1.1081208 1.0839139 1.0436568 1.08396 1.122955 1.1175945
1.1335329 1.0893328 1.1393976 1.106142 1.0894302 1.09713 1.0984921 1.1215714
1.0511334 1.0576645 1.0963728 1.0465527 1.0696014 1.0658278 1.0709887 1.0965394
1.1522775 1.1659924 1.1724442 1.1725245 1.2126926 1.1367207 1.1757067 1.1414052
1.1053816 1.0834178 1.2066725 1.1345087 1.1762234 1.1632521 1.1755493 1.1694093
1.2271405 1.1936225 1.1476719 1.2654437 1.1461335 1.1134609 1.2056017 1.1078832
1.2010528 1.1785849 1.1154978 1.1511108 1.1813655 1.1268541 1.185506 1.1060756
1.2595626 1.1597381 1.128723 1.1225684 1.1789092 1.1566392 1.1536024 1.2824541
1.1139103 1.1166623 1.1557096 1.0901723 1.1399741 1.1486616 1.1736854 1.1546519
1.1083363 1.1356585 1.1629046 1.2189624 1.1323283 1.1479195 1.1486572 1.1241741
1.1692032 1.1512417 1.1755986 1.0873286 1.160545 1.1113293 1.146102 1.1847858

bn_ms.bias f4 [128]
00000000: 5f97 07bc ad4d 163a 2f86 463d bc70 503d
00000010: 3ba1 88bc eb15 223d bb6e 9f3d c24d a4bb
00000020: d434 cd3b 6277 4ebd 869b b9bc eafa a53b
00000030: f3f8 983c 8e3e b23d b293 29bd 9514 143d
00000040: a920 8d3d bb51 5b3d 5172 5b3d 92d1 813d
00000050: 1073 a0b9 cfba 543d 264e 7f3d fbd6 adbd
00000060: d28c 7a3b 27ab 2e3d e077 b83c 9687 c33d
00000070: d997 0f3d b64b 4a3b 9faf a23d 8782 293d
00000080: cc0c a0ba 26b4 b43d 98a1 9e3d eb7b a43c
00000090: d616 463d a61f 6f3d 1f03 a03c 44bd 853b
000000a0: cbca 443c 89a0 243c 0e37 6c3d ae9e 3a3d
000000b0: c49e 25bc 830a c93c 6771 7cbd 7efb 7ebd
000000c0: 3124 a93d dd95 543d 3b31 8b3d 6220 803b
000000d0: 08c8 a03d 3d1c 003d ee00 c2bd 6ae4 44bb
000000e0: 7764 373d bf44 32bd 3f78 24bd e40b 30bc
000000f0: afe8 773d 6e0d 8abc 4929 3c3d ed14 6dbd
00000100: 202f 953d 177a b53d 04a6 da3d 0e94 e2ba
00000110: a4b5 e23d ecd3 c13d 92ab af3d bc7e d23d
00000120: 594a 473d 14fd 093d 70a7 55bd 7b57 ce3c
00000130: af1f d93d f167 d33d 2420 c63d d099 7f3d
00000140: f05b febc ab3e 1a3d 9d4c 57bd 32c7 aebd
00000150: d000 583d 99c4 f73c 08ae b83d 2528 0a3d
00000160: 4622 b73d cb3f b03d 2520 343d 46da 89ba
00000170: cf99 5cbd 47f8 06bd d68d 303d 9930 283d
00000180: f814 23bd 7c5b 9d3d 50de 8c3d 8256 333d
00000190: 3fe8 e33c 512d 823d 7563 8b3d 66da d9bd
000001a0: 4201 423d 628a 563d cffd a13d 3999 f73c
000001b0: bfd1 8a3c 1d57 c8bd d76b a33d c780 b73d
000001c0: 3eab 7c3d e9eb 2c3d a4ba a83c e8f2 8f3d
000001d0: c8c7 b8bd d59e 783d 0001 933d 8830 843d
000001e0: cf68 b73d f755 9abd 966e c5bd e62e d43c
000001f0: 1848 103b 5395 84bd 6b95 a43d c739 b43d
-0.008275836 0.00057336205 0.04846781 0.050888762 -0.016678443 0.039571684 0.07784792 -0.0050141523
0.006262401 -0.05040682 -0.022657167 0.0050653117 0.018673396 0.087033376 -0.04140062 0.03615244
0.06890995 0.05354474 0.053575817 0.063388005 -0.00030603306 0.051935967 0.062330388 -0.0848827
0.0038230908 0.042643692 0.022518098 0.09547345 0.035056923 0.003086788 0.07943653 0.041384246
-0.0012210845 0.08823423 0.07745665 0.02007862 0.04836162 0.05837979 0.019532738 0.0040814
0.01201124 0.01004804 0.05766969 0.045561485 -0.010108653 0.024541145 -0.061631586 -0.06225156
0.08258856 0.051900733 0.06796499 0.0039101103 0.07850653 0.03127693 -0.094728336 -0.0030043372
0.044773545 -0.043522593 -0.040153738 -0.010745022 0.06052464 -0.016852107 0.04593781 -0.057881285
0.07284379 0.088611774 0.10676196 -0.0017286555 0.110698014 0.09464249 0.08577646 0.10278079
0.048654888 0.03368862 -0.052161634 0.025188198 0.10601746 0.103225596 0.09674099 0.062402546
-0.031049699 0.03765742 -0.0525633 -0.08534087 0.05273515 0.030245112 0.09017569 0.03372969
0.08942084 0.086059175 0.043975968 -0.0010517321 -0.05385762 -0.03295162 0.043104015 0.04106197
-0.03981492 0.07683465 0.0687834 0.043783672 0.027820705 0.063563 0.06806079 -0.10637359
0.04736448 0.052378066 0.07909738 0.03022443 0.016945718 -0.097822405 0.07979553 0.08960109
0.061686747 0.04221717 0.02059681 0.070287526 -0.0902248 0.06069835 0.07177925 0.06454569
0.089555375 -0.07535928 -0.09640233 0.02590127 0.0022015627 -0.06473794 0.08036312 0.08800083

bn_ms.running_mean f4 [128]
00000000: 6c8f d13e 0405 b3bd 3fe1 22bf 65ed 063d
00000010: b3b2 eb3e 94fc 3c3e cf9e 873e f4ee 5dbe
00000020: ba29 833e 500d 283f 97fe 133f 94bc b73e
00000030: 2853 03bf 8ab1 1fbe 179e 673f ed48 b13e
00000040: 3c2b 70bb 3028 cc3d 5cc2 213e f97f 1d3e
00000050: 8703 a63e bb15 d03d ad0e 0e3d d257 f43e
00000060: c2d9 493c 20e7 713e bdcc f03e d937 0bbf
00000070: 9a9c 42be 97a9 c03e 3430 de3c 3716 49bf
00000080: fa18 aabc 583f be3c 7303 85be 2f48 1c3f
00000090: 4410 a4bc 71dc b3be b412 c6bc dd96 52be
000000a0: 1541 4ebe 525d 1fbd deb9 a2be f691 46be
000000b0: 53c8 48be 0a6c 38be f668 2a3f 575f 693f
000000c0: 7520 9fbd 55d0 cd3b db94 203e e5b2 1b3e
000000d0: 06f6 cebe c408 eabe a554 593f 7202 7d3e
000000e0: 6c8e 06be 46f0 5dbe 8379 653f ccea 1cbe
000000f0: 96d4 c4be e98f 8fbe 1fc5 bc3c ff9f 493f
00000100: 2a8c ecbe 2922 8b3b 39a4 83be a69e 293f
00000110: 4c06 513e 5035 dfbf 6220 82bc 6a52 94be
00000120: fec9 e4bf 607b a4be 4552 b5bd 4724 183f
00000130: 3796 09be 4e96 00c0 97fc fa3d 5e58 863e
00000140: 9d24 dbbc 1fe9 8d3e 24cf 5e3f 184c f1bd
00000150: f683 28bf 0ba9 2bbf 1e2e 8fbd 1ed6 233f
00000160: 274f 173f 209b 773e 06fd 25bd 8b19 393f
00000170: 562e 46bd 0e5e a53f 2240 3c3f 4cfc 46be
00000180: c959 56be 60c2 14bd 0543 e4be 9087 abbf
00000190: b7c0 fd3d f63a 02bf 3981 febe ccd7 07be
000001a0: c333 c2be 77f0 cdbe 35d3 cd3e c0c6 91bf
000001b0: 4dce 333f dc89 123f 0e68 dcbd 8294 f7be
000001c0: ff78 20bf 003e 34bf 14b8 653f 4ade 7b3e
000001d0: 8dfd f03f f653 dabe 5673 93be 5dc0 80be
000001e0: 7c4a d83e 0c66 7e3f 599d 1cbe 7ead d3bd
000001f0: 540f 073f 299f 9e3f d878 a23d 1c2e 00be
0.40929735 -0.08741191 -0.6362495 0.03294124 0.46034774 0.18455726 0.2648835 -0.21673185
0.25617772 0.65645313 0.5781035 0.3588606 -0.5129876 -0.1559507 0.904756 0.3462595
-0.0036646863 0.09968603 0.15796798 0.15380849 0.32424566 0.10160395 0.034681965 0.47723252
0.012319984 0.23623323 0.47031203 -0.5438209 -0.19005051 0.37629387 0.027122594 -0.7854952
-0.020763863 0.023223564 -0.25979194 0.61047643 -0.020027287 -0.3512912 -0.02417884 -0.20565362
-0.20142014 -0.038907357 -0.3178243 -0.19391617 -0.19607668 -0.18009964 0.6656641 0.911611
-0.077698626 0.0062809386 0.15681784 0.15204962 -0.40422076 -0.45709813 0.8489478 0.24707964
-0.13140267 -0.21673688 0.8963854 -0.15323943 -0.3844344 -0.28039482 0.023043213 0.7875976
-0.46200687 0.0042460156 -0.2571123 0.66257703 0.20412558 -1.7438145 -0.015884582 -0.28969127
-1.7874143 -0.32125378 -0.08853582 0.59430355 -0.13436209 -2.0091739 0.12255209 0.26239294
-0.026750857 0.2771692 0.8703482 -0.11782092 -0.65826356 -0.67054814 -0.06991218 0.6399859
0.5910515 0.24180269 -0.040524505 0.723046 -0.048384033 1.2919328 0.7353536 -0.19432181
-0.20932688 -0.036318183 -0.44582382 -1.3400745 0.12390273 -0.5087122 -0.49707964 -0.13265914
-0.37930116 -0.40222523 0.402002 -1.1388779 0.70236665 0.57241607 -0.10762034 -0.4835549
-0.62684625 -0.70407104 0.89734006 0.24596515 1.8827378 -0.42642182 -0.28798932 -0.25146762
0.42244327 0.9937446 -0.15294398 -0.103358254 0.52757764 1.2392322 0.07933205 -0.1251759

bn_ms.running_var f4 [128]
00000000: cd9a 543e 0b52 633e 189b 8c3e 4edd 183e
00000010: eb9e 333e b219 333e 81b9 f33d 0217 4f3e
00000020: fbaf 333e aa41 7d3e d69d 153e 5814 6b3e
00000030: 70db 4e3e 4e0d 223e 0408 b53e 958b 2f3e
00000040: aa74 d23d 072d ff3d df02 103e d472 073e
00000050: 6204 383e 6df1 cb3d f5c5 073e d38d ef3d
00000060: d702 5d3e 828f 073e 565b 1d3e 2959 a13e
00000070: 4f16 163e 287f 183e 1bee d53d a864 873e
00000080: aad7 0d3e 0e60 ba3d fbda 1b3e 740e 783e
00000090: 2f56 b13d 429f 713e d5c8 0d3e 3822 2d3e
000000a0: ed4b 383e 253a d63d 0976 2f3e ae82 013e
000000b0: 310e 293e c6e7 403e cd0c 843e 9894 b53e
000000c0: 6349 a83d 9066 f93d d2d7 0e3e c0b7 e43d
000000d0: 6902 3a3e 2074 9a3e 2f8f ac3e 4a04 443e
000000e0: eabc f53d 1311 503e 6eac d53e b624 3d3e
000000f0: 467e c13d 2097 573e fcc4 4e3e 40e2 ac3e
00000100: 6a16 073f 00b2 c43e 7621 753e 4790 be3e
00000110: d330 643e 6d7b 6e3f bdc5 8a3e 5bed 8b3e
00000120: 134a 813f 21ef c23e 0bcb d53e b5b5 a43e
00000130: 51b0 b93e e742 a43f 49bb 823e acd0 d73e
00000140: a8c4 d83e aa22 713e 5f56 133f 15c7 173f
00000150: 4dda 0a3f 18c5 d73e 7454 d83e 38bc 313f
00000160: 7ec1 e53e 6839 b23e eeff 973e 3234 1a3f
00000170: 822f d53e 1042 573f d974 e53e 60b7 d23e
00000180: 9776 e13e b355 c33e e9a9 6b3e 5fb2 763f
00000190: da27 9e3e 32ff 123f a30c 023f 9b4d 133f
000001a0: 65c6 543e 7f63 753e 8bcf b23e 785f 6f3f
000001b0: df23 1e3f 2d39 9b3e 1a8e bd3e 02db f23e
000001c0: 0012 293f 9d4c 3e3f 7a95 503f 1de9 a23e
000001d0: cbce 9c3f c032 083f 0eda 093f 1458 8d3e
000001e0: b1ab 043f 6e94 173f 1046 023f 7af3 b53e
000001f0: dcad d33e c884 133f 84e4 ed3e 77f2 233e
0.20762177 0.22199266 0.27462077 0.14928171 0.17541091 0.1749027 0.119006164 0.2022362
0.175476 0.2473208 0.14610991 0.2295698 0.20200896 0.15825388 0.35357678 0.1714309
0.10276158 0.1245976 0.14063595 0.13227397 0.17970422 0.09958158 0.13259108 0.11696973
0.21583115 0.13238338 0.15366873 0.31513336 0.14656948 0.14892256 0.10445806 0.26443982
0.138518 0.09100352 0.15220253 0.24224263 0.08659016 0.23595908 0.13846143 0.16907585
0.17997713 0.10460309 0.1713487 0.12647507 0.1650932 0.18838415 0.25791016 0.3546493
0.082171224 0.12177765 0.13949516 0.1116786 0.18164982 0.3016672 0.3370299 0.19142261
0.11998923 0.20319013 0.41733116 0.18471035 0.09447913 0.21053743 0.20192331 0.33766365
0.52768576 0.38417053 0.23938546 0.3721945 0.2228425 0.9315708 0.27103987 0.27329525
1.0100731 0.38073066 0.41756472 0.3216988 0.3626733 1.2832917 0.25533512 0.42151392
0.42337537 0.2354838 0.57553667 0.5928815 0.5423935 0.42142558 0.42251933 0.69427824
0.44874185 0.34809422 0.29687446 0.60235894 0.41637808 0.8408518 0.4481571 0.4115553
0.4403579 0.3815132 0.23014034 0.9636592 0.3088978 0.5742065 0.5080053 0.5754029
0.20778807 0.23963736 0.34923968 0.9350505 0.61773485 0.3031706 0.37022477 0.47432715
0.6604309 0.7433565 0.81478083 0.31818476 1.2250608 0.5320244 0.5384835 0.2760626
0.5182448 0.5921086 0.50888157 0.3553732 0.41343582 0.57624483 0.46463406 0.16010462
